adi_network.pth (torch, 159984 bytes, 5 tensors)

weight f4 [256, 144]
0	0xbd9e3582	-0.077250496
1	0xbd9a9320	-0.07547593
2	0xbdbbe1ce	-0.09173928
3	0xbdb46dec	-0.088100284
4	0x3c3bbdaa	0.011458794
5	0x3b1469dc	0.0022646105
6	0xbd8b8c6d	-0.068138935
7	0xbb4303b5	-0.0029756848
8	0xb9b23248	-0.00033988268
9	0xbdf98efc	-0.12185475
10	0xbd06bf46	-0.032897256
11	0xbd27e2c4	-0.040987745
12	0xbdd38d4c	-0.103296846
13	0xbd0de82e	-0.034645252
14	0xbdb8b617	-0.09019106
15	0xbdc5a7e6	-0.09651165
16	0xbd3520f9	-0.0442209
17	0xbd70aa72	-0.0587563
18	0xbace5650	-0.0015742276
19	0xbda63535	-0.08115617
20	0xbd9f4976	-0.077776834
21	0xbd7296cf	-0.059225854
22	0xbd8ded99	-0.06930084
23	0xbb0e8156	-0.002174457
24	0x3bf025a6	0.007328707
25	0xbc04f5c5	-0.008115237
26	0xbd0b8fd5	-0.034072716
27	0xbca21396	-0.01978473
28	0xbdd0b531	-0.101908095
29	0xbdf1c4df	-0.11805128
30	0xbd973d68	-0.07384759
31	0xbd8fb84d	-0.070175745
32	0xbce274f4	-0.027643658
33	0xbd6b9192	-0.057511874
34	0xbd00c106	-0.03143408
35	0xbde3fd3e	-0.111322865
36	0xbddcc9f7	-0.10780709
37	0xbdde9a3c	-0.108692616
38	0xbdf0e9ba	-0.1176333
39	0x3d1d3887	0.038383987
40	0x3cdd3c2d	0.027006233
41	0xbd6c9b50	-0.057765305
42	0xbd9a6451	-0.07538665
43	0xbdaa65de	-0.08320211
44	0xbcc036e3	-0.023463672
45	0xbd921198	-0.07132262
46	0xbd0e9046	-0.03480556
47	0xbcc3159f	-0.02381402
48	0xbde34442	-0.110970035
49	0xbdf0bfda	-0.11755343
50	0x3c165ae7	0.009176946
51	0xbcff517b	-0.031166783
52	0xbc81c19b	-0.015839389
53	0x3cb484f0	0.022036046
54	0x3b9f494a	0.0048610317
55	0xbdeea060	-0.11651683
56	0xbd560836	-0.052253924
57	0x3ccfded5	0.02537481
58	0xbd81aa44	-0.06331304
59	0xbdb4f53c	-0.08835837
60	0x3c2df6c2	0.010617914
61	0xbcc33d63	-0.023832982
62	0xbdc6e7c9	-0.09712178
63	0xbd1a1f41	-0.037627462
64	0xbdd9cdb3	-0.10634937
65	0xbdb6182a	-0.08891328
66	0x3d113763	0.03545321
67	0xbd4fba30	-0.05071467
68	0xbd7f445b	-0.06232105
69	0x3ce67e70	0.028136462
70	0xbdee6c13	-0.11641707
71	0x3baec3c5	0.005333396
72	0xbdad8d4d	-0.084742166
73	0xbd847471	-0.06467522
74	0xbbec0c4a	-0.0072036134
75	0x3b846fe6	0.0040416596
76	0xbda556c6	-0.08073191
77	0xbaf9e890	-0.0019066501
78	0x3cb10c70	0.021612376
79	0xbd976334	-0.07391968
80	0xba158c08	-0.0005704765
81	0xbda95ff3	-0.08270254
82	0xbd4030c6	-0.046921514
83	0xbb6b37af	-0.0035891344
84	0x3d2663e0	0.040622592
85	0xbd8e0482	-0.069344535
86	0xbde44b84	-0.11147216
87	0xbdbb6e33	-0.09151878
88	0xbdc92932	-0.098223105
89	0x3ba28532	0.004959726
90	0xbd2d9c37	-0.042385306
91	0xbd784555	-0.060612995
92	0xbdf4cd0d	-0.11953173
93	0x3c9eb745	0.0193745
94	0xbd59eada	-0.053202488
95	0xbd9be7a2	-0.0761254
96	0xbddb9e7b	-0.10723587
97	0xbdf5dc49	-0.12004907
98	0xbd45f165	-0.048325915
99	0x3d17d277	0.03706595
100	0xbc020e03	-0.007937911
101	0xbc2dffd2	-0.010620074
102	0xbde16002	-0.1100464
103	0x3d23443c	0.039859995
104	0xbd0f76da	-0.035025455
105	0xbd2305d6	-0.039800487
106	0xbd7cc780	-0.061713696
107	0xbba0caaf	-0.0049069743
108	0xbdbeb6d3	-0.09312215
109	0x3cd3fc9f	0.025877295
110	0xbde79ff9	-0.11309809
111	0xbd93c099	-0.072144695
112	0xbcdc4466	-0.026888084
113	0xbd6fd1b8	-0.058549613
114	0xbda73ec3	-0.08166268
115	0xbdcde521	-0.100534685
116	0x3d16dc60	0.03683126
117	0xbccc1d10	-0.024916202
118	0xbd90a447	-0.070625834
119	0xbd5b498b	-0.053536933
120	0x38a77510	7.984985e-05
121	0xbd01fc34	-0.03173466
122	0x3ccf1a0b	0.025280973
123	0xbc8f6880	-0.017505884
124	0xbdda705e	-0.106659636
125	0xbd4af772	-0.04955239
126	0xbd0df3bf	-0.034656283
127	0xbd46e0a4	-0.048554078
128	0x3d1cd374	0.038287595
129	0xbbaa51fd	-0.005197762
130	0xbdd87952	-0.10570015
131	0xbd878b57	-0.06618374
132	0xbdeb1762	-0.11479069
133	0xbd972223	-0.07379558
134	0xbde36a81	-0.111042984
135	0x3c814d9c	0.015784077
136	0xbd815658	-0.06315297
137	0x3cb41a8b	0.021985313
138	0x3c639b10	0.01389195
139	0x3ce8ad84	0.028403051
140	0xbcd600ef	-0.026123492
141	0xbd8f8c33	-0.07009163
142	0xbd72d700	-0.05928707
143	0xbc65ca0f	-0.014025225
144	0xbcaf0061	-0.021362485
145	0xbd5093e4	-0.05092229
146	0x383658c0	4.3474836e-05
147	0x3d49cd22	0.049267896
148	0x3cbe2cf1	0.02321479
149	0xbd6c7380	-0.057727337
150	0x3d41122a	0.047136463
151	0xbc1fdece	-0.009757711
152	0xbc98206e	-0.018570151
153	0xbd2ab937	-0.04168054
154	0xbdaa5b58	-0.08318204
155	0xbdfb0807	-0.122573905
156	0x3d5b5861	0.05355108
157	0x3d1c138f	0.03810459
158	0xbcd2d79f	-0.025737582
159	0xbbf507ca	-0.007477735
160	0xbd4189f4	-0.047250703
161	0xbe14abab	-0.14518611
162	0x3c44ec1a	0.012019182
163	0x3dbfd596	0.0936691
164	0xbda30909	-0.07960708
165	0xbd84b346	-0.06479506
166	0xbd93c4a4	-0.072152406
167	0xbb430771	-0.0029759074
168	0xbde2d034	-0.11074868
169	0xbd21e1d0	-0.039521992
170	0x3bd25c9e	0.0064197322
171	0xbd44bcd7	-0.048031654
172	0xbe0a364f	-0.1349728
173	0x3d6da51a	0.05801878
174	0x3c00d20b	0.007862578
175	0xbddaa79d	-0.10676501
176	0xbdb1c5b9	-0.08680291
177	0xbdb8fdb0	-0.09032762
178	0x3c9648da	0.018345285
179	0xbd26afe2	-0.04069508
180	0xbdfd96f7	-0.1238231
181	0xbe0c2a5d	-0.13688035
182	0xbd11fdbb	-0.035642367
183	0xbd9e0a7e	-0.07716845
184	0x3b1d41de	0.0023995559
185	0x3d8e8980	0.0695982
186	0xbd853893	-0.06504931
187	0xbd9550af	-0.0729078
188	0xbcd31881	-0.02576852
189	0x3ccbe070	0.024887294
190	0xbdc2261a	-0.094799235
191	0x3d5e098d	0.054208327
192	0xbdc2e204	-0.09515765
193	0x3d8a6f76	0.06759541
194	0xbde8cd97	-0.11367338
195	0xbc80bdde	-0.015715536
196	0xbd97e6f1	-0.074170955
197	0xbe191210	-0.14948297
198	0xbce7aa6a	-0.028279502
199	0x3d310e54	0.043226555
200	0xbe0aa456	-0.13539252
201	0xbcb1c272	-0.021699164
202	0xbdfab93a	-0.122423604
203	0xbc1e28ac	-0.009653252
204	0xbe0e011c	-0.1386761
205	0xbe0152d1	-0.12629248
206	0x3dbed794	0.09318462
207	0xbd31aed0	-0.043379605
208	0xbba5b91a	-0.005057466
209	0x3bf8cf60	0.0075930804
210	0xbd094771	-0.033515397
211	0xbe0e7916	-0.13913378
212	0x3dda02cd	0.106450655
213	0xbceb3167	-0.02871008
214	0xbde9c6c3	-0.11414864
215	0xbdbd2426	-0.092354104
216	0xbd2a2cac	-0.04154651
217	0xbd3ac16c	-0.045594618
218	0xbd2cfad1	-0.042231385
219	0xbdbe0b74	-0.09279528
220	0x3dbf30da	0.093354896
221	0xbde91943	-0.113817714
222	0x3c048525	0.008088385
223	0xbd8894fc	-0.066690415
224	0xbd8e93fb	-0.06961819
225	0xbde8dfc0	-0.11370802
226	0xbc983696	-0.018580716
227	0xbe036ae0	-0.12833738
228	0xbc5d8b2c	-0.013521951
229	0xbd0708fd	-0.032967556
230	0xbd14e364	-0.03634967
231	0xbe1c0970	-0.15237975
232	0xbc521aa4	-0.012823734
233	0xbd3a2e00	-0.045454025
234	0xbe125463	-0.14290003
235	0xbdb40e6e	-0.08791815
236	0xbe07364a	-0.13204303
237	0xbca0d85a	-0.019634414
238	0x3bc4d59d	0.00600691
239	0xbd7c6c89	-0.061626945
240	0xbd854a3c	-0.065083
241	0xbd5f6afc	-0.054545388
242	0xbd7813fe	-0.06056594
243	0xbdb24b71	-0.087057956
244	0xbdc10f24	-0.09426716
245	0xbe096bfa	-0.13420096
246	0x3d27b4c9	0.040943895
247	0xbd7e9e8e	-0.06216293
248	0x3d00249b	0.03128491
249	0xbd8dbd45	-0.06920866
250	0xbce29aa8	-0.027661636
251	0xbddb3564	-0.10703543
252	0xbe067eaa	-0.13134256
253	0xbcaaec07	-0.0208645
254	0x3c9ccfdb	0.019142082
255	0xbcb6a410	-0.022295028

bias f4 [256]
0	0xbdb7f75f	-0.08982729
1	0xbd1d04e4	-0.038334742
2	0x3b36e96d	0.0027910129
3	0xbae19862	-0.0017211551
4	0x3dc71ee7	0.09722691
5	0xbcf72010	-0.030166656
6	0x3ccae0ae	0.024765339
7	0x3d9b75b1	0.07590807
8	0xbd1bca16	-0.03803452
9	0x3be8f2fa	0.007109043
10	0xbd2d5c90	-0.042324603
11	0x3ddb5568	0.10709649
12	0x3d4a2e4e	0.049360566
13	0x3d2d351c	0.042286977
14	0x3ba185d8	0.0049292855
15	0xbdd91499	-0.10599632
16	0xbca3832d	-0.01996001
17	0xbd627803	-0.055290233
18	0x3dde6aa5	0.108601846
19	0xbe198ac3	-0.1499434
20	0xbd09fd76	-0.033688985
21	0x3ddb2f99	0.10702438
22	0xbc52878c	-0.0128497
23	0x3dc0faa3	0.09422805
24	0x3dd2c228	0.102909386
25	0x3c9a9cb1	0.018873544
26	0xbc2679a5	-0.010160838
27	0x3db75125	0.08951024
28	0x3dfa99b2	0.12236346
29	0x3d84e226	0.06488447
30	0xbc451de4	-0.012031052
31	0x3ca15798	0.019695088
32	0x3e19e487	0.15028583
33	0xbd47e322	-0.048800595
34	0xbd30eda4	-0.04319538
35	0x3c71ea62	0.014765354
36	0x3da81938	0.08207935
37	0x3e0d263f	0.13784121
38	0x3d9d6f44	0.07687238
39	0x3d453f54	0.048156098
40	0x3da825cc	0.08210334
41	0xbc97f08e	-0.018547323
42	0x3d25ef92	0.040511675
43	0x3dcd2e62	0.100186124
44	0x3c06c1f5	0.008224954
45	0x3d9dfcdb	0.07714244
46	0x3bff7b8f	0.0077967118
47	0x3d91cf54	0.07119623
48	0xbd7fec9d	-0.06248151
49	0xbd1838bd	-0.037163485
50	0x3dd45637	0.10368007
51	0x3c9aacd4	0.018881239
52	0x3d3a9a59	0.045557354
53	0x3dede080	0.116150856
54	0x3d116dae	0.03550499
55	0x3d59fed9	0.053221557
56	0x3dea04de	0.114267096
57	0x3dace466	0.08442001
58	0x3da0bbe8	0.0784834
59	0x3d384679	0.044989083
60	0x3e0e5b04	0.13901907
61	0x3d91975e	0.07108949
62	0x3db35f66	0.0875843
63	0xbd50d81d	-0.05098735
64	0x3db87379	0.090064
65	0x3d9d386f	0.076767795
66	0xbe04c095	-0.12964089
67	0x3d3c4f9b	0.045974355
68	0x3e11257d	0.14174457
69	0x3d6b881a	0.057502843
70	0x3d96da57	0.07365864
71	0x3d376f06	0.044783615
72	0x3d71678b	0.058936637
73	0x3d653f78	0.05596873
74	0x3d837117	0.064180546
75	0x3dee8961	0.11647297
76	0xba807a12	-0.0009802005
77	0x3d666b99	0.056254957
78	0x3d3670b2	0.04454107
79	0x3ab15cbc	0.0013531665
80	0x3e048d66	0.12944564
81	0x3d0b595e	0.034020774
82	0x3c61e9f4	0.013788689
83	0xbc58b216	-0.013226053
84	0x3dcf6df2	0.10128392
85	0xbc919010	-0.01776889
86	0x3e035a71	0.1282747
87	0xbb0cd028	-0.0021486375
88	0x3de25f91	0.11053384
89	0xbdbab5e2	-0.09116723
90	0x3dce9624	0.10087231
91	0x3c131606	0.008977419
92	0x3c8443be	0.016145583
93	0x3ce591a0	0.028023541
94	0x3cb60382	0.02221847
95	0x3c8b6c5e	0.017019447
96	0x3d9949b8	0.07484764
97	0x3d60e6c3	0.05490757
98	0x3c28930e	0.010288967
99	0xbd8b21c8	-0.06793553
100	0x3dbfc858	0.093643844
101	0x3d0cc500	0.03436756
102	0x3d908d0b	0.07058152
103	0x3df94476	0.12171261
104	0x3cec2368	0.028825477
105	0x3dfd0f71	0.12356461
106	0xbc003222	-0.007824453
107	0xbca274ea	-0.01983114
108	0x3d16502e	0.03669756
109	0x3d0b1efd	0.0339651
110	0x3dac3fa3	0.08410575
111	0x3de23cf7	0.11046784
112	0xbd48b71c	-0.04900275
113	0x3d4b6ce9	0.04966441
114	0xbc1976b9	-0.009366685
115	0x3d71579c	0.05892144
116	0x3de936ff	0.11387443
117	0x3db40845	0.0879064
118	0xbc10960a	-0.008824835
119	0xbcd4b08f	-0.025963096
120	0x3dc18e67	0.09450989
121	0xbd197ce6	-0.037472628
122	0x3d9ecd1b	0.077539645
123	0xbc9d8dcf	-0.019232659
124	0x3db8c030	0.09021032
125	0x3a223f90	0.0006189281
126	0x3cea8b90	0.028631002
127	0x3cc799c7	0.024365319
128	0x3db020b9	0.08599991
129	0x3cf210b4	0.02954898
130	0xbca9db96	-0.02073459
131	0x3d7b8e80	0.061415195
132	0xbda82e73	-0.082119845
133	0x3d2a0add	0.041514266
134	0xbd6bc58c	-0.057561442
135	0xbbdbe702	-0.006710888
136	0xbd60cc32	-0.054882236
137	0x3e07d041	0.13263036
138	0xbcfb3f94	-0.030669965
139	0x3def4163	0.116823934
140	0x3b5cc3c0	0.0033686012
141	0x3d82d89a	0.0638897
142	0xbbfa004a	-0.007629429
143	0xbdd64f27	-0.10464316
144	0x3dee1e97	0.11626928
145	0xbd256124	-0.040375844
146	0xbc0d4d6e	-0.008624418
147	0xbdce484c	-0.10072383
148	0xba9d4da6	-0.001200129
149	0xbd0c1d69	-0.034207735
150	0x3dd7a128	0.10528785
151	0x3e12bb9f	0.14329384
152	0xbd23231b	-0.0398284
153	0x3d9dfc49	0.07714135
154	0x3d22ae60	0.03971708
155	0x3d883c61	0.06652141
156	0x3da13168	0.078707516
157	0x3d9bc847	0.07606559
158	0x3de0f183	0.10983565
159	0x3d4c1f6c	0.049834654
160	0x3e0a174d	0.13485451
161	0x3dc621a7	0.096743874
162	0x3d053a94	0.032526568
163	0x3dfb2c1d	0.12264273
164	0x3dbcc618	0.09217471
165	0x3ae248b4	0.0017264099
166	0x3c389ab0	0.011267349
167	0x3b16590c	0.002294126
168	0x3d86a2bb	0.06574007
169	0x3b00c178	0.0019646566
170	0xbd3f56c5	-0.04671361
171	0x3ce225fe	0.027606007
172	0x3d145f7b	0.03622387
173	0xbc8025b1	-0.015642973
174	0xbcbeeb72	-0.023305628
175	0x3db71d6c	0.08941159
176	0xbc722423	-0.0147791235
177	0xbbfe2e42	-0.007756979
178	0xbcda85b9	-0.026675092
179	0x3dc5a7a1	0.09651113
180	0x3d5730a3	0.052536618
181	0x3cf01853	0.029308474
182	0x3dc6e1a8	0.09711009
183	0x3a8cdfea	0.0010747884
184	0x3c768685	0.01504672
185	0xbd385ae7	-0.045008566
186	0x3d78fdf6	0.06078907
187	0x3ddb37a9	0.10703976
188	0x3b794189	0.0038033447
189	0xbdcd0150	-0.10010016
190	0x3cf58625	0.029971192
191	0x3cc12e42	0.023581628
192	0xbddeade2	-0.10873009
193	0x3d5d4454	0.05402024
194	0xbcaff413	-0.021478688
195	0x3d09c4d5	0.03363498
196	0x3d52e854	0.051491097
197	0x3d804a01	0.06264115
198	0x3d1c8317	0.038210955
199	0xba4ef0e8	-0.0007894174
200	0x3d0133e6	0.031543635
201	0xbcb25098	-0.021766946
202	0xbcf54983	-0.02994228
203	0xbd6d8875	-0.057991464
204	0xbd8f8b8d	-0.07009039
205	0x3de1103c	0.109894246
206	0xbda9fa34	-0.082996756
207	0xbd6217e8	-0.05519858
208	0x399810c0	0.0002900418
209	0xbbda07d4	-0.006653765
210	0x3c888a56	0.016667526
211	0xbd9b0637	-0.07569545
212	0x3deffe9c	0.11718485
213	0x3d8b5cd8	0.06804818
214	0x3db5a572	0.08869447
215	0x3d24081a	0.04004679
216	0xbc9d9718	-0.019237086
217	0x3dd220c0	0.10260153
218	0xbd1db379	-0.038501237
219	0x3c8c4792	0.017123971
220	0x3d9242c9	0.071416445
221	0x3d3dfb15	0.04638203
222	0x3d9bb2a1	0.0760243
223	0x3dd43cbd	0.103631474
224	0xbdb29333	-0.08719482
225	0xbdb164ac	-0.0866178
226	0x3d840473	0.06446161
227	0x3dad99f2	0.08476628
228	0x3cb340d0	0.021881491
229	0xbd8e0791	-0.06935037
230	0xbdc783d4	-0.09741941
231	0x3ceab0fc	0.028648846
232	0x3df1b542	0.1180215
233	0x3d06850a	0.03284172
234	0xba895910	-0.0010478813
235	0xbaaf63f6	-0.0013381231
236	0xbcda39e3	-0.02663893
237	0x3d5f0b38	0.05445406
238	0xbd116281	-0.03549433
239	0x3d95af04	0.07308772
240	0x3d821a0d	0.06352625
241	0xbd9de7d2	-0.07710232
242	0x3df4cfc1	0.119536884
243	0x3e068f3a	0.13140574
244	0x3deea394	0.11652294
245	0xbc909afe	-0.017652031
246	0x3d17e151	0.037080113
247	0x3bd75452	0.006571331
248	0x3df3ddad	0.11907516
249	0x3e014e5a	0.12627545
250	0x3dc566d5	0.09638754
251	0x3d3858e4	0.045006648
252	0x3c1566bb	0.009118731
253	0x3d212e75	0.039350946
254	0x3e0f9dfd	0.14025111
255	0xbd378c3d	-0.044811476

weight f4 [1, 256]
0	0x3c4904f9	0.012269252
1	0xbcbcfe2e	-0.023070421
2	0x3d8445a1	0.06458593
3	0xbdd1c284	-0.10242179
4	0xbd2298b3	-0.039696407
5	0x3b6795d6	0.0035337112
6	0xbda6ebc4	-0.081504375
7	0x3d5ad37a	0.053424336
8	0x3ce9759a	0.02849846
9	0xbdb909e1	-0.090350874
10	0x3d0c0d1c	0.03419219
11	0x3d844acd	0.064595796
12	0x3cf037a4	0.029323407
13	0xbdd01af9	-0.101613946
14	0xbde13625	-0.109966554
15	0xbc90f413	-0.017694509
16	0x3de889d6	0.11354415
17	0xbdb5b3ec	-0.08872208
18	0x3d5ee9dd	0.05442225
19	0xbcea3491	-0.028589519
20	0xbdaa9664	-0.08329466
21	0xbdd00612	-0.10157408
22	0x3dafd8ee	0.08586298
23	0x3dd8b80e	0.10581981
24	0x3d87f58f	0.066386335
25	0x3d50a99e	0.05094301
26	0xbdc4877a	-0.095961526
27	0x3e07704b	0.1322643
28	0xbcc8b8ec	-0.02450224
29	0x3d7e7420	0.062122464
30	0x3db9ef4d	0.09078846
31	0xbe00dde1	-0.1258464
32	0x3ddd8a03	0.10817339
33	0xbdba0009	-0.09082038
34	0x3b8c7fe4	0.0042877067
35	0xbdfb0e4c	-0.12258586
36	0xbdbcd3de	-0.09220098
37	0x3daf87c1	0.08570815
38	0x3da83df5	0.08214942
39	0xbd666ad0	-0.056254208
40	0x3d161dd0	0.036649525
41	0x3d453751	0.048148457
42	0xbdbd65fe	-0.09247969
43	0x3de4a5fb	0.11164471
44	0x3d0fab8d	0.035075713
45	0x3de34f94	0.11099163
46	0xbdd700f7	-0.10498231
47	0x3dcb6697	0.09931677
48	0xbca4d3b0	-0.020120472
49	0xbce7a571	-0.02827713
50	0x3c0ac122	0.008468898
51	0x3dcbce12	0.09951414
52	0xbe010e84	-0.12603194
53	0x3db86287	0.090031676
54	0x3ce9260b	0.028460523
55	0x3dd73403	0.10507967
56	0xbe066e72	-0.13128069
57	0xbdbd1916	-0.092333004
58	0xbe008812	-0.12551907
59	0x3dc1f272	0.09470071
60	0x3d912b46	0.07088332
61	0xbdbe139e	-0.092810854
62	0x3dde1bcc	0.108451456
63	0xbd0db80d	-0.034599353
64	0xbdad014c	-0.08447513
65	0x3e0a6a4e	0.13517115
66	0xbcb2585a	-0.021770645
67	0xbd975a36	-0.07390253
68	0x3d6e3915	0.058159906
69	0x3dde39e0	0.108508825
70	0xbde37d12	-0.1110784
71	0x3bcee1bf	0.006313532
72	0xbd4dfc62	-0.05028952
73	0x3df1868a	0.117932394
74	0xbb0397a2	-0.0020079394
75	0x3da12ef0	0.07870281
76	0xbc82ded5	-0.015975395
77	0xbdbbc24b	-0.09167918
78	0x3d88b18c	0.066744894
79	0x3df601cb	0.12012061
80	0x3d9ddfcd	0.07708702
81	0x3d9f7fd9	0.07788057
82	0x3dd51179	0.10403723
83	0xbd04dc8e	-0.0324369
84	0x3dc55e53	0.096371315
85	0xbd9608a0	-0.07325864
86	0x3d9eeac4	0.07759622
87	0xbccd3717	-0.025050683
88	0xbdb4137a	-0.08792777
89	0xbc047408	-0.008084305
90	0x3d942fbc	0.07235667
91	0x3d624cf8	0.055249184
92	0x3d9a2f33	0.07528534
93	0xbcc61401	-0.02417946
94	0x3db58dea	0.088649586
95	0x3cf6f905	0.030148039
96	0x3e05908e	0.13043424
97	0xbdbea9f9	-0.093097635
98	0x3d4dad63	0.050214183
99	0xbdfe845a	-0.12427588
100	0x3d839dfd	0.06426618
101	0x3db44cc3	0.08803704
102	0xbded25cf	-0.11579477
103	0xbdbac236	-0.09119074
104	0x3db9f615	0.090801395
105	0x3dcf8c91	0.10134233
106	0xbdec8853	-0.11549439
107	0xbdce91c7	-0.100863986
108	0xbdad51db	-0.08462878
109	0x3d18c46f	0.03729671
110	0x3db273fa	0.08713527
111	0x3d34bd91	0.044126097
112	0xbd2d6dc3	-0.042341005
113	0xbda6a6db	-0.08137294
114	0xbd9ad0e7	-0.07559376
115	0x3db0790c	0.08616838
116	0x3d215012	0.039383
117	0x3c988727	0.018619133
118	0xbddf512e	-0.10904156
119	0x3d907af3	0.07054701
120	0x3dace93d	0.08442924
121	0xbdf84d77	-0.1212415
122	0xbdc52475	-0.09626094
123	0x3d8942eb	0.06702217
124	0x3dac56f9	0.08415026
125	0x3de404d0	0.111337304
126	0xbdfcd2b9	-0.1234488
127	0xbdac9e13	-0.08428588
128	0x3e123e3f	0.14281558
129	0x3db4fc98	0.08837241
130	0xbdce214b	-0.10064944
131	0x3dc64cf2	0.09682645
132	0xba97a7a3	-0.0011570345
133	0xbd2f6a50	-0.042825997
134	0xbdadd23f	-0.08487367
135	0xbdde409f	-0.10852169
136	0xbde995bf	-0.11405515
137	0x3d9b6ac7	0.075887255
138	0xbdec59e3	-0.11540582
139	0x3d9a9b51	0.075491555
140	0xbc9bc083	-0.019012695
141	0xbdfe5ee0	-0.1242044
142	0xbd472619	-0.048620317
143	0xbc058a65	-0.008150672
144	0x3d9c8a69	0.07643587
145	0xbd5d17e7	-0.053977873
146	0xbda2ec99	-0.07955284
147	0x3c19381b	0.0093517555
148	0xbdee09ec	-0.11622986
149	0xbd4e6850	-0.05039245
150	0x3d81452c	0.063120216
151	0x3dbf20a6	0.09332399
152	0x3d7a1366	0.061053656
153	0xbe05280d	-0.1300356
154	0x3de7cefa	0.113187745
155	0x3e091951	0.13388564
156	0x3dad8f36	0.08474581
157	0x3d92162d	0.07133136
158	0x3dbb6f5b	0.09152099
159	0x3c8cf037	0.017204387
160	0x3e0a2de4	0.13494068
161	0x3db0a6c1	0.08625556
162	0xbdfc83c2	-0.12329818
163	0xbdeca673	-0.11555185
164	0xbcaf7432	-0.02141771
165	0x3dbf0574	0.09327212
166	0x3d3d3e71	0.046202127
167	0x3d50e648	0.051000863
168	0x3d1f770f	0.038931902
169	0xbcd277d4	-0.025691904
170	0x3be12c8c	0.0068717655
171	0xbdf74b09	-0.12074859
172	0xbd21c4cf	-0.039494332
173	0x3dcdc158	0.10046643
174	0xbd17b09b	-0.03703366
175	0x3d806992	0.06270136
176	0x3d411293	0.047136854
177	0xbc78a1fc	-0.015175339
178	0xbdb162ca	-0.08661421
179	0xbe038fcd	-0.12847824
180	0x3c682826	0.014169728
181	0xbd1b29b6	-0.037881576
182	0xbdf22ca4	-0.11824921
183	0xbd9f56e2	-0.077802435
184	0xbdf34b1b	-0.118795596
185	0xbdde6d17	-0.10860651
186	0x3d89b492	0.06723894
187	0x3dcdaf94	0.100432545
188	0x3dded473	0.10880365
189	0x3c70b38a	0.014691243
190	0xbdd7e709	-0.10542113
191	0x3d5591b8	0.05214092
192	0xbbe87493	-0.007093975
193	0x3de640ea	0.1124285
194	0x3dacfac1	0.08446265
195	0xbdc13156	-0.09433238
196	0x3da4d7d7	0.08048981
197	0x3cecba46	0.028897416
198	0xbc079259	-0.008274638
199	0x3c501f4e	0.012702776
200	0x3d8cb2f8	0.06870073
201	0x3e0dc43e	0.13844392
202	0x3c9c00fc	0.019043438
203	0xbdaf0cd3	-0.08547368
204	0xbd920a9e	-0.07130931
205	0x3dd8a15b	0.10577651
206	0xbcb74f99	-0.022376822
207	0xbda4dfa2	-0.08050467
208	0x3dcedf0f	0.10101139
209	0x3c27d03e	0.01024252
210	0x3cd29ff5	0.02571104
211	0x3cd846a6	0.026400875
212	0xbd6fd4b8	-0.058552474
213	0x3d32c37b	0.043643456
214	0xbd9a765d	-0.07542107
215	0x3d852cb9	0.06502671
216	0x3deb9851	0.115036614
217	0x3deda0f4	0.11602965
218	0xbccba3b0	-0.024858326
219	0xbd32c922	-0.043648846
220	0xbda1baa2	-0.078969255
221	0x3d622dae	0.055219345
222	0x3d36a376	0.044589482
223	0x3da241a5	0.07922677
224	0xbc1283d1	-0.00894256
225	0xbd14d1b6	-0.03633281
226	0x3d6c7b1e	0.0577346
227	0x3d9636bb	0.07334658
228	0x3d90f95e	0.07078813
229	0xbaceea6f	-0.0015786419
230	0x3d323c99	0.04351482
231	0x3e132839	0.14370812
232	0x3db4133f	0.087927334
233	0x3d38d070	0.045120656
234	0xbcb6a920	-0.022297442
235	0xbd1ce999	-0.038308714
236	0xbdabddb3	-0.08391895
237	0xbe050f33	-0.1299408
238	0xbd16065b	-0.036627155
239	0x3daa3ae1	0.083120115
240	0x3d5816c9	0.052756105
241	0x3ca9a110	0.020706683
242	0x3d224899	0.039620016
243	0x3da46564	0.08027151
244	0x3d9d825f	0.07690882
245	0xbde1d940	-0.11027765
246	0x3da7de41	0.081966884
247	0xbdad85f4	-0.08472815
248	0xbdaea996	-0.0852844
249	0x3d153167	0.036424067
250	0x3cd5dea3	0.026107138
251	0xbd41dc52	-0.047329254
252	0x3dcb2ee3	0.09921052
253	0xbdfe52b2	-0.12418117
254	0x3ddaf697	0.106915645
255	0xbd9be763	-0.07612493

weight f4 [6, 256]
0	0xbd54af62	-0.05192507
1	0xb9d0ddb0	-0.00039838022
2	0x3d8bfeab	0.068356834
3	0xbdfeaebd	-0.124356724
4	0x3ced80c0	0.028992057
5	0xbdb2c89f	-0.08729672
6	0x3d62a698	0.055334657
7	0xbdd1ca40	-0.10243654
8	0xbd750de4	-0.0598277
9	0xbd306c0a	-0.043071784
10	0xbad9bb92	-0.0016611686
11	0xbd6423c5	-0.055698175
12	0xbd152345	-0.03641059
13	0x3dd4448c	0.10364637
14	0xbcef7f8f	-0.02923563
15	0x3bb3aff4	0.0054836217
16	0x3d932f55	0.07186762
17	0x3ba91707	0.005160216
18	0x3ce1f93b	0.027584663
19	0xbc8d032a	-0.017213423
20	0x3c24ec10	0.010066047
21	0x3db7f51c	0.08982298
22	0xbe0b9a84	-0.13633162
23	0xbd2ecbe6	-0.04267492
24	0xbda45ec4	-0.080258876
25	0xbcf1eeb2	-0.029532764
26	0xbd89616d	-0.067080356
27	0x3dd37158	0.10324353
28	0xbd9767f0	-0.073928714
29	0x3dbe0c37	0.092796735
30	0x3ddf33f3	0.108985804
31	0x3d8d8926	0.069109246
32	0xbdedae8e	-0.11605559
33	0xbd661a7f	-0.056177612
34	0xbcd571c6	-0.026055228
35	0x3da62aa3	0.08113601
36	0x3d37ae8a	0.044844188
37	0x3d5c2855	0.0537494
38	0x3d6236b2	0.055227943
39	0xbdbc3637	-0.09190028
40	0x3c490c8a	0.012271056
41	0x3d7066f8	0.05869195
42	0xbdc004bf	-0.09375905
43	0xbdde723a	-0.10861631
44	0x3da3e693	0.08002963
45	0xbd9d6956	-0.07686107
46	0x3ddc7b53	0.1076571
47	0xbcf29589	-0.02961232
48	0x3cf64350	0.030061394
49	0xbd8a6140	-0.0675683
50	0xbc04ff8f	-0.008117571
51	0x3d9696e0	0.07352996
52	0xbd3d3841	-0.046196226
53	0x3de2482d	0.11048923
54	0xbdd705ae	-0.1049913
55	0xbd1c5a2a	-0.038171925
56	0x3d5ff88c	0.054680392
57	0xbd1299e0	-0.035791278
58	0x3c247f8b	0.010040174
59	0x3bd4f22b	0.0064985952
60	0x3c8e9a5e	0.017407592
61	0x39bd4bc0	0.00036105327
62	0xbdc6d6f8	-0.09708971
63	0x3b8bc2cb	0.0042651645
64	0xbd693cc9	-0.056942735
65	0xbda5fcb5	-0.08104841
66	0xbdc17780	-0.09446621
67	0x3e01af1e	0.12664458
68	0x3db51a4a	0.08842905
69	0xbe042d1b	-0.12907831
70	0xbe059972	-0.13046816
71	0x3dee5bf3	0.11638632
72	0xbd9c23d2	-0.0762402
73	0x3dafc86a	0.08583148
74	0xbb6904e6	-0.0035555898
75	0xbd258d45	-0.04041793
76	0xbdbfb85a	-0.09361334
77	0xbd2905fe	-0.04126548
78	0x3d927945	0.071520366
79	0x3dc3a73d	0.095533825
80	0x3daa9196	0.083285496
81	0xbd9fab3c	-0.07796332
82	0xbdca1bd0	-0.09868586
83	0x3dfb81fd	0.12280653
84	0x3dca1abd	0.09868381
85	0xbbbb9648	-0.005724702
86	0xbc0bd492	-0.008534567
87	0x3e10525f	0.14093922
88	0xbcaf7873	-0.02141974
89	0x3c03a29d	0.0080343755
90	0xbca93cb5	-0.02065883
91	0xbdf5f605	-0.12009815
92	0x3ce8bf06	0.0284114
93	0xbda25fcd	-0.07928429
94	0x3d2902a0	0.04126227
95	0xbcbd3643	-0.023097163
96	0xbdbc8ad0	-0.09206164
97	0xbdf0dfac	-0.11761412
98	0xbde6ab70	-0.11263168
99	0x3de38414	0.11109176
100	0xbd05a0d1	-0.03262407
101	0x3d951cbf	0.072808735
102	0x3b3fa528	0.0029242728
103	0x3aecea18	0.0018075136
104	0x3d62406d	0.055237222
105	0xbddac839	-0.10682721
106	0xbc994eee	-0.018714394
107	0xbb0a3d10	-0.0021093525
108	0x3decb27d	0.115574814
109	0xbcec6999	-0.028858947
110	0xbdd38e29	-0.10329849
111	0x3d9f325d	0.07773278
112	0xbc9c4dff	-0.01908016
113	0x3e05789f	0.13034295
114	0x3d8b453f	0.06800317
115	0x3d543153	0.05180485
116	0xbdf8427f	-0.12122058
117	0xbc36de75	-0.011161436
118	0xbdf0ad00	-0.11751747
119	0xbe09f9e1	-0.13474227
120	0xbe11797b	-0.14206497
121	0xbd4a0bd9	-0.049327705
122	0x3dd39750	0.10331595
123	0xbdbbde73	-0.09173288
124	0x3da219a7	0.07915049
125	0xbd120c3b	-0.035656195
126	0x3d877c27	0.06615477
127	0x3d79eea9	0.06101862
128	0x3de589f3	0.11207952
129	0xbdb4ecbc	-0.08834216
130	0xbd4a4d2e	-0.04939001
131	0x3da5cec1	0.08096076
132	0x3d5c038f	0.05371433
133	0x3da773a5	0.08176354
134	0xbe01e570	-0.1268518
135	0xbd980e90	-0.074246526
136	0x3dcbbfef	0.09948718
137	0xbd7434e6	-0.05962076
138	0xbd469b25	-0.0484878
139	0xbe03b6de	-0.12862727
140	0x3d8514ee	0.06498133
141	0xbd306810	-0.04306799
142	0xbd034d73	-0.032056283
143	0x3d2d27f2	0.042274423
144	0xbde62a9b	-0.11238595
145	0x3db493bd	0.08817241
146	0x3c992c64	0.018697925
147	0xbd18771b	-0.037222963
148	0xbd118f1f	-0.03553688
149	0x3cdc806a	0.026916701
150	0x3c44363c	0.011975821
151	0xbdb490d6	-0.08816688
152	0x3c7f9094	0.015598435
153	0x3c46f0d5	0.01214238
154	0xbdcf8086	-0.10131936
155	0x3c2e6b5e	0.0106457155
156	0x3d79ee82	0.061018474
157	0xba81debc	-0.0009908299
158	0x3d40f5e8	0.047109514
159	0xbdfef3b2	-0.12448825
160	0xbe05cac3	-0.13065629
161	0x3e09f07b	0.13470642
162	0xbe016a34	-0.1263817
163	0x3d86ba06	0.0657845
164	0x3da9a244	0.08282903
165	0x3db485e5	0.08814601
166	0xbdf15ebb	-0.117856465
167	0xbdb19074	-0.0867013
168	0x3d953a12	0.07286467
169	0x3d3913d0	0.04518491
170	0xbdaf157b	-0.08549019
171	0xbc003be4	-0.007826779
172	0x3d2e78e1	0.042595748
173	0x3dd0dff6	0.10198967
174	0xbc51feb6	-0.0128170755
175	0x3d670bbd	0.05640768
176	0x3df3213c	0.11871573
177	0xbd906789	-0.07050998
178	0x3d4eb8cc	0.050469205
179	0xbc65eeb1	-0.014033959
180	0xbdb953dd	-0.09049199
181	0xbdda14c1	-0.1064849
182	0xbcd854b8	-0.026407585
183	0xbb94dead	-0.0045431466
184	0xbd76cea3	-0.060255658
185	0x3d87feb7	0.0664038
186	0x3cebb73d	0.028773898
187	0x3d3aef54	0.045638397
188	0xbe057499	-0.1303276
189	0xbd2cbcd5	-0.04217227
190	0x3dbddffc	0.09271237
191	0xbe01ccca	-0.12675777
192	0xbd27a943	-0.040932905
193	0xbda1f962	-0.07908894
194	0x3d42567f	0.04744577
195	0x3d0d6710	0.034522116
196	0xbde717a4	-0.11283806
197	0xbd8df29b	-0.06931039
198	0x3d234014	0.03985603
199	0xbd16b0d3	-0.036789726
200	0xbd7a0546	-0.061040185
201	0xbddbb62c	-0.10728106
202	0xba4eac5f	-0.00078839617
203	0x3d3fe3bb	0.04684804
204	0x3c217935	0.009855558
205	0x3dd325bf	0.10309934
206	0xbca2401c	-0.01980596
207	0xbd156e18	-0.036481947
208	0xbd273652	-0.04082329
209	0xbc836c10	-0.01604274
210	0x3d97d6b4	0.07413998
211	0xbd96a947	-0.07356506
212	0xbccc53c1	-0.02494228
213	0xbcd41347	-0.025888098
214	0x3d1a2a32	0.037637897
215	0xbdc27765	-0.09495429
216	0x3e09b67b	0.13448517
217	0x3ddb6e5a	0.10714407
218	0xbbbbeb3c	-0.005734829
219	0xbdd57832	-0.10423316
220	0xbd2678d0	-0.04064256
221	0x3dd7a208	0.10528952
222	0x3d296d37	0.04136392
223	0xbdaa57ff	-0.08317565
224	0xbcdf24f2	-0.027239297
225	0xbc3cf37e	-0.011532662
226	0xbd7b93d8	-0.06142029
227	0xbcda185e	-0.026622947
228	0xbd8e6a05	-0.06953815
229	0xbd2d8e23	-0.04237188
230	0xbd4d50fc	-0.05012606
231	0xbd9543ee	-0.07288347
232	0x3dc3458d	0.0953475
233	0xbe163117	-0.14667164
234	0xbe081fd3	-0.1329339
235	0xbdef2ed8	-0.116788566
236	0xbe074af0	-0.1321218
237	0x3d82e60f	0.063915364
238	0xbd9033bd	-0.07041118
239	0xbd428550	-0.047490418
240	0xbc961987	-0.01832272
241	0xbdb22cdd	-0.08699963
242	0xbd12dd02	-0.0358553
243	0xbdcf24a3	-0.1011441
244	0x3d9f6937	0.0778374
245	0x3d8c7ec9	0.0686012
246	0xbcdc8394	-0.02691821
247	0xbdd4f9b1	-0.10399187
248	0xbcf20ee2	-0.029548112
249	0xbd3c42b4	-0.04596205
250	0x3d8c43f1	0.06848896
251	0x3a8f9f4e	0.0010957511
252	0x3d9fcb1f	0.07802414
253	0xbdd9bfd8	-0.106322944
254	0xbd910795	-0.07081524
255	0xbdcde979	-0.10054297

bias f4 [6]
0	0xbd5874b1	-0.05284566
1	0xbd23caaf	-0.039988216
2	0xbd128d6f	-0.035779413
3	0xbd0ad1a9	-0.033891354
4	0xbd7f6e02	-0.06236077
5	0xbd1de44a	-0.03854779
