adi_network.pth (torch, 680496 bytes, 7 tensors)

weight f4 [256, 144]
000000 c1 0f 42 3c f7 eb 98 ba 7f b3 ae bd cf 90 65 bd
       0.011844576 -0.0011667003 -0.0853033 -0.056046303
000010 a8 96 57 bb ef 83 ae 3c 09 1e a7 bd 39 ec 20 3d
       -0.0032896195 0.021303145 -0.081600256 0.03928778
000020 8f 06 52 3d 05 f8 6c 3d 73 74 e6 bc c4 ca 8b 3d
       0.051275786 0.057853717 -0.0281317 0.06825784
000030 81 76 12 bd 4e da 79 3d eb 11 6e bd 4b 68 76 bb
       -0.035757545 0.060999207 -0.058122557 -0.0037598785
000040 ca 20 0f 3c e0 29 81 bd f0 c8 34 bc 21 55 d0 bc
       0.008735845 -0.06306815 -0.011034235 -0.025431218
000050 01 2d a9 bd 81 d8 a5 bd 0f 88 88 bc c9 fb 82 bd
       -0.08260537 -0.080979355 -0.01666644 -0.063956805
000060 36 1a 84 bc 98 0b b3 3d 9f 1e 08 bd 82 90 08 3d
       -0.01612578 0.08742446 -0.033232328 0.03334094
000070 ee e9 db bb b6 99 4d bd 6b 5c cc 3c 5e 31 54 3d
       -0.006711236 -0.05019542 0.024946412 0.051804893
000080 3d e1 b9 bd 7d 4e a9 bc 98 bd 31 3c 7f eb 96 bb
       -0.09076164 -0.020667309 0.010848425 -0.00460571
000090 f3 02 41 3d b7 bb 86 3d d4 5c 9b 3b 9e 2f 78 3c
       0.047121953 0.065787725 0.0047412906 0.015148072
0000a0 fc 5c 92 bd c1 e6 0d 3d 04 d2 4e bd e2 27 66 bd
       -0.071466416 0.034643892 -0.050493255 -0.05619038
0000b0 e7 81 59 3d d4 2a ca bd a1 09 5e bc 38 65 e7 3c
       0.0531024 -0.0987145 -0.0135521 0.028246507
0000c0 93 3e e3 3b 6d bc bf bd 38 75 09 bd ef 90 d1 3c
       0.0069349497 -0.09362111 -0.033559054 0.025581805
0000d0 d5 3a cd bd 2c 18 ab 3d f0 e3 ba bd 6b c2 f2 3b
       -0.10020987 0.0835422 -0.09125507 0.0074084303
0000e0 6d 24 1c bd 4f e0 19 3d ef d6 bf 3c 7b 63 40 bb
       -0.038120676 0.037567433 0.023417918 -0.002935617
0000f0 33 bd 00 bd a2 21 cc bc eb 1b 73 bc 85 a9 98 3c
       -0.031430434 -0.024918381 -0.014838199 0.01863552
000100 e3 9a 0c bd 70 2e 90 bd 68 ff de 3b ea 6f f6 bc
       -0.0343274 -0.07040107 0.006805349 -0.030082662
000110 81 3e 61 bd be c0 2f 3d 1b f6 24 3d f3 8d 2c bd
       -0.05499125 0.042908423 0.040273767 -0.04212756
000120 6d b0 ba 3c 1d 3a 53 3d 23 37 b9 3c 6a cb c4 3c
       0.022789204 0.051569093 0.022609299 0.024022777
000130 12 34 66 bd db f2 29 3d 69 17 f8 3c 91 ae 59 bd
       -0.056202002 0.04149137 0.0302846 -0.053144995
000140 9b 74 51 bd 07 60 eb bc dd b9 65 bc 5c 51 86 3c
       -0.051136594 -0.028732313 -0.014021364 0.016396217
000150 ab af 3f bc c2 a4 d7 bc 7c 1d 10 3d 1c 16 2d bd
       -0.011699597 -0.02632368 0.03518437 -0.042257413
000160 7e 77 5b 3d 07 51 96 3c 19 a9 89 bd 60 34 03 bc
       0.053580754 0.018349184 -0.06721706 -0.008008093
000170 46 ba bd bd 26 30 a4 bc 4d ce 1b bd 7a ad 18 3d
       -0.092640445 -0.02004249 -0.03803854 0.037274815
000180 a2 6d 63 3c 97 31 b4 bd f0 13 80 bd 0b 8f 73 bd
       0.013881119 -0.08798521 -0.06253803 -0.05946259
000190 51 75 a1 3d cc 3d c8 bd da f6 db 3c ef b6 2c bd
       0.078837045 -0.09777412 0.026851106 -0.042166647
0001a0 25 2a 46 bd 63 4a b8 bd 3c a1 8a 3c bc e5 b3 bd
       -0.048380036 -0.08998563 0.016922586 -0.08784053
0001b0 e7 c0 30 3d 4b 5b f8 bc 69 c6 b3 bd c6 33 75 3d
       0.043152716 -0.03031697 -0.08778078 0.059863828
0001c0 7e 40 d1 bd fd dc 64 3d fe 22 d5 bd 52 f4 1a 3d
       -0.10217379 0.055874813 -0.10407065 0.03783066
0001d0 66 1d 5b bd e2 44 6f 3d 3d 8e b6 bd 33 e6 a4 bc
       -0.053494833 0.0584153 -0.089138485 -0.020129299
0001e0 12 40 ee bc 16 40 4c 3d bd 16 b6 3c 1f 44 d7 3b
       -0.029083285 0.049865805 0.02222764 0.0065694
0001f0 f7 ec 89 bd 40 31 6e 3c f4 a7 8d bd bb 38 5a bd
       -0.067346506 0.014538109 -0.069168 -0.05327676
000200 43 c6 5f 3d dc e6 f5 3c 4c d0 12 bc b6 c3 53 3d
       0.054632436 0.030017309 -0.008960795 0.051700316
000210 dc 01 bb bd 0d db 40 bc e0 4b 89 bd c7 7d a7 bd
       -0.09131214 -0.011770976 -0.06703925 -0.08178287
000220 aa 8a 2b 3d 03 f7 39 bd b8 03 66 bd ab 08 82 3d
       0.041880287 -0.045401584 -0.05615589 0.063493095
000230 e8 a3 00 bd ea 81 b7 bc 89 a1 48 3d d2 b7 0f bd
       -0.031406313 -0.022400815 0.048982177 -0.035087414
000240 4c ff 8f bc a3 53 07 bd 7e d6 99 bd 8e 29 85 bd
       -0.01757779 -0.033038747 -0.07511614 -0.065020666
000250 65 64 b8 bd d6 59 ee bd fa d8 18 bd d1 82 58 3c
       -0.09003524 -0.116382286 -0.0373163 0.013214783
000260 08 a5 f4 3b 69 e9 90 3c cc 54 86 3c 76 cd 55 3d
       0.0074659623 0.017689424 0.016397856 0.052197896
000270 b2 27 cb bc 92 a5 49 3c 5c 16 92 bd 29 0f 8d 3c
       -0.024799202 0.012307541 -0.07133171 0.017219143
000280 a7 50 63 3d b9 35 57 bc d8 de 8a bc b1 87 5e bd
       0.055496838 -0.013135367 -0.016951963 -0.054328624
000290 49 bb eb bc 11 22 fb bc 65 93 1b bc 0c c5 9d 3d
       -0.028775828 -0.030655893 -0.009495591 0.07703599
0002a0 15 5b bd bd 74 2d 26 3d 97 e1 83 bd 76 e3 b2 bb
       -0.09245888 0.04057069 -0.06439512 -0.0054592444
0002b0 c2 d0 04 3d f9 1c 64 3d 81 84 b1 bd cd 12 8a bd
       0.03242565 0.055691693 -0.08667851 -0.06741867
0002c0 5b 58 76 bd 00 04 c3 bd 65 99 b5 bc 31 64 ce bc
       -0.060142856 -0.09522247 -0.02216787 -0.02519426
0002d0 d7 72 16 3c 35 38 78 bd 24 8f ac bb e3 2f 37 3d
       0.009182653 -0.06060048 -0.005266087 0.044723403
0002e0 20 e5 21 bd 56 5b 3d 3d 9d 4b ae 3c fd f9 44 bd
       -0.03952515 0.046229683 0.02127629 -0.04808997
0002f0 7a 88 00 3d 83 62 37 bd cd ca ff bc 2d 54 a0 bd
       0.031380154 -0.044771682 -0.031224633 -0.07828555
000300 18 c8 b2 3c 75 28 35 bd 76 8d c1 bc f5 d4 69 3d
       0.021823928 -0.044228036 -0.023627024 0.057087857
000310 31 3f 4d 3c 25 d6 24 3a ab 7f 58 bd d1 cc b1 bc
       0.012527273 0.00062880135 -0.05285613 -0.02170411
000320 eb 72 4c bd e0 4f e3 bd c7 69 8c 3c 62 4a 33 3d
       -0.04991428 -0.11099219 0.017140282 0.04377211
000330 a0 e7 91 bd 19 3b 9f 3d 84 ea 87 bd 3e 1c 2a bc
       -0.07124257 0.07774944 -0.06636527 -0.01038271
000340 5a 4b b5 bd 6d 12 30 bc ad 0f 0d bd 66 5f bc bd
       -0.08852263 -0.010746581 -0.034438778 -0.09197883
000350 17 ed b9 bc 0e 4b a7 3c 01 a0 89 bd d8 a1 bc bc
       -0.022696061 0.020421531 -0.067199714 -0.023026392
000360 91 43 8f bd da fc 06 3d 30 b7 97 bd b2 af 66 3d
       -0.06995309 0.03295598 -0.07407987 0.0563199
000370 99 28 fa 3b 92 62 b6 3d 2d 09 60 bd 7a e5 3b 3d
       0.007634234 0.089055195 -0.05469625 0.045873143
000380 a1 b0 09 3d 82 d2 95 bd 0d d4 20 3d b0 ac 4c bd
       0.033615712 -0.07315542 0.039264727 -0.049969375
000390 14 44 81 3b 38 30 05 bc 01 df 00 3d 1c 09 82 bd
       0.003944883 -0.008129172 0.031462673 -0.06349394
0003a0 ea c1 b1 bd 05 5c 03 bc 6e 9e 56 bd e1 9d a2 bb
       -0.08679564 -0.008017545 -0.052397184 -0.0049626683
0003b0 c5 4d 8d bc c2 69 9c 3c ab 87 f0 b9 2a fc 58 bd
       -0.017248997 0.019093398 -0.00045877448 -0.052974857
0003c0 40 e6 3a bd 88 30 5c 3d 6a 9a 45 3d 7d cd 97 3c
       -0.04562974 0.05375722 0.048242964 0.018530602
0003d0 af 3d ea bb de 41 33 bd 54 0b 81 3c 8c ed 4f 3d
       -0.0071484665 -0.043763988 0.015752472 0.05076365
0003e0 a0 12 d5 3c 68 dc 86 bd 71 1e 6a 3d 8f 9c ca bd
       0.026009858 -0.06585008 0.057157937 -0.098931424
0003f0 52 bd 1e bd d5 06 2b 3d 1c b8 02 bd 96 64 20 3d
       -0.03875477 0.041754562 -0.03191386 0.039158426

bias f4 [256]
000000 29 bc a1 bc d7 b6 54 bb 5e b0 5c bc af a9 6d bd
       -0.019743042 -0.0032457614 -0.013469784 -0.05802315
000010 b5 f5 7c bd 9c de 85 bc 0a 5d 8c bd 8a d8 0e bd
       -0.061757762 -0.0163415 -0.06853683 -0.034874476
000020 12 fe 11 3d cf 62 e8 bc 75 ff e2 bc e4 e2 f3 3b
       0.03564269 -0.028367428 -0.027709702 0.007442819
000030 c9 f4 cb 3c 0f b0 90 bd ca aa 84 bd 4d 3e b4 3d
       0.024896996 -0.070648305 -0.06477888 0.088009454
000040 5a b3 58 3d 92 cc 80 3c f9 c1 6c bd 72 10 31 bc
       0.052905418 0.015722547 -0.057802174 -0.0108071435
000050 5c f6 29 bd 8d 09 30 bd aa af 64 bd dc a7 e9 bc
       -0.041494712 -0.04297786 -0.05583159 -0.028522424
000060 02 1f 93 bc 3b c6 93 bd e5 11 f5 bc e2 85 76 3d
       -0.017959122 -0.07215544 -0.02991576 0.060186274
000070 8b ca 8d bd b3 9b 23 3c 3e dc 9f 3d 10 ae 9c bd
       -0.06923398 0.009985852 0.0780568 -0.07650387
000080 1a 22 a8 3d 1a 7a b8 3b af db c6 3c d3 ac 60 bc
       0.08209629 0.00562979 0.024274675 -0.0137130795
000090 20 06 d2 3c 94 51 b2 bc 01 00 98 3d 1e 98 21 bd
       0.025637686 -0.021767415 0.07421876 -0.03945171
0000a0 9e cb cb bc 50 9c 9b bd 19 b2 e1 bd fc cd a3 bd
       -0.024877366 -0.075981736 -0.110202976 -0.07998273
0000b0 14 a2 6c bd c9 0a f6 bc ba d7 4e bd 04 35 a3 bc
       -0.057771757 -0.03003444 -0.0504987 -0.01992274
0000c0 6d 9a be bd 2d 0c 09 bd d8 b3 a3 bc 57 83 29 3d
       -0.09306798 -0.033458877 -0.019983217 0.04138502
0000d0 cb 45 1e bd 39 50 f8 3c 2a 24 70 bd 71 bc 84 bd
       -0.03864078 0.03031169 -0.05862824 -0.06481255
0000e0 29 29 46 3d 73 6d 08 bd 2a 54 8f bc 12 cf ca bd
       0.048379097 -0.033307504 -0.017496187 -0.09902777
0000f0 af 4f 05 bd da 2e f7 3c 70 23 83 bd 1b 1b 2f bd
       -0.032546695 0.030173708 -0.064032435 -0.04275046
000100 ae a6 7e bd b6 a3 8b bd 1c e2 b2 bd f4 d8 cc bc
       -0.062170677 -0.06818335 -0.08734533 -0.025005795
000110 96 02 98 bd e8 46 be bd 9d dc d1 bd 5c c8 6f 3b
       -0.07422368 -0.09290868 -0.10247157 0.003658793
000120 5d 7b 8c bd 8e 30 92 3c 91 98 aa bd 20 a1 6a bd
       -0.06859467 0.017845418 -0.08329881 -0.057282567
000130 dc f9 e4 bc 8d 12 5e 3d 60 fb 24 3c 23 34 42 bc
       -0.027951173 0.05421691 0.010069698 -0.011853251
000140 57 0f b1 3c 70 db 4f 3d 80 af 8c bd 2f f4 ae 3d
       0.02161376 0.05074638 -0.068694115 0.08542668
000150 7e 84 97 bd 1c 05 90 bb 4f 24 cf 3b 2d 44 70 3c
       -0.07398318 -0.0043951403 0.006321467 0.014664692
000160 0f 84 c0 bd 35 37 79 bc 60 6a c5 bc 0e 7c 5d bd
       -0.09400188 -0.015210916 -0.024098575 -0.054073386
000170 af ad 83 bd 36 30 8b bc d5 8d 77 3c 67 e1 8d bc
       -0.06429612 -0.016990762 0.015109499 -0.017319394
000180 6f fc 6f bd 6f f8 93 3c be 84 00 3d 19 f4 a6 3c
       -0.05859035 0.018062798 0.031376593 0.020380067
000190 21 3f 54 bd be 6d 6f bc 0b 53 85 bd 30 25 24 bd
       -0.051818017 -0.014613567 -0.0650998 -0.040074527
0001a0 05 e1 38 3c ec c3 6c 3d 36 87 25 bd 54 ee ca bd
       0.011284118 0.057804033 -0.04041215 -0.09908739
0001b0 9d c5 d2 3d e8 b8 a2 bd a3 92 1a bd 74 0d 91 bd
       0.10291598 -0.07945424 -0.0377375 -0.07082644
0001c0 9a 1e 7e bd ac ef 01 3d 93 33 5a 3d 1a a8 9c 3d
       -0.062040903 0.03172271 0.05327184 0.0764925
0001d0 8e 9d 92 3d 2e 7f 02 3d 66 86 ca bd bb e0 9d bd
       0.071589574 0.03185957 -0.09888916 -0.077088796
0001e0 ea 95 bd bc 17 42 4e b7 4b 3d 53 3c 35 66 66 bd
       -0.023142774 -1.2293945e-05 0.012893031 -0.056249816
0001f0 f3 43 35 bd b3 56 09 bd 2f 54 55 3d 2f 26 b4 bc
       -0.044254255 -0.03352995 0.052082237 -0.021990864
000200 ce 15 0b bc 4d 2e 31 3c e7 c6 65 bc 1a 44 9d 3d
       -0.008489085 0.010814262 -0.014024473 0.07679005
000210 8c 82 28 3d 76 6f d5 3c 0c 9c be bc bb 17 29 bd
       0.041140124 0.026054125 -0.023267768 -0.041282397
000220 88 e5 5c 3d c6 77 04 bb f9 24 78 3d 8f ed 2f bd
       0.053929836 -0.0020212992 0.060582135 -0.042951163
000230 c5 43 88 3d 54 96 4f 3a 9e f4 8f 3d de 03 77 bc
       0.06653551 0.0007918824 0.07029079 -0.015076606
000240 37 67 c4 3c be fe 60 bd 5f a4 10 3c 1b ba 70 3d
       0.023974998 -0.05493044 0.008828252 0.058771234
000250 1f 4b 25 bd e5 f8 c4 bd 22 26 60 bd 1f be e0 bd
       -0.040354844 -0.09617785 -0.054723866 -0.10973763
000260 08 26 a8 3c 9c 30 7a bd 53 12 87 bc 6a ba 94 3c
       0.020525947 -0.061081514 -0.01648823 0.018155295
000270 dc fe a8 b9 7b 8a aa bd 0d c2 a7 3d 0a fa 00 39
       -0.00032233342 -0.08327194 0.08191309 0.00012300178
000280 16 31 9f 3c 3c 7f 67 bd 33 72 cf bd ad 5b 94 3d
       0.019432586 -0.056517825 -0.10129204 0.07244048
000290 47 1c aa bc ed a7 8b bd 07 fc 7d 3c 2a 90 ac 3d
       -0.020765437 -0.06819139 0.0155019825 0.084259346
0002a0 a1 32 9f bd cd 75 96 bc 9d 29 54 3d c2 7a 9e 3c
       -0.077733286 -0.018366719 0.051797498 0.019345645
0002b0 94 98 e4 3c 57 c5 e7 bc 39 34 04 bd 92 d9 f7 bc
       0.027904786 -0.028292341 -0.032276366 -0.030255113
0002c0 73 30 86 bd b8 40 67 3c 37 a5 96 3d 06 68 d0 bd
       -0.0655221 0.014114551 0.07355731 -0.10176091
0002d0 4a 68 05 3d f2 a5 be bd 52 6a 9d bd 4e e2 b9 bd
       0.03257016 -0.09308995 -0.076862946 -0.09076367
0002e0 eb b3 17 bd 3a 32 f5 bc d4 48 53 3d b4 40 24 bb
       -0.037036818 -0.029931176 0.051583126 -0.002506298
0002f0 ee 7e 7d 3d 45 46 8a 3c 21 18 2c bd 90 65 06 3d
       0.061888628 0.01687921 -0.0420152 0.0328117
000300 71 fb 19 3d 2e f7 eb 3c c9 72 93 bd f9 8c 0f 3d
       0.03759331 0.028804388 -0.07199628 0.03504655
000310 64 f9 42 3c ed c0 97 bd a9 49 a7 bd 2f b3 12 bc
       0.01190028 -0.074098445 -0.081683464 -0.0089538535
000320 d7 fb 6b bd 90 1a 86 bd 6a f3 87 bd 10 74 ae 3c
       -0.05761322 -0.06548035 -0.066382244 0.021295577
000330 de 04 bc 3d 7a 8d a2 bd 33 2f 1e 3c 38 8a 17 3c
       0.09180616 -0.07937141 0.009654808 0.0092492625
000340 4c 50 2f 3d 66 8b 79 3d a7 e3 14 bd f5 0c 44 3d
       0.042801186 0.060923956 -0.03634992 0.04786392
000350 a3 ce 8d bd dd df 48 3d bb e6 89 3c b4 7f b2 bc
       -0.069241785 0.049041618 0.016833654 -0.02178941
000360 b2 2c 0a bd 30 cf b9 bd 2a c0 05 bc 77 c0 48 bb
       -0.03373403 -0.09072721 -0.008163491 -0.0030632296
000370 60 77 cd bd a3 28 1f bd 9b 20 92 3d ac f5 4e 3d
       -0.100325346 -0.038857114 0.07135125 0.05052726
000380 a2 68 46 bd 31 14 eb bc 7f bc d0 bb 64 9e c5 3c
       -0.04843963 -0.028696151 -0.0063701267 0.024123378
000390 30 93 43 3d 58 2b 2d 3c 5e 65 b3 bc 72 fa a7 bd
       0.04774779 0.010569416 -0.021898922 -0.082020655
0003a0 86 56 3a 3d b4 eb 18 bd 81 05 74 3c c8 cb 32 bd
       0.04549267 -0.03733416 0.01489389 -0.043651372
0003b0 53 00 92 3b 6f c2 65 3d 88 2c c0 bc de 8d 2b bd
       0.004455605 0.05609363 -0.023458734 -0.041883342
0003c0 e9 07 80 bd 8e fb 3c bd d9 6d 09 bb 18 67 34 3d
       -0.06251509 -0.04613834 -0.0020970015 0.04404363
0003d0 1d 6d ed bd 54 f9 8d bd d8 d7 9b bd 37 86 7e 3d
       -0.11593077 -0.06932321 -0.07609528 0.062139716
0003e0 61 c4 71 bc 3c a1 a3 bd f4 2f 28 3d 1f 38 87 3c
       -0.014756293 -0.079897374 0.041061357 0.016506253
0003f0 f5 89 6a 3c e9 f0 bb 3d 7d ef 08 bc 5f d0 ad bc
       0.014315118 0.09176809 -0.00835788 -0.021217523

weight f4 [256, 256]
000000 b3 b3 5c 3c 1f 91 14 bd b5 a8 a2 bd dc be 85 3b
       0.013470578 -0.03627121 -0.079423346 0.00408159
000010 4a 71 d9 3c 9e 75 96 bd aa 70 70 bc 0f b7 4d bd
       0.026543278 -0.073466524 -0.014675299 -0.050223406
000020 2b a0 77 bd 73 64 03 bc 96 b3 82 bc c2 db 41 bd
       -0.060455482 -0.008019554 -0.015954774 -0.047328718
000030 49 09 71 3c c3 92 5f bc 38 6b b1 bc 68 a2 f8 bb
       0.014711686 -0.013645831 -0.021657571 -0.0075877197
000040 3b e7 b4 bc 63 0f 7d bc 68 3a 75 bd d6 11 8e bd
       -0.022082916 -0.015445563 -0.059870154 -0.06936996
000050 ad 69 40 3c c5 fc fc 3c 20 e5 51 bd 5c 6b f9 bc
       0.011743945 0.030882249 -0.0512439 -0.0304467
000060 ba 1d c5 bc 1e e0 06 3c 75 23 58 bd cc 5a 2c 3d
       -0.024062026 0.008232145 -0.05276819 0.04207878
000070 6a b2 a8 3c 2e 62 8e 3b c4 b7 26 bd 1a 91 25 bd
       0.020592887 0.0043452 -0.040702596 -0.040421583
000080 ff 1b 0e bd ea 64 d4 3c ee 6f 36 3c 45 49 58 bd
       -0.034694668 0.025927026 0.011135085 -0.05280425
000090 a7 ad 43 3c 5a f0 5a 3c 73 5f 92 bc b6 44 11 3d
       0.011943257 0.013362968 -0.01786778 0.03546592
0000a0 98 b1 0b 3d d0 9a 50 bd 18 13 13 bc 00 25 79 3c
       0.034104913 -0.05092889 -0.00897672 0.015206575
0000b0 2e 61 83 3c c1 2a a0 bd 49 65 b6 bc 7c e8 2f bc
       0.01603755 -0.07820655 -0.022265093 -0.010736581
0000c0 07 e4 03 3d 69 77 c2 3c 91 9e d8 bc c0 99 80 bd
       0.032199886 0.02373858 -0.026442798 -0.062793255
0000d0 33 65 11 bd ea 5e 76 bc 1c 54 ac bc 63 cf fd 3c
       -0.0354969 -0.015037278 -0.0210362 0.030982679
0000e0 0d 97 61 3c 10 ac 4d bd a5 55 04 3d ce 6d 0e bd
       0.0137689235 -0.05021292 0.03230824 -0.034772687
0000f0 8b 8b d0 3c 13 b3 96 bc 8d bf 3c bd 7b 33 d0 3c
       0.025457164 -0.018395936 -0.046081115 0.025415173
000100 3a c5 9e bd 07 ee 1e 3c e3 21 b8 bc 27 9e 23 bd
       -0.07752462 0.009700305 -0.022477096 -0.039945748
000110 06 76 e6 3c b5 f4 33 3c 9b bd 95 bd 8a 7e 05 3d
       0.02813245 0.010983636 -0.07311555 0.03259138
000120 54 17 10 bd 3d 29 94 3b c0 6a 6f bd 79 75 ff 3c
       -0.035178497 0.0045215175 -0.058451414 0.031183945
000130 69 63 37 bd 46 96 c3 37 ed ea 88 bd cd 74 bd 3c
       -0.04477254 2.3315788e-05 -0.066854335 0.023126984
000140 3c 02 09 bd ca 14 9f 3c 80 28 11 bd 87 28 4e bd
       -0.033449396 0.019419093 -0.035439014 -0.05033162
000150 46 e4 b2 bc 27 78 03 bd 5d 93 50 3c d0 5f 3c bd
       -0.021837365 -0.032097008 0.012730447 -0.04598981
000160 18 a0 39 3d 88 54 23 3d 8d 75 79 3a b1 84 e4 bc
       0.045318693 0.039875537 0.00095161126 -0.027895303
000170 ae 0c db 3b f4 63 20 bd a7 cb 91 bd 5d bd 13 bd
       0.006684861 -0.039157823 -0.07118922 -0.036069263
000180 a0 22 a2 bd 13 9a 28 bd aa 8f aa bc df 6d 89 bd
       -0.079167604 -0.04116256 -0.020820457 -0.067104094
000190 d9 62 8f 3c 63 7a 92 bd 4c cb 20 bd db 91 02 3d
       0.017503189 -0.0715225 -0.03925638 0.03187738
0001a0 2f 44 f3 3c 14 11 7d bc 0f e3 b6 3c 67 17 d1 3c
       0.029695598 -0.015445966 0.022325067 0.025523854
0001b0 f0 a2 96 bd 4a b5 3d bc a5 c3 1f bc 21 58 7c bc
       -0.073552966 -0.011578867 -0.009751235 -0.015401871
0001c0 2e 8d da bb 33 27 54 bc 5b d9 c3 3c e3 0a 9e bd
       -0.006669662 -0.012948799 0.023907354 -0.0771692
0001d0 ea 84 b2 3c c7 9d 7b bd d6 d7 2c bd 06 63 bf bb
       0.021791894 -0.061429765 -0.042198025 -0.005840662
0001e0 a5 5b c7 3c 22 26 5e bd bc 0a e9 bc 99 11 9b bb
       0.024335692 -0.054235585 -0.028447501 -0.0047323224
0001f0 81 7b 10 bc c5 e1 32 3c d2 a0 31 bd 0d 39 68 bd
       -0.008818508 0.010918085 -0.04336626 -0.056695033
000200 bd c2 2a bd fc 17 7d 3c f5 04 a0 ba 3b e0 11 bd
       -0.041689623 0.015447613 -0.0012208509 -0.035614233
000210 69 e8 a5 3b e1 18 90 bc 0b d4 f2 bc df 92 fa 3c
       0.005063106 -0.017589988 -0.029642126 0.030587612
000220 89 2d e0 3b 68 99 53 bc 6e 55 10 3d 31 60 56 3c
       0.0068413657 -0.012914993 0.035237722 0.013084457
000230 b8 7e 65 bc 35 69 c7 3c 03 52 11 3d be 94 f9 3b
       -0.014007263 0.024342159 0.035478603 0.0076166084
000240 88 a6 0a bd 82 97 01 3d 98 59 31 3c f7 90 e4 bc
       -0.033850223 0.03163863 0.0108245835 -0.027901156
000250 18 9f 8b 3c 85 15 fa bb 03 2f 14 3d 61 4c 05 bd
       0.017043635 -0.00763196 0.036177646 -0.032543544
000260 f3 df 18 3d b2 8c 81 bd 90 87 8d bd a6 fd 01 3d
       0.03732295 -0.063256636 -0.06910622 0.03173604
000270 e1 10 88 bd 84 15 e3 3c 06 2d db bc 78 c5 77 bc
       -0.066438444 0.02772022 -0.026754867 -0.015122764
000280 dd ad ba bc 7d 8e 82 bc cd b4 2c 3b 35 ee 28 bd
       -0.022787983 -0.015937084 0.0026352883 -0.041242797
000290 f3 0a 86 bd e1 1c c3 bc 97 b9 45 bd 3b 7d 9e bd
       -0.06545057 -0.023817481 -0.048272695 -0.077387296
0002a0 cb 2c 68 bc 4d 71 90 bd 97 c4 14 bd d6 29 86 bd
       -0.014170836 -0.070528604 -0.036320295 -0.06550948
0002b0 d7 e4 49 bd 23 80 24 3d c6 9d 16 3c bf 0c 8e bd
       -0.049290504 0.040161263 0.00919289 -0.06936025
0002c0 a6 f8 4e 3c b7 fb 81 3c 5b 1e 24 bd b0 d2 d7 3c
       0.012632525 0.015867097 -0.04006801 0.02634558
0002d0 28 f9 32 bd 21 d4 2e bd 90 bd e8 3c a1 db 99 bd
       -0.043694645 -0.04268277 0.028410703 -0.07512594
0002e0 7d 4e 3f 3b 19 1a ef 3c f4 fe 03 bd 8c c3 21 bd
       0.002919107 0.029187249 -0.032225564 -0.03949313
0002f0 ef de 52 bd c1 c6 3a bd 5b 76 7f 3c 22 e2 fe 3c
       -0.051482137 -0.045599703 0.015592183 0.031113688
000300 f6 e8 1b bd ed 82 6e bd 30 8c 97 bd ed a7 2c bd
       -0.038063966 -0.05823033 -0.073997855 -0.042152334
000310 eb c6 90 bc 50 75 39 bd f5 ef 0d bd 07 31 5b bd
       -0.017672976 -0.045277894 -0.03465267 -0.053513553
000320 b9 5a 12 3c ca ea a3 bd ee ab 57 bd a3 35 f3 bc
       0.008932763 -0.08003767 -0.0526542 -0.029688662
000330 9e f8 7d bd 9a 87 96 3a 1e 1b 0c 3c ab 10 e7 3c
       -0.062004678 0.0011484504 0.008551387 0.02820619
000340 82 f6 9e bd 68 7d b1 bc 60 22 8f bd 58 39 5e bd
       -0.077618614 -0.021666244 -0.069889784 -0.054253906
000350 f9 39 96 bc 5b 8a 19 3d bd a2 b8 3c 17 25 55 bd
       -0.01833819 0.03748546 0.022538537 -0.052037325
000360 4f e5 4a bd eb ee 84 3c ae b4 14 3d 00 6b 00 bd
       -0.049535092 0.016227206 0.036305122 -0.031352043
000370 6e 71 44 bd 40 1a 91 bc 0c 30 26 3d f9 74 fb 3c
       -0.047959737 -0.017712712 0.040573165 0.030695425
000380 c6 39 a1 bd ad c7 02 3d cb 3f 74 3c a6 59 e0 3c
       -0.078723475 0.031928707 0.014907788 0.027386498
000390 0e 95 85 bc 16 5b 42 bc 1b 05 f0 bb e9 21 84 3a
       -0.016306426 -0.011862537 -0.0073248274 0.0010080907
0003a0 82 b3 a5 bc c6 48 d4 ba 61 01 97 3c f7 ee 7d bc
       -0.020227198 -0.0016196005 0.018433275 -0.015498868
0003b0 3d a0 0a 3d 17 ae c7 bc 24 db a9 bb 79 49 89 bd
       0.03384422 -0.024375005 -0.0051835943 -0.06703467
0003c0 3d 5e 83 bd ad 4b 5b bc b1 a0 f2 ba 0b 83 47 bc
       -0.06414459 -0.013384742 -0.0018511025 -0.012177239
0003d0 d2 78 69 bd 31 52 9c 3c 48 10 c6 3c 57 c3 2b bd
       -0.05699999 0.01908216 0.024177685 -0.041934337
0003e0 c1 c6 8c bd 62 c4 0c 3d 52 d5 10 3b c9 19 c4 3c
       -0.06873847 0.034366973 0.0022099805 0.023938077
0003f0 d3 86 cd bc 73 e9 37 bd 6d da 39 bd 51 10 83 bd
       -0.025088703 -0.04490037 -0.045374323 -0.063995965

bias f4 [256]
000000 82 6b a1 bd 94 3a 89 3d f1 6c 29 bd 78 ea 74 bc
       -0.078818336 0.06700626 -0.04136366 -0.01494848
000010 74 07 85 bd ad 0d 17 bb fd 7c fa 3a 18 d1 5a 3d
       -0.06495562 -0.0023048923 0.0019110736 0.053422064
000020 79 c2 22 3d c1 1c 9e 3c e7 bf 6f 3c 55 68 3d bd
       0.039736245 0.01930082 0.014633155 -0.046242077
000030 47 c7 43 3d 67 b8 83 bd f3 42 21 3d 8d a4 a3 3d
       0.047797468 -0.06431656 0.03937049 0.0799037
000040 12 73 04 3d 5e dd 5a 3d 7b 65 93 3c 73 61 b7 3c
       0.032336302 0.05343377 0.017992726 0.022385335
000050 4c b5 32 bc 68 41 3d 3d 57 53 0d bd ac 75 3c 3d
       -0.010907482 0.046204954 -0.034503307 0.04601066
000060 65 6e aa bc 18 f3 60 3c 3b ea 0c bd 9c ab 16 3d
       -0.020804593 0.013729833 -0.034403067 0.036784753
000070 43 69 08 bd ab 9b 0d 3d 4b 1e 2a 3d 8d cf b4 bc
       -0.03330351 0.034572285 0.041532796 -0.022071624
000080 3d 87 9b bc 06 31 56 bc 9a ed 87 3d 20 81 10 3d
       -0.018985385 -0.013073212 0.06637116 0.035279393
000090 89 d1 ba 3b 49 5c 70 ba 9a c6 84 bd bc 22 02 bd
       0.005701248 -0.0009169025 -0.06483193 -0.031771407
0000a0 5a 87 32 3c d9 01 0c 3d 84 56 a8 bb 31 3a 6d bd
       0.010896528 0.03418145 -0.0051372666 -0.057916824
0000b0 80 84 a5 3c c7 d6 1e 3d 3c 0e 10 bd 2d ef dc 3c
       0.020204782 0.038779046 -0.035169825 0.026969517
0000c0 2e 1b a3 3b cb 60 65 bd 91 44 06 bd 61 d4 81 bd
       0.0049776053 -0.056000512 -0.032780234 -0.06339336
0000d0 93 38 6f bd 57 dc ea 3c 97 93 95 bd 21 26 df 3c
       -0.058403563 0.02866952 -0.07303541 0.027239861
0000e0 26 87 5f 3b 8d 25 80 bd b9 c6 99 3c 65 00 58 bc
       0.0034107654 -0.06257162 0.018771516 -0.013183688
0000f0 c0 c1 ea bc 23 14 39 3d 21 48 16 bd a6 bc 07 bc
       -0.02865684 0.04518522 -0.03668988 -0.008284723
000100 de 1d 89 bd d5 d1 0e 3b 8a 26 e9 3c d1 6d a3 bd
       -0.0669515 0.002179255 0.02846076 -0.0797993
000110 93 c6 66 bc e9 85 8a 3d b2 b3 04 bd d5 88 19 3d
       -0.01408543 0.067638226 -0.032397933 0.03748401
000120 60 11 42 3c a6 b2 5d bd b7 06 94 bd 1d fc ff bc
       0.011844963 -0.05412545 -0.07227843 -0.031248147
000130 b9 94 17 bd e3 46 98 bd da 88 0d 3b 58 59 54 bd
       -0.037007067 -0.074353956 0.0021596462 -0.051843017
000140 62 c8 91 3c ef 01 02 3c 15 f7 2a 3d 6a 6a 2c bd
       0.017795745 0.007935031 0.041739542 -0.04209367
000150 c4 9a 42 3d a8 80 6e 3c 92 75 20 bd 83 bc a7 bc
       0.047510877 0.014557041 -0.039174624 -0.020475632
000160 e4 82 2e bd e0 f4 93 bd e1 ac 45 bc 62 47 a5 bb
       -0.042605296 -0.072244406 -0.012065143 -0.00504391
000170 c0 b0 30 bd 19 c0 e2 bc 78 c2 75 bd dc 15 50 ba
       -0.043137312 -0.02767949 -0.059999913 -0.00079378276
000180 b7 13 67 bd 9a 4b 19 bb 92 5c 90 3d e3 33 76 bc
       -0.056415286 -0.002339101 0.070489064 -0.015027019
000190 07 37 a7 bd 75 ff 23 3b ed d2 b4 3c 96 58 21 bc
       -0.081647925 0.002502409 0.022073234 -0.009847781
0001a0 05 ca 87 3b 38 92 27 bd 1b d7 00 bd 3f 16 ef 3c
       0.0041439557 -0.04091093 -0.03145514 0.029185412
0001b0 45 ac ba bc 73 a2 b4 bc e2 a8 e0 bb 11 d8 61 bd
       -0.022787223 -0.022050118 -0.00685607 -0.055137698
0001c0 5c 97 27 bd ef d1 a1 bd 9c 5a c6 bc f6 c2 73 3d
       -0.040915832 -0.0790137 -0.024213128 0.0595121
0001d0 b5 92 fc bc 0e 77 2b bd 5e 2c a0 3d 28 f6 86 bd
       -0.030831674 -0.041861586 0.07820962 -0.06589919
0001e0 f6 6a ec bc 6f b1 40 3c 33 2f c3 3c 9a 6e 6e bd
       -0.028859597 0.011761053 0.023826217 -0.058210947
0001f0 2b 76 a5 bc e6 e3 28 bc 8e a5 27 bb e2 29 50 bc
       -0.020197948 -0.0103082415 -0.0025580856 -0.012705298
000200 e1 8b 38 bd 1e 23 95 3d 82 b4 8d bc ba b4 ce bc
       -0.045055274 0.07282089 -0.017297987 -0.025232662
000210 1a ac a6 bc 01 42 13 3d b5 17 9c bc e0 e3 25 3c
       -0.020345736 0.035951618 -0.019054273 0.01012513
000220 90 fe 91 bd 4f 83 e9 3c fe 04 f3 bc 57 8d 26 bd
       -0.07128632 0.028504996 -0.029665466 -0.040662136
000230 e9 fd 05 3c 6e 11 b2 bb 54 48 cc bc d7 b9 2b bd
       0.008178213 -0.0054342067 -0.024936832 -0.041925278
000240 93 4e 1a bd bf 8c 2c bd d9 1e 70 3c 38 4d 23 bd
       -0.03767259 -0.042126413 0.014655792 -0.039868563
000250 97 1f 43 3c 0c 50 f3 bc d5 17 d6 3b 7a 2c 82 3c
       0.011909387 -0.029701255 0.0065336027 0.015890349
000260 97 1b 08 3d 83 3f 5a bd 9c 1c 04 3d e0 94 c5 3c
       0.033229437 -0.053283226 0.032253847 0.02411884
000270 a7 0e e7 3c 41 03 d8 3c c7 64 0b 3b 3c fd 05 bc
       0.028205229 0.02636874 0.0021269785 -0.008178052
000280 77 d6 2d 3d 21 b4 80 bd 76 d8 48 3d 0b c7 4d bd
       0.042440858 -0.06284357 0.04903456 -0.05023865
000290 35 f3 ad bc 40 a9 00 bc d3 e8 0a bd cd 85 92 3d
       -0.021234134 -0.007852852 -0.033913445 0.07154427
0002a0 08 56 07 bd f8 03 87 3d 4b a4 1b 3d 72 4d a8 38
       -0.03304103 0.06592554 0.03799848 8.0252896e-05
0002b0 25 aa d4 bc f5 b7 82 bd 80 26 1d 3d e8 8a 82 bd
       -0.025960037 -0.06382743 0.038366795 -0.063741505
0002c0 6a 11 a4 bb 4f 18 3f 3c 09 0e 88 bd dc ca 2d bd
       -0.0050069587 0.01166351 -0.06643302 -0.04242979
0002d0 1d 81 07 bd c6 d3 e1 bb c1 07 a1 bd 14 8c b2 bc
       -0.033082116 -0.0068917004 -0.07862807 -0.02179531
0002e0 52 6e 5d 3d 74 3d d8 3c 66 4d 94 bd 84 5b b4 bb
       0.054060288 0.02639649 -0.07241325 -0.0055040736
0002f0 b7 82 7b bd 00 9a c1 3c 85 2d b3 3c 1b e3 01 3d
       -0.061403956 0.023633003 0.021872291 0.031710725
000300 b5 d8 c8 bc ea 19 76 bd 03 8c b9 bc ee 52 70 bd
       -0.024517396 -0.060083307 -0.02264977 -0.058672838
000310 35 6e 14 bd 10 6c 4f 39 dc a0 08 bd 56 2a 10 3d
       -0.036237914 0.00019781315 -0.033356532 0.035196625
000320 47 90 f9 3c 93 fc 18 3d 5b f5 ed 3c 92 b1 9b bd
       0.030464305 0.03735025 0.029047659 -0.07602228
000330 fa c7 06 3d c9 20 88 3c 13 2a 9e 3d 29 8f ad 3a
       0.032905556 0.016617196 0.07722869 0.0013241518
000340 68 b1 1e bd 9e 14 04 3d 8a 60 2c bd 11 3f d3 bc
       -0.038743407 0.032246225 -0.042084254 -0.025786908
000350 cc e9 e7 bb bd 10 72 3d 32 0a 8b 3c 5c af 6c 3d
       -0.0070774313 0.059097994 0.016972635 0.057784423
000360 d7 09 a4 bd 85 02 3c bd dc 71 78 bd 4f d5 47 bc
       -0.08009689 -0.04590084 -0.06065546 -0.012196853
000370 54 b4 59 bc fb c5 01 bd 13 61 f8 bc 73 b1 a7 3d
       -0.0132876225 -0.03168295 -0.030319726 0.08188143
000380 c7 6b 20 bd b9 8c 82 bc 79 4d 16 3d b9 43 98 bd
       -0.039165284 -0.015936242 0.036694977 -0.07434792
000390 d1 3b 9f bd ce 0b e1 bb fd e6 55 3d 14 76 8e bc
       -0.07775081 -0.0068678623 0.05222224 -0.017390288
0003a0 51 3e af 3c 63 6e 45 bd ff ce 34 bc 96 a4 6d bd
       0.02139202 -0.048200976 -0.01103568 -0.05801829
0003b0 8f c8 ab ba da ff 00 bd 83 9e 85 bd 27 02 a2 bd
       -0.0013106036 -0.031494 -0.06524374 -0.07910567
0003c0 5c bf a1 3b bf 0d 77 bd a7 1c 57 bd 87 08 f0 bc
       0.004936142 -0.060315844 -0.05251756 -0.029300941
0003d0 9c c8 9f bc 75 8e 4c 3c c8 fb 28 3d 7f 1a a6 bd
       -0.019504838 0.012485136 0.041255742 -0.081105225
0003e0 30 72 65 bd bc b1 85 3d 45 5f 81 bd 22 7b 35 3d
       -0.0560171 0.06528041 -0.06316999 0.04430688
0003f0 53 b9 32 3d e8 67 a0 3d cf ab 50 3b 94 53 0d 3d
       0.04363377 0.078323185 0.0031840687 0.034503534

weight f4 [256, 256]
000000 30 f9 cf 3c 93 b3 27 bd 49 bd d3 bb b1 b9 86 3c
       0.025387377 -0.04094274 -0.0064617735 0.016445966
000010 c3 fa 70 3d 9b 3b 78 3d 37 f3 08 bc fd 20 da 3c
       0.058832895 0.06060372 -0.008358768 0.026627058
000020 04 17 a3 bc 26 8f 39 bd cf fe fd bb 0a 09 70 3d
       -0.019908436 -0.045302533 -0.007751323 0.05860237
000030 c9 5b 05 bd 96 c1 62 3d 20 d7 5f bd a9 c7 62 bd
       -0.032558236 0.0553604 -0.05464852 -0.055366192
000040 2c ba ac bc 18 e3 27 bd a2 a3 cf 3c 7b 25 c3 bb
       -0.021084867 -0.040988058 0.02534658 -0.0059553958
000050 43 88 be 3c 6d 95 df bc ce 9f 1b 3c 02 dd d3 bc
       0.023258334 -0.027292931 0.00949855 -0.02586222
000060 fb d7 4d 3d 94 ef 0b bd ae 79 0f bd e2 5a 6b 3d
       0.050254803 -0.034164026 -0.035028152 0.05745972
000070 9b 2f 7d bd ac 9e 64 3c 04 a1 e1 bb 2c 21 43 bb
       -0.06181298 0.013953846 -0.0068856496 -0.002977441
000080 b4 fc f9 3c 06 4e df bc 48 29 ca 3c 51 a1 75 bd
       0.030516006 -0.027258884 0.024677888 -0.059968296
000090 36 6b 18 bd d8 40 b6 bc 8e 20 71 3d e0 16 27 3c
       -0.03721162 -0.022247717 0.058868937 0.010198325
0000a0 e4 fc 73 bd 4c 38 0f 3d 22 99 21 bc 58 0f 3c bd
       -0.059567347 0.0349658 -0.00986317 -0.04591307
0000b0 11 17 e5 3c 9d 64 4a 3d f3 15 ec 3a b7 2c 20 bd
       0.0279651 0.04941236 0.0018011912 -0.039105143
0000c0 c3 00 cc 3c 93 9a 35 3d 1d 52 a3 bc 1e 3c 97 bc
       0.024902707 0.044336867 -0.019936616 -0.018461283
0000d0 36 37 52 bc 1f 52 6e bd 2b 19 5d 3d f7 69 a9 bb
       -0.012830546 -0.058183786 0.05397908 -0.0051701027
0000e0 2e bc 44 3d b5 65 f9 bc a2 8b 9c 3c a5 10 c4 3c
       0.048031025 -0.030444006 0.01910955 0.023933718
0000f0 39 85 2c 3d 3a 3c e2 bc 92 74 7c bd 49 a4 72 bd
       0.04211924 -0.027616609 -0.061634608 -0.059238706
000100 df d5 72 bd 4c bc 46 bd 2f 09 44 bd 5b d4 3e 3b
       -0.059285995 -0.048519418 -0.04786032 0.0029118273
000110 e9 85 11 3d e5 e2 e8 3c 75 64 0c 3d df 4b c9 3c
       0.035528097 0.028428504 0.03427549 0.024572311
000120 d8 f0 54 bd 71 c6 1c bd c2 f8 8c 3b a5 28 cf 3c
       -0.0519875 -0.038275186 0.004302115 0.025287936
000130 da fa 07 3c e5 9d 38 bd cd 5e ec bb 17 2d 35 bd
       0.008299554 -0.045072455 -0.0072134496 -0.044232454
000140 0e d5 50 bd bc 90 9c bc 26 08 9a bc 23 bf 3d 3c
       -0.050984435 -0.019111983 -0.018802714 0.011581215
000150 69 88 53 3c 19 01 3a bd b0 e2 6f 3a 6f 68 65 3d
       0.012910941 -0.045411203 0.00091509055 0.0560078
000160 ab a4 0e 3c bf ac a2 bc a9 f7 ab bc 0a ee e8 ba
       0.008706252 -0.019857762 -0.020992117 -0.0017771136
000170 57 60 e5 3c 26 3d 00 3d ad 81 6e bc 8c 4d 1c bc
       0.02800004 0.031308316 -0.014557284 -0.009539973
000180 20 b9 62 bd 13 e5 55 bd b7 c7 ed 3c f8 6d 2f bd
       -0.05535233 -0.052220415 0.029025896 -0.042829484
000190 0b 4a 30 bc 31 e4 a4 bc ce bf b0 bb de d6 2c 3d
       -0.010759841 -0.020128341 -0.0053939587 0.0421971
0001a0 8f 80 28 bd 06 fb d9 b9 88 96 3f bd 24 dc 00 bd
       -0.041138228 -0.00041576492 -0.046774417 -0.031459942
0001b0 87 c8 f8 3b 1b ca 5b bd 04 de ac 3b 8c ea 76 3c
       0.007592264 -0.05365954 0.0052754898 0.015070569
0001c0 05 cf 1b 3d 57 8b 3a bd 1d 4b c6 3b b7 9e 70 3d
       0.038039226 -0.04554304 0.0060514347 0.058745112
0001d0 84 86 9d 3c fa 26 51 3d 61 42 56 bd 2e b0 73 3d
       0.019229181 0.05106256 -0.052309398 0.05949419
0001e0 4b ae 0f 3d 74 f4 2c bc 0d 74 7c bd 87 93 81 bc
       0.035078328 -0.010556329 -0.061634112 -0.015817417
0001f0 3b 15 ae 3c b9 9c 62 3d 16 c4 fe 3c 29 64 43 bc
       0.021250358 0.055325244 0.03109936 -0.0119257355
000200 db eb e0 3c 0f de 35 bd 2d 44 48 bd 82 59 87 bc
       0.027456215 -0.044401225 -0.048893142 -0.016522173
000210 52 d9 d1 3b fc 62 39 bd bb 58 00 3d 37 27 28 3d
       0.0064040804 -0.045260414 0.03133462 0.041053023
000220 66 f0 da 3c f0 7d 91 bc 00 15 b1 3c a2 2b 53 bd
       0.026725959 -0.017760247 0.021616459 -0.051555283
000230 b5 95 5a bd de ca ce 3c 82 c4 c5 3c c5 ff 72 3c
       -0.053365428 0.025243219 0.024141554 0.014831488
000240 f3 3f 45 3c f6 01 5f bc ac ab 40 bd af 9a 7e bd
       0.012039172 -0.013611307 -0.04703872 -0.062159237
000250 12 1e 17 bd fd a4 d0 3c 7e e8 6f bd f3 2f b9 3c
       -0.03689391 0.025469298 -0.05857133 0.022605872
000260 ba 8f 95 bb b3 52 55 bd 32 9d 57 3d 59 ea 69 bd
       -0.0045642527 -0.05208082 0.052640148 -0.057108257
000270 a6 88 7a 3d 72 7f 6f bd d1 26 7b 3d ea ca 48 3c
       0.061165474 -0.05847115 0.061316315 0.01225541
000280 72 74 30 3c 4d a0 51 3d 32 50 76 bd d7 e1 9e 3c
       0.01076995 0.051178265 -0.060135074 0.019394798
000290 80 7a 01 bd 71 08 ca bb 2b d4 53 3d 7a 4b f2 bc
       -0.031610966 -0.006165557 0.05171601 -0.029577006
0002a0 0a 66 18 bd 3d 93 21 bd 9d 5c 6c bc be 38 52 bb
       -0.037206687 -0.039447058 -0.014426378 -0.0032077278
0002b0 2c c8 6b 3d 5d f2 b4 3c d7 ad 58 bc 89 f6 1c 3d
       0.057563946 0.022088224 -0.01322504 0.03832105
0002c0 26 92 54 3d 33 d8 4b bd 73 7e 75 3d 9f 8d 46 bc
       0.05189719 -0.04976673 0.059935044 -0.012118726
0002d0 8e 98 3c 3d 8c 3f 6e bd 00 6d 8f bc 68 8e a8 3c
       0.046043925 -0.05816607 -0.01750803 0.020575717
0002e0 74 e9 ba bc 62 c2 fb bb 99 47 cd 3b 66 c3 29 bd
       -0.022816397 -0.0076830843 0.0062646386 -0.041446112
0002f0 4e 4e d4 3b 33 54 52 bd ea 95 31 bc d9 71 ab bc
       0.006479061 -0.05134983 -0.010838965 -0.02092831
000300 c0 da 74 bd 14 c7 6e bd 3a 82 36 bd 4c 31 d9 bc
       -0.05977893 -0.058295324 -0.044557787 -0.026512764
000310 bc 90 26 bd 92 2b 7d 3d 89 6d c3 bc 46 fd 31 3c
       -0.040665373 0.06180913 -0.023855941 0.010863608
000320 34 52 12 3d f9 8c 9e bc 30 e1 b2 bc 3d 89 e6 bc
       0.035722926 -0.01935433 -0.021835893 -0.028141612
000330 7e 18 b1 bc 9a 05 56 bb 62 95 a9 3c 0f 1b 26 3d
       -0.021618124 -0.0032657147 0.020701114 0.04055315
000340 ad bf 1d 3d 75 25 7d bd 36 4f e9 bc bd d1 34 3d
       0.038512874 -0.0618033 -0.028480154 0.044145335
000350 75 1f 06 bd eb 4a ca bc 81 fb 3e bd 16 e6 06 3d
       -0.032744844 -0.024693927 -0.04662657 0.03293427
000360 90 60 2c 3d 57 c5 6f bd 25 a5 0e bd 69 63 72 3d
       0.042084277 -0.058537807 -0.034825463 0.059176836
000370 91 55 58 3d 11 2f 5f bd 0b 56 2f 3c 56 47 0d bb
       0.052815977 -0.054488245 0.010701667 -0.0021557412
000380 46 bc 0c bd 9b 28 bd bc 3c a6 00 bd 88 c4 4b 3c
       -0.03435924 -0.023090651 -0.031408533 0.012436993
000390 35 f4 09 3d 0c 3f 8e bc 43 c5 e4 3c 9c 25 03 bc
       0.03368016 -0.017364047 0.027926093 -0.008004572
0003a0 20 df 98 bb 68 60 f0 3c 7f 10 63 3d a8 71 9b 3c
       -0.0046652704 0.029342845 0.055435654 0.018975094
0003b0 c9 f6 27 bc 3a 4c 1c 3d 6e 59 78 3d 9b d0 6b 3d
       -0.010251709 0.038158633 0.06063216 0.05757199
0003c0 45 c3 5b 3d 0d 71 2e 3d b5 cd ca bc f3 67 24 bb
       0.05365302 0.042588282 -0.024756292 -0.0025086373
0003d0 d3 ed b5 ba ce ae 33 3d 2c 6a 48 bb 63 8a 28 3d
       -0.0013880081 0.04386788 -0.0030580861 0.0411476
0003e0 f8 94 08 3d 8b 7c f2 3c 3c c4 cd 3c 45 f6 27 bd
       0.033345193 0.029600402 0.025117986 -0.041006345
0003f0 d7 c7 f8 bc db 65 b1 3c 96 23 c6 3c 46 0e 0e bd
       -0.030368729 0.021655014 0.02418689 -0.03468158

bias f4 [256]
000000 e9 25 7d bd 85 89 67 3c af 27 cb 3b c3 5c 43 bc
       -0.061803732 0.014131908 0.006199799 -0.011923972
000010 33 e4 32 3d d5 d0 2b bc fe 5b 61 bd 81 ee b9 3c
       0.04367466 -0.010486801 -0.05501937 0.022696735
000020 e2 31 9d bc 06 be 39 3a e1 5d 67 bd a6 e7 d7 3b
       -0.019188825 0.00070855056 -0.056486014 0.006588894
000030 b8 80 1f 3b a6 8a da bc 1f 89 85 bd 7d 67 9c 3d
       0.0024338197 -0.02667744 -0.065202944 0.07636926
000040 6d 14 60 bd db b9 46 bd 1a e6 c6 3c 67 5b 00 3d
       -0.05470698 -0.04851709 0.024279643 0.031337168
000050 6d 15 7d 3c ae 7f e5 bc c9 4a 81 3d 16 d1 88 3b
       0.015447003 -0.028014984 0.06313092 0.0041753156
000060 12 b0 8b 3d 5b 36 ad bc ee e1 ff 3c ea b0 3b 3d
       0.06820692 -0.021144083 0.031235661 0.045823015
000070 d8 d9 57 bd 38 00 80 3d 60 1e bf bb e7 c6 d4 bc
       -0.052697986 0.06250042 -0.0058324784 -0.02597375
000080 a8 17 b2 bb df 97 7a bd 86 de 0b bd 83 5d 5b 3d
       -0.005434949 -0.06117999 -0.03414776 0.053555977
000090 a4 88 95 3d ac 8a 36 3c 6f 91 98 bc 97 71 80 bd
       0.07301453 0.01114146 -0.018624036 -0.062716655
0000a0 94 42 84 3d 61 fd f4 3c af 25 82 bb d6 ea d4 bc
       0.06458011 0.029905977 -0.0039717774 -0.025990885
0000b0 ab a0 38 3c cd e5 09 bd 58 60 fe bc 7e b9 21 bd
       0.011268775 -0.03366642 -0.0310518 -0.03948354
0000c0 13 e9 56 bd 01 5c c0 bc dd 82 d4 3c 49 2d 8e bd
       -0.05246837 -0.02348137 0.025941307 -0.06942231
0000d0 28 d1 cb 3c 40 15 93 3b 39 61 7b bd ad 70 b0 3c
       0.024880007 0.004488617 -0.061372016 0.021538103
0000e0 1a 11 92 3c 12 b5 71 bd 4b d0 66 bd d4 b9 63 bd
       0.01783042 -0.059010573 -0.056350987 -0.05559714
0000f0 e9 22 fa 3c a4 7d 52 bd b5 5f 33 bd 79 26 8c bd
       0.030534225 -0.05138935 -0.043792445 -0.068432756
000100 95 b9 48 bc 92 fa 3b 3b e8 55 b4 3c a0 76 cd 3c
       -0.012251277 0.0028683287 0.02201362 0.025080979
000110 5f 7e 04 bd 1f 52 f6 bc f3 17 94 3c af 92 b8 3c
       -0.03234708 -0.030068455 0.018077826 0.022530882
000120 bd 90 f9 3c 2d e3 b8 3a 21 30 61 bd cc 25 d4 3c
       0.030464524 0.001410579 -0.05497754 0.02589693
000130 0e 86 a0 bb 7d 54 b4 bc a8 45 ce bb be e3 2c 3c
       -0.004898793 -0.022012943 -0.0062949248 0.010552345
000140 38 6f 80 bd 10 41 10 bd 04 a7 9a bd d8 49 7f bd
       -0.06271213 -0.0352183 -0.07551387 -0.062326282
000150 24 a6 1f bc 60 00 55 3d d7 d8 00 bd d3 4a db 3c
       -0.009744201 0.05200231 -0.031456795 0.026769077
000160 fe 0b c4 3a fc de 87 bd 29 fc 18 b9 26 48 69 bd
       0.0014957187 -0.06634328 -0.00014589787 -0.05695357
000170 54 49 83 bd 83 00 64 3d 2e 66 da 3b 5b fd 65 bd
       -0.064104706 0.05566455 0.006665013 -0.05614982
000180 b5 28 24 3c c3 21 4b bd 97 6e 0a bd cc eb ad 3d
       0.010019471 -0.049592745 -0.033796873 0.0849224
000190 e2 d0 6f bc 1e 31 e4 bc 09 bd a7 3d 0e b7 2a 3d
       -0.014637204 -0.027855452 0.081903525 0.04167848
0001a0 0d 33 d0 3c 7a 2c 61 3b da da 7f 3d 9b 3d 2a bd
       0.025414968 0.0034358785 0.062464572 -0.041562658
0001b0 b7 b8 8b 3d 8f e7 2d 3d 86 c7 31 bd e1 7e 4a bd
       0.06822341 0.04245716 -0.04340317 -0.049437407
0001c0 5b 7a 96 3c 8a 2c 41 3d 5e 81 1c bc f1 80 fa bc
       0.01836889 0.047161616 -0.009552328 -0.030579062
0001d0 4b d8 70 bd 07 97 2a 3d 80 86 6f bd c6 7a 84 3c
       -0.058800023 0.041647937 -0.05847788 0.016171824
0001e0 f4 ab 5a bd d2 be 3b bc 51 cf df 3c 78 d4 7b 3d
       -0.053386644 -0.011459069 0.027320536 0.061481923
0001f0 82 1c 25 3d 6d 25 27 bd 61 d8 20 3c b2 95 8d 3d
       0.04031039 -0.040807176 0.009817214 0.06913318
000200 65 b4 93 3c 21 f3 70 bd 8f ce c0 3c eb 7c 81 bd
       0.018030355 -0.058825616 0.023535995 -0.06322654
000210 de ca c6 bb bc b3 4b 3d 99 ab 63 bd bc 06 98 3c
       -0.006066664 0.049731955 -0.05558357 0.018557899
000220 5e 97 60 bc 48 43 d5 3c 48 bb 8b 3b d7 b1 60 bd
       -0.013707964 0.026033059 0.004264269 -0.0548571
000230 f3 7c 4e bd 7a c4 a3 bd d5 af 13 bb 5d 2d 98 bd
       -0.05041213 -0.07996459 -0.0022535224 -0.07430527
000240 d9 7b 94 3d 95 c5 f1 38 4b 64 a2 bc 9e 2a 09 3d
       0.072501846 0.00011528578 -0.019823214 0.03348791
000250 88 39 f9 bc 90 55 25 3d 66 df 2c 3d 5a 09 bc bb
       -0.03042294 0.040364802 0.042205237 -0.0057384195
000260 71 a3 c8 bc 02 a4 1c bd 16 3a 82 3d 40 73 3b bc
       -0.024491997 -0.038242348 0.06358735 -0.011441052
000270 31 f2 f9 bc 86 d5 46 3d b2 fa e6 3c 42 b6 b2 bc
       -0.030510994 0.048543476 0.028195713 -0.021815423
000280 0a cb 55 bd f1 14 98 ba 6c 81 94 bd 49 fb 9e bd
       -0.052195586 -0.0011602921 -0.07251248 -0.077627726
000290 29 58 59 bd 61 c3 12 bd 06 00 f9 3c ee 9e 2b 3d
       -0.05306259 -0.03583086 0.030395519 0.041899614
0002a0 35 ec db 3c ec f7 af bc 2d 0c 45 bd a7 78 e0 3c
       0.02684603 -0.021480523 -0.048107315 0.027401282
0002b0 56 2a 59 bb ed 7d e7 3c 17 b2 0b 3d 5c 8a 21 bd
       -0.0033136806 0.028258288 0.034105387 -0.03943859
0002c0 07 48 2b bd 13 03 6c 3d a2 23 84 bd d8 70 29 3d
       -0.041816738 0.05762012 -0.06452109 0.04136738
0002d0 aa c1 28 bc a8 c7 06 bb a5 b8 6e 3c e7 44 5b 3d
       -0.010300079 -0.0020565782 0.01457039 0.053532507
0002e0 cd 14 49 3c c4 18 66 bc dd 78 b7 bc 2e fe fb bc
       0.012273026 -0.0140439905 -0.0223965 -0.03076085
0002f0 85 87 72 3d 53 2d 18 3d e5 b6 72 bc 6c 98 ed bc
       0.059211273 0.0371526 -0.014814113 -0.029003344
000300 11 a3 18 3d a5 13 36 bd 0a 73 3d 3d 08 03 61 bd
       0.037264887 -0.04445233 0.046252288 -0.05493453
000310 5b a4 fa 3b 83 75 50 bd c9 e4 ca bc 79 1d 72 3d
       0.007648987 -0.050893318 -0.024767296 0.05911014
000320 0c 58 88 bd 1d 10 4d bd 55 ae ed bc 68 04 6c bc
       -0.066574186 -0.050064195 -0.029013792 -0.014405347
000330 7a dd d7 3c 3d e9 11 3d 78 07 5d bc 47 8c 84 bd
       0.026350725 0.035622824 -0.01349055 -0.06472068
000340 3a a9 23 3d 5d 17 52 bb 6f 19 08 3d 45 63 57 3d
       0.03995631 -0.0032057383 0.03322738 0.052584905
000350 6d c9 a2 bd 71 75 e6 3c 09 e9 31 bb 3f b3 46 bc
       -0.07948575 0.028132172 -0.0027146956 -0.012127697
000360 d1 7f 02 bd d3 09 57 bd f6 c3 9c bd 93 68 51 bc
       -0.031860176 -0.052499603 -0.07654564 -0.01278128
000370 91 f2 d6 3b db 02 09 bd e4 55 4c bb c2 f8 28 3d
       0.006559678 -0.03344999 -0.0031179124 0.04125286
000380 22 59 09 3d 6d 1f 20 bd 04 43 60 3d f9 2f 86 bd
       0.03353227 -0.03909247 0.05475141 -0.06552119
000390 63 0c d0 3c 83 69 6f bd 7f e3 8c 3d 83 07 2a 3c
       0.025396531 -0.058450233 0.06879329 0.0103777675
0003a0 cf 11 0a bc b3 84 74 bd 3b 27 f8 bc 7a c7 28 bd
       -0.008427097 -0.059696864 -0.030292144 -0.04120586
0003b0 d1 07 9f bd 7a 8a 46 bd 16 34 42 bd ce 9f 1e bd
       -0.07765163 -0.048471905 -0.047412954 -0.03872662
0003c0 19 9b 89 bc f8 47 88 3c ad 30 a0 3b 54 65 9b 3d
       -0.01679759 0.01663588 0.004888615 0.07587686
0003d0 c0 db a0 3c 41 14 61 3d c0 30 d3 3b 38 88 99 bc
       0.019636035 0.054950956 0.0064450204 -0.018741712
0003e0 e6 ac 28 3d c3 96 0e 3b 4f 22 84 3c ba 77 3f 3d
       0.041180514 0.0021757341 0.01612964 0.04674504
0003f0 23 ec f9 bc 8d c1 e1 3c bb 2f 61 bc 28 46 4c bd
       -0.030508107 0.027558113 -0.01374429 -0.049871594

weight f4 [1, 256]
000000 cc 3d 06 3c de c2 ca 3b 00 dd 41 3d 71 2b 1a 3c
       0.008193444 0.0061877808 0.047329903 0.009409771
000010 48 6a 47 3d 93 f2 2b 3d b9 dd fb bc f5 4d 20 bd
       0.048685342 0.041979384 -0.030745374 -0.039136846
000020 9e d6 85 3c a9 e3 5a 3c 27 21 ae bc 31 a5 03 bc
       0.016337689 0.0133599425 -0.021256043 -0.00803499
000030 99 67 2d 3b af c9 6c bd 68 64 cc bb 6e ee 99 3d
       0.0026459454 -0.057809528 -0.0062375553 0.0751618
000040 04 33 6e bb e5 71 74 bd 59 d8 cb bc f9 10 81 3b
       -0.0036346326 -0.05967893 -0.024883436 0.003938791
000050 68 75 d7 3c 43 d2 c6 3c 47 0d 95 3c bd d3 c9 3c
       0.0263011 0.024270182 0.018194808 0.024637097
000060 25 a1 60 3d 52 47 c7 ba c9 8d 88 3d 34 84 f1 3c
       0.05484118 -0.001520375 0.06667668 0.029481985
000070 08 e1 11 3c 76 55 3a 3d 33 f7 3f bc 24 73 11 3d
       0.008903749 0.04549166 -0.011716652 0.035510197
000080 eb 5f 1c bd 30 44 04 bd 94 d8 0e 3b 7e 41 29 3d
       -0.038177412 -0.03229159 0.002179657 0.041322224
000090 3f 15 e7 3c 57 fa 91 bc d8 41 03 bd 41 28 27 bd
       0.028208373 -0.017819567 -0.032045215 -0.040809873
0000a0 50 08 4b 3d 2b 0b fc bb 11 bd 5e 3d fa 99 95 3c
       0.049568474 -0.007691761 0.054379527 0.018261898
0000b0 72 15 e7 3c ea 74 6d bd e7 87 f7 bb 12 f9 32 bd
       0.028208468 -0.057972826 -0.0075540426 -0.043694563
0000c0 79 ec 58 3d 48 51 84 3c b2 0a c9 bc 38 c2 c7 bc
       0.052959893 0.01615204 -0.024541233 -0.024384603
0000d0 58 96 37 3d 46 66 24 bc 4c a6 23 3d 28 42 91 3b
       0.044821113 -0.0100341495 0.039953515 0.0044329353
0000e0 f7 db 6e ba 11 d3 c9 bc 46 51 a5 3c b8 43 c4 bc
       -0.0009111757 -0.024636777 0.020180356 -0.023958072
0000f0 a3 ae c6 bc 39 d0 f5 3b 23 eb 5d 3b 53 a1 f0 3c
       -0.024253195 0.0075016287 0.0033862076 0.0293738
000100 27 55 ef 3c e2 1b 62 3d be a1 0d bd 89 82 d3 3c
       0.029215408 0.055202372 -0.034578077 0.02581908
000110 29 47 b8 3b 6c e4 d2 bc aa 36 16 bc 05 61 12 3d
       0.0056237173 -0.025743686 -0.009168306 0.035737056
000120 61 c9 7a bb 3c 55 da bc 49 b7 dd 3c 6c 95 44 3c
       -0.0038267004 -0.026651971 0.027064936 0.011998516
000130 0a e7 30 3d 27 0e 19 bd a5 2e c5 ba 60 0d 39 bb
       0.043189086 -0.037367012 -0.0015043808 -0.0028236732
000140 20 84 d2 bc 2d 26 d0 3b 25 71 9c bc 53 b4 97 3c
       -0.025697768 0.006352207 -0.01909692 0.018518602
000150 75 23 7c bb dd b3 7f 3d 20 d2 d9 bc e8 65 3a 3d
       -0.0038473282 0.06242739 -0.026589453 0.04550734
000160 0b 28 55 3d 8c 23 a0 bc ef 33 87 bc c7 29 f7 3a
       0.05204014 -0.0195482 -0.016504256 0.0018857055
000170 93 c3 83 bc 50 ed 9e 3d f7 db 0e 3d 8d 17 66 3d
       -0.016084468 0.077601075 0.034877744 0.056174804
000180 68 67 a9 3a 87 26 aa bb cc 60 2e bb 74 26 08 3d
       0.0012924494 -0.005192581 -0.0026607988 0.033239797
000190 18 47 76 3b 0c 77 bc 3a d4 a0 42 3d 17 bc a3 3c
       0.0037578996 0.001437874 0.04751666 0.01998715
0001a0 ed 80 06 3c 2a 9f 06 bd 78 a9 41 3d 67 e2 8d bb
       0.008209449 -0.032866634 0.04728076 -0.004329968
0001b0 77 44 49 3d a1 3e 28 bb 0d 79 90 bc 3f 5a a0 bc
       0.04913756 -0.0025672095 -0.017635847 -0.019574283
0001c0 e7 f0 69 3d 09 fc 46 3d 85 b2 82 3c 17 75 03 bd
       0.057114508 0.048580203 0.015954265 -0.032094087
0001d0 d4 c5 e2 3c 99 6d cb 3c 58 ce d2 b9 d6 fe ac 3c
       0.027682222 0.024832534 -0.0004020806 0.021117609
0001e0 cb db e1 3c 11 5b 2f 3b 9d 76 26 bd 4e 92 dc 3c
       0.027570626 0.002675716 -0.040640462 0.026925232
0001f0 75 4e 91 bc 91 66 2a 3d 84 85 57 3b f8 f2 c4 3c
       -0.017737607 0.04160172 0.0032885978 0.024041638
000200 06 5b a9 bc 8d 29 9a 3a 42 44 38 3d 68 13 18 3c
       -0.020673286 0.0011761651 0.04498697 0.009281971
000210 be 3a 2e bb c4 4c d3 3c c5 55 fe bc 17 79 a3 3d
       -0.0026585306 0.02579344 -0.031046757 0.079820804
000220 31 19 e1 bc ba 35 89 bc fe 7e f4 3c 50 c4 2a bd
       -0.027477833 -0.016749252 0.02984571 -0.041691124
000230 fc 4b ea bc 29 2f a7 bc 32 64 ee 3b 4a 3b b4 bc
       -0.028600685 -0.02040823 0.007275128 -0.022000927
000240 93 53 4b 3d f8 02 01 bd 56 5f ac 3c 88 47 95 bc
       0.04964025 -0.03149697 0.021041553 -0.018222585
000250 e6 89 c0 bc 82 9e 46 3c 74 c0 8d bc 9b b4 0a 3d
       -0.023503255 0.012122752 -0.017303683 0.033863645
000260 f7 80 71 bc cf 79 2a bd 1d 56 7f 3d 61 a7 7d 3b
       -0.01474022 -0.041620072 0.062337983 0.0038704502
000270 42 51 eb 3c 73 dc 95 3c 28 77 ec bc 39 21 83 bc
       0.02872527 0.018293595 -0.028865412 -0.016007053
000280 9c 92 db bc 84 8f de 3c a3 81 83 3c 35 76 9e bc
       -0.026803307 0.027168043 0.016053027 -0.019343475
000290 44 82 6a bd aa 25 3f 3c d3 67 04 3c aa e8 c9 bb
       -0.057253137 0.011666695 0.008081394 -0.006161769
0002a0 74 c3 8b 3c 93 0d 67 ba ca f4 97 bd 43 23 4d 3d
       0.017060973 -0.00088139734 -0.07419737 0.050082456
0002b0 38 0f 4a 3d 0a b7 59 3b 82 03 79 3b 34 31 4d bd
       0.04933092 0.0033220672 0.0037996476 -0.050095752
0002c0 06 2b 7c 3c 54 81 8d 3d 98 8b f5 3c 54 48 88 3c
       0.015391117 0.06909433 0.02997379 0.016636051
0002d0 ea b7 2a 3d 02 d4 ac bc 00 bf de bc f0 73 1e 3d
       0.0416793 -0.021097187 -0.027190685 0.038684785
0002e0 16 4b 8d 3c fc 0e 88 3c c2 d4 25 3c 1c d5 44 3d
       0.017247718 0.016608708 0.010121526 0.0480548
0002f0 70 bc dd 3c 0d dd 6a bb c6 fe 0d 3d b9 e0 08 3c
       0.027067393 -0.0035837323 0.0346668 0.008354359
000300 f5 df a5 3c 88 7f 96 bc 55 16 3b 3c 9e 11 ca bc
       0.020248393 -0.018371359 0.011418899 -0.024666604
000310 87 6f 93 bc 3f c3 30 3c 67 3d db bc 18 ae 0b 3d
       -0.017997516 0.010788738 -0.026762677 0.034101576
000320 63 0c a3 3c 89 3d 01 bc 1f dc 00 3d 65 f7 02 3d
       0.019903367 -0.007888206 0.031459924 0.031974215
000330 4f b3 e7 3c 89 09 56 3d 03 66 21 3d ae d2 0c bd
       0.028283743 0.052255187 0.039403927 -0.034380607
000340 69 84 d4 bb 1e 7f 78 bc 03 30 9c 3c 17 e9 ab 3c
       -0.006485511 -0.015167026 0.019065863 0.02098517
000350 68 95 e1 bb fe 03 ea 3c 8c 43 48 bc f6 6f c3 3c
       -0.0068842657 0.028566357 -0.012223136 0.023857098
000360 69 8d 59 3d c6 5a ca bc ee b6 1f bd d8 37 98 3c
       0.053113375 -0.024701487 -0.038992815 0.018581316
000370 67 e9 4a b9 31 ff 1d bd e4 ad fe bc 20 58 4f 3d
       -0.0001935117 -0.038573448 -0.031088777 0.050621152
000380 4f dd ac 3c 5d c4 aa bb 57 74 05 3d 33 70 ce 3b
       0.021101622 -0.0052113966 0.032581653 0.0062999963
000390 22 43 23 bd a1 59 4f 3c f5 03 3c 3d 8e 5e 64 3c
       -0.039858945 0.012655647 0.04590221 0.013938559
0003a0 cc 31 c8 3b 2f c4 cc 3a 64 97 00 bd 57 ba be 3c
       0.006109452 0.0015622432 -0.031394377 0.023282213
0003b0 05 0e b3 bc ef 16 73 3c 43 a5 25 bd 1b 55 9d bc
       -0.021857271 0.014837011 -0.04044081 -0.01920562
0003c0 4e da e2 3b 2e 40 28 bd c6 54 2c 3d f4 62 65 3d
       0.0069229966 -0.04107683 0.042073034 0.056002572
0003d0 da b5 e8 3c 9b 65 a2 3c fb 25 0d 3d e3 e1 03 bd
       0.028407026 0.01982384 0.03446005 -0.032197844
0003e0 48 02 b5 bb 44 c9 14 3d 3f 7a f3 3c c9 17 6b 3d
       -0.0055239536 0.036324754 0.029721377 0.05739573
0003f0 cf a2 6f bd 07 92 57 3d 32 18 21 3d 4f d9 3c bd
       -0.058504876 0.052629497 0.039329715 -0.04610568
