adi_network.pth (torch, 424240 bytes, 7 tensors)

weight f4 [256, 144]
-0.062451664 0.14113905 -0.012969184 -0.07719224 -0.0016084778 0.03153321 -0.08110091 -0.012148046
0.09227567 0.06282052 0.040055223 -0.094407655 0.099463195 0.026758207 -0.038971283 -0.016443186
0.11061772 0.044516355 -0.06955233 0.029103884 0.043997023 -0.040515397 -0.1161877 0.04589736
-0.07431475 0.027607411 0.055737276 0.03229967 0.12297386 -0.016125571 0.0029106128 -0.013737896
-0.032141786 0.08339546 0.08286881 0.06889205 -0.057986103 0.025554972 -0.09895261 -0.12698536
0.13663109 -0.043038864 -0.042848483 0.09338315 0.04180481 -0.08989897 0.055756226 -0.03768851
0.08887664 -0.013559181 0.10887667 -0.0007737135 0.05501425 0.07354248 0.055269025 -0.046577282
0.017699795 -0.11127968 0.048427563 -0.04890254 -0.0005912066 -0.003912001 0.032858606 0.078597315
0.080240674 -0.033433124 -0.027334662 0.068513066 -0.011996362 0.09887807 0.12251374 0.07863421
0.034761213 -0.067202955 -0.015408565 -0.11721051 0.048453063 0.046125166 0.070463754 0.068540454
-0.035331436 0.017044863 -0.069881715 0.057466682 0.028728452 0.04115948 0.094149105 0.098082036
-0.014528541 0.024049358 -0.08254944 -0.017019477 -0.07154042 -0.018380096 -0.04761674 0.034028582
-0.013056172 0.02910755 0.08766694 0.10588291 -0.030838119 0.04880942 -0.027335955 0.0009739545
0.010628494 0.053814333 -0.015196913 -0.026655672 0.067467794 -0.003405029 0.006663395 0.07261158
0.030379169 0.1292958 -0.040616088 -0.035358265 0.0033521561 -0.04942691 -0.03266209 0.028046899
0.04916703 0.017898995 0.04495607 -0.029513344 -0.0070114005 0.0075264066 0.015640168 -0.018786516
0.038424343 0.022830594 0.1395761 0.093813494 -0.039897766 0.026918394 -0.015939685 3.5262663e-05
-0.009089547 -0.0025124308 -0.022966217 0.009060869 0.029764732 0.05742533 0.06301364 0.029780598
-0.022659488 0.010029767 -0.016588116 -0.06657087 -0.037477862 0.09518274 0.028523529 -0.067964986
-0.052795302 -0.10240619 -0.10621837 0.050408542 -0.017730614 -0.03148565 -0.0075460905 -0.119582385
-0.12180405 0.042609353 0.05378656 0.11581588 -0.069479205 -0.091864 -0.18097273 0.052066043
0.014244342 0.012830489 -0.012206541 -0.17080808 0.07022859 0.03692668 0.018011317 -0.19942361
0.061998326 0.04405859 -0.033206392 -0.017769873 0.01542383 0.0026643842 0.1021662 -0.012492144
-0.045779984 -0.12000974 0.14958167 -0.047197487 0.11882081 -0.06601529 -0.10220469 -0.0058140364
-0.003523344 -0.03164284 -0.028075263 0.08270957 -0.040489033 -0.10628612 -0.07454481 -0.031104635
-0.12889466 0.08623732 -0.10757541 0.07915777 -0.023053935 -0.106630854 0.12973636 0.055458046
-0.023154296 -0.010015798 -0.0053347507 -0.10683003 -0.09262492 -0.07557384 0.09174454 0.028538834
-0.0011416305 -0.0060116677 -0.07549664 0.111099854 -0.1356304 -0.010526702 0.078525916 0.06481004
-0.10899069 0.15150826 0.030749122 -0.09420052 -0.073331654 0.054002307 0.097654946 0.062027108
-0.06098203 0.003962448 -0.06676756 0.044549167 -0.016001662 -0.06605002 0.009699401 -0.06661266
-0.07297296 -0.012660666 0.110272594 -0.06383892 0.06425465 -0.003788367 -0.0009853569 -0.08351261
0.04446029 -0.017938418 -0.13442293 0.076874144 0.0002998431 0.034230184 0.03352846 0.052257948
00000000: 51cd 7fbd c186 103e b37c 54bc f716 9ebd
00000010: 8fd3 d2ba f828 013d 3c18 a6bd 9908 47bc
00000020: 07fb bc3d 0ba8 803d f210 243d cd58 c1bd
00000030: 5cb3 cb3d 0734 db3c 5aa0 1fbd dcb3 86bc
00000040: 8b8b e23d c856 363d 7471 8ebd 456b ee3c
00000050: 3936 343d 79f3 25bd d1f3 edbd dffe 3b3d
00000060: 5532 98bd f028 e23c c54c 643d a94c 043d
00000070: b8d9 fb3d c619 84bc fbbf 3e3b ea14 61bc
00000080: 1ba7 03bd 3dcb aa3d 1fb7 a93d 4617 8d3d
00000090: d682 6dbd a958 d13c aaa7 cabd 7308 02be
000000a0: 05e9 0b3e 8549 30bd e481 2fbd aa3f bf3d
000000b0: 853b 2b3d f41c b8bd a460 643d 445f 1abd
000000c0: f504 b63d 5427 5ebc bbfa de3d 09d3 4aba
000000d0: 9f56 613d 719d 963d c661 623d d2c7 3ebd
000000e0: 29ff 903c 9ae6 e3bd fb5b 463d 084e 48bd
000000f0: 34fb 1aba 3e30 80bb bf96 063d a1f7 a03d
00000100: 3955 a43d 2cf1 08bd f1ec dfbc 9450 8c3d
00000110: 648c 44bc 9680 ca3d 7ce8 fa3d f90a a13d
00000120: c661 0e3d b4a1 89bd 3574 7cbc 100c f0bd
00000130: b876 463d beed 3c3d 4d4f 903d f05e 8c3d
00000140: b2b7 10bd aba1 8b3c 251e 8fbd 2f62 6b3d
00000150: ee57 eb3c d896 283d 3fd1 c03d 3cdf c83d
00000160: 1e09 6ebc 2903 c53c ae0f a9bd 6e6c 8bbc
00000170: c983 92bd db91 96bc c509 43bd 8e61 0b3d
00000180: 8ee9 55bc f572 ee3c ba8a b33d 24d9 d83d
00000190: 39a0 fcbc 63ec 473d a7ef dfbc fb50 7f3a
000001a0: 2323 2e3c 6b6c 5c3d 79fc 78bc ff5c dabc
000001b0: 8e2c 8a3d e826 5fbb 9c58 da3b 61b5 943d
000001c0: bcdd f83c 1e66 043e 0e5d 26bd d4d3 10bd
000001d0: d9af 5b3b df73 4abd afc8 05bd 9cc2 e53c
000001e0: 5e63 493d eaa0 923c db23 383d f8c5 f1bc
000001f0: e4bf e5bb 13a0 f63b cf1f 803c 2ee6 99bc
00000200: d862 1d3d 3a07 bb3c 0aed 0e3e 4a21 c03d
00000210: d76b 23bd f783 dc3c f193 82bc ffe6 1338
00000220: 53ec 14bc 98a7 24bb a623 bcbc 0a74 143c
00000230: 2bd5 f33c d336 6b3d 4c0d 813d 71f6 f33c
00000240: 64a0 b9bc e453 243c cde3 87bc 4f56 88bd
00000250: 6382 19bd 2bef c23d 2daa e93c 3a31 8bbd
00000260: e33f 58bd 56ba d1bd 0489 d9bd 3079 4e3d
00000270: cb3f 91bc 19f7 00bd 3245 f7bb 9ce7 f4bd
00000280: 6774 f9bd 2587 2e3d 4c4f 5c3d e030 ed3d
00000290: 1d4b 8ebd 3123 bcbd ea50 39be 3443 553d
000002a0: 1a61 693c f936 523c f2fd 47bc 50e8 2ebe
000002b0: 02d4 8f3d 6e40 173d 788c 933c b435 4cbe
000002c0: f5f1 7d3d c876 343d 6d03 08bd 2092 91bc
000002d0: 3bb4 7c3c f39c 2e3b 833c d13d d9ab 4cbc
000002e0: cb83 3bbd abc7 f5bd f02b 193e 2752 41bd
000002f0: 5358 f33d 0633 87bd b150 d1bd ac83 bebb
00000300: e7e7 66bb ec9b 01bd 18fe e5bc a363 a93d
00000310: d4d7 25bd 8aac d9bd f3aa 98bd 26cf febc
00000320: f6fc 03be 319d b03d 7f50 dcbd 781d a23d
00000330: 9bdb bcbc 4761 dabd 9cd9 043e fa27 633d
00000340: 14ae bdbc 4d19 24bc 22cf aebb b4c9 dabd
00000350: 22b2 bdbd 75c6 9abd 90e4 bb3d 46ca e93c
00000360: c3a2 95ba 86fd c4bb fb9d 9abd 5288 e33d
00000370: b2e2 0abe 3078 2cbc 32d2 a03d 20bb 843d
00000380: 8336 dfbd fb24 1b3e 95e5 fb3c 34ec c0bd
00000390: e82e 96bd 8631 5d3d 51ff c73d 2310 7e3d
000003a0: 4bc8 79bd 6cd7 813b 6ebd 88bd 3079 363d
000003b0: eb15 83bc 3c45 87bd 3dea 1e3c 386c 88bd
000003c0: d972 95bd af6e 4fbc 99d6 e13d fbbd 82bd
000003d0: f197 833d 4046 78bb 1727 81ba a908 abbd
000003e0: fe1b 363d 97f3 92bc 2aa6 09be 3170 9d3d
000003f0: 4234 9d39 f334 0c3d 2355 093d 6e0c 563d

bias f4 [256]
-0.026251903 -0.056874488 -0.02572648 0.0024316316 -0.049821824 -0.05842868 -0.0004944381 0.025257243
0.05493075 0.032393273 -0.018356208 -0.08093078 -0.009698593 -0.09709329 -0.089868434 0.041288093
0.0933783 0.007302493 -0.06466601 -0.01713951 0.077363014 -0.12356131 -0.08365277 0.01953501
0.028562063 -0.02363152 -0.13173975 0.11651499 -0.0073199016 -0.022587823 -0.06686266 0.034812037
-0.03482613 -0.037468914 -0.014360725 -0.07461333 -0.049821153 -0.009954116 -0.087612405 -0.08002485
-0.00024012412 0.008224392 -0.009608099 -0.05163584 -0.09648647 -0.016187808 0.033082478 0.04999007
-0.05920712 -0.07155635 0.0006604401 0.05392197 -0.041375447 -0.0046431995 -0.020834891 -0.01626158
0.02683501 -0.025842013 -0.16001345 0.03820877 -0.027504371 0.13465086 0.14588654 0.03193382
-0.037184276 0.12655143 0.0019702315 -0.056613695 -0.013864817 -0.047130406 -0.037966765 0.06373037
-0.010734995 -0.046034098 -0.029992957 -0.08591689 -0.010398612 -0.04020453 0.032858595 0.07428258
-0.026798356 -0.052856278 0.1098075 -0.10968853 -0.068122484 -0.06897544 0.0040074294 -0.06772412
0.039741717 0.0015557081 0.02177076 -0.0722991 -0.06529242 -0.018142274 -0.053001974 -0.05954548
0.055821966 0.07585322 0.0038347626 0.022855459 0.080541976 0.067262806 0.06412515 0.03849435
0.05298009 -0.042469297 0.008615847 -0.042625982 -0.0699651 -0.00069678866 0.031960357 0.09172608
0.007878765 -0.08194812 -0.06434761 -0.050337143 -0.08727596 -0.04932458 0.10105938 -0.11647124
0.11839753 -0.121385045 0.04586772 -0.013574869 -0.081424735 0.026729977 0.022885364 0.0584708
0.042096484 -0.09217698 -0.076806255 0.091550864 -0.051903415 0.07785142 -0.0914005 -0.033751402
-0.15260422 0.0006483903 -0.07698024 0.03571245 0.020678507 -0.06070349 -0.047483243 -0.043654416
-0.04772897 0.08799154 0.045787103 -0.007920876 -0.02051624 -0.08915179 0.10265499 0.05519848
-0.024756571 0.08603586 0.13179533 -0.07533657 0.012311569 -0.0013715592 -0.06363976 -0.08733838
0.03209592 -0.035803255 -0.08071879 0.09786561 -0.031923085 -0.053325962 0.0133631425 -0.01695158
-0.099562295 -0.06930803 -0.07386396 0.054400794 -0.005770268 -0.013690293 -0.02520867 0.042708784
0.065836705 0.02463574 0.10046229 -0.045286015 -0.0055018757 0.05086434 -0.103744164 0.10263044
0.05500504 -0.06908638 -0.0049513727 0.10320248 -0.059876777 0.013190289 0.065840475 0.06869133
0.04859857 -0.04695967 0.013707297 -0.022216352 0.009278447 -0.05086077 -0.057530724 -0.012658151
0.016366456 -0.083582446 0.05603526 -0.033815145 0.077099234 0.0079117725 0.060851626 0.053742882
-0.055721365 -0.029212717 -0.063926026 0.02666937 0.08962623 -0.09105677 0.14373419 -0.03341146
-0.006169943 0.1077838 -0.02705066 -0.00037746792 -0.080619454 -0.10313844 0.146658 -0.0692786
-0.050380774 -0.09276748 0.014826666 -0.053997263 0.037252888 -0.05375421 0.05620424 0.016233668
0.0334283 0.067451976 9.326128e-05 -0.048622053 0.089416794 -0.00016467767 0.0055842814 0.102222346
0.046338797 0.09084708 -0.010809334 0.091022864 -0.07941411 -0.05382735 0.06307152 -0.11651423
-0.058545858 0.058293637 -0.113615684 -0.0068530054 -0.004500929 -0.060055833 0.07866435 -0.010510163
00000000: 3b0e d7bc 39f5 68bd 57c0 d2bc 025c 1f3b
00000010: f811 4cbd e952 6fbd 2e9d 01ba 47e8 ce3c
00000020: 11ff 603d cfae 043d c25f 96bc 09bf a5bd
00000030: d9e6 1ebc d9d8 c6bd f10c b8bd b41d 293d
00000040: 1f3d bf3d c049 ef3b 9d6f 84bd 2868 8cbc
00000050: 8070 9e3d b60d fdbd 2552 abbd e307 a03c
00000060: fdfa e93c e496 c1bc c9e6 06be 699f ee3d
00000070: c9db efbb 190a b9bc 4aef 88bd 1197 0e3d
00000080: d8a5 0ebd 0179 19bd 3f49 6bbc e0ce 98bd
00000090: 4411 4cbd 9716 23bc 226e b3bd 12e4 a3bd
000000a0: d4c9 7bb9 9abf 063c 4a6b 1dbc 1a80 53bd
000000b0: b39a c5bd 4b9c 84bc 7e81 073d 63c2 4c3d
000000c0: 2a83 72bd 238c 92bd 6321 2d3a 49dd 5c3d
000000d0: 4d79 29bd fb25 98bb efad aabc 0137 85bc
000000e0: 18d5 db3c a1b2 d3bc 91da 23be cd80 1c3d
000000f0: d950 e1bc eae1 093e 4863 153e 0acd 023d
00000100: 8a4e 18bd b396 013e 001f 013b c3e3 67bd
00000110: 4229 63bc d00b 41bd 0a83 1bbd 1185 823d
00000120: d5e1 2fbc 408e 3cbd cab3 f5bc 32f5 afbd
00000130: f15e 2abc 81ad 24bd bc96 063d 7721 983d
00000140: 3a88 dbbc d37f 58bd c1e2 e03d 61a4 e0bd
00000150: cd83 8bbd ff42 8dbd c150 833b f2b2 8abd
00000160: 36c8 223d e7e8 cb3a 9858 b23c 8d11 94bd
00000170: 08b8 85bd 1b9f 94bc 9918 59bd f6e5 73bd
00000180: 93a5 643d ef58 9b3d a450 7b3b 5f3b bb3c
00000190: 31f3 a43d 15c1 893d 0c54 833d 40ac 1d3d
000001a0: a701 593d 49f4 2dbd 7b29 0d3c 9598 2ebd
000001b0: dd49 8fbd b2a8 36ba dde8 023d e2da bb3d
000001c0: f015 013c 6ad4 a7bd aec8 83bd 522e 4ebd
000001d0: bdbd b2bd 9208 4abd 38f8 ce3d 7988 eebd
000001e0: 677a f23d b998 f8bd cadf 3b3d 2169 5ebc
000001f0: 03c2 a6bd d3f8 da3c 167a bb3c 147f 6f3d
00000200: 5d6d 2c3d 49c7 bcbd 994c 9dbd 057f bb3d
00000210: ad98 54bd 9170 9f3d 2f30 bbbd e93e 0abd
00000220: 4844 1cbe bdf8 293a d1a7 9dbd 3847 123d
00000230: f965 a93c 39a4 78bd ca7d 42bd f9ce 32bd
00000240: 747f 43bd e934 b43d 428b 3b3d 90c6 01bc
00000250: ac11 a8bc 3795 b6bd c83c d23d cd17 623d
00000260: 4bce cabc 9233 b03d 5bf5 063e 0f4a 9abd
00000270: 77b6 493c e4c5 b3ba 9055 82bd 77de b2bd
00000280: 0377 033d 6fa6 12bd e54f a5bd c46d c83d
00000290: c8c1 02bd 536c 5abd 15f1 5a3c 0ade 8abc
000002a0: 51e7 cbbd 5ef1 8dbd fd45 97bd 5ed3 5e3d
000002b0: 8414 bdbb 404d 60bc 6a82 cebc 68ef 2e3d
000002c0: 65d5 863d e4d0 c93c 2cbf cd3d d47d 39bd
000002d0: 1449 b4bb 2057 503d d277 d4bd e82f d23d
000002e0: f74c 613d 297d 8dbd 203f a2bb d25b d33d
000002f0: 5a41 75bd 151c 583c 5fd7 863d 0aae 8c3d
00000300: 4b0f 473d c858 40bd 9294 603c 11ff b5bc
00000310: a104 183c 6253 50bd 56a5 6bbd 2264 4fbc
00000320: f212 863c 462d abbd 3b85 653d c081 0abd
00000330: 34e6 9d3d 61a0 013c 8e3f 793d 7f21 5c3d
00000340: 163c 64bd 824f efbc a6eb 82bd b979 da3c
00000350: f58d b73d f97b babd 0e2f 133e 75da 08bd
00000360: 3c2d cabb c1bd dc3d 5999 ddbc e3e6 c5b9
00000370: d01b a5bd 3f3a d3bd 842d 163e f0e1 8dbd
00000380: 125c 4ebd e0fc bdbd 8beb 723c 3c2c 5dbd
00000390: 7c96 183d 602d 5cbd 6b36 663d 78fc 843c
000003a0: 1dec 083d 4324 8a3d 4595 c338 eb27 47bd
000003b0: 2720 b73d 53ad 2cb9 59fc b63b f359 d13d
000003c0: c0cd 3d3d 090e ba3d a219 31bc 326a ba3d
000003d0: dda3 a2bd 117a 5cbd a42b 813d 039f eebd
000003e0: c8cd 6fbd 4fc5 6e3d 57af e8bd 2d8f e0bb
000003f0: 877c 93bb 1bfd 75bd c61a a13d d232 2cbc

weight f4 [256, 256]
-0.005862076 0.05761007 -0.079608195 0.078175716 -0.01159408 0.065623246 0.062020194 -0.007955868
-0.10305777 0.04931369 -0.102222465 0.005833197 0.07580947 0.02294707 -0.008886894 0.05748338
-0.011365115 -0.13439798 0.060401574 -0.018150475 0.0044870903 0.085642144 -0.12302548 0.024347372
-0.0141392425 0.07182859 0.09738238 -0.025126034 -0.12206024 -0.025241086 -0.008242458 -0.027653532
0.071512446 0.048337344 0.07848002 0.10417784 0.09292798 0.08435287 0.09049366 0.041023728
-0.09251732 0.07153728 -0.11314951 0.012254714 0.020856107 0.0423185 -0.069264375 0.029707313
-0.09731939 0.08913028 -0.07773114 -0.06254481 0.11873116 -0.10236136 -0.09243995 -0.011051063
0.0075331787 0.019820072 0.074596 -0.090130776 0.016212843 -0.08269493 -0.09243675 -0.036797732
0.03695318 -0.07578988 -0.13660264 0.039894003 0.05927582 0.106070094 -0.06196368 0.096167505
-0.10539666 -0.06026988 0.012223458 0.0333693 0.0040164604 0.05199544 -0.016307663 -0.09010889
-0.006679995 0.046229187 -0.08562881 0.04913444 0.11111035 -0.07056755 -0.08013706 0.036421712
0.015446133 0.005480646 -0.039860334 0.034365438 0.053700063 -0.025051054 -0.07065135 -0.008896748
-0.0061432663 0.056559946 0.019071506 0.010613788 0.09465381 -0.037888866 -0.072499044 -0.04675825
-0.07057085 0.050831515 0.04221488 -0.07986528 -0.08454544 0.013814025 0.045638636 0.016833944
0.049907207 0.019788556 -0.010372441 -0.09998243 0.12380949 -0.029649789 -0.019621663 0.00677978
-0.141422 0.10085159 0.007059701 0.10820077 -0.008509867 -0.02926875 -0.0053985394 0.059714805
-0.11199773 0.083575524 0.064153485 -0.101209484 -0.08654723 -0.05548889 0.09720162 -0.03011145
0.060070585 0.088567756 -0.0040965816 -0.050801795 -0.11970748 -0.049127486 -0.056223657 0.041301712
0.04265808 -0.022350473 -0.00022620973 -0.005219251 -5.8874677e-05 0.048181824 -0.003652915 -0.05374951
-0.017016519 -0.088949785 -0.09157645 -0.030291442 -0.02659064 -0.045150347 -0.09052568 0.018364128
-0.12457705 0.050543558 0.031914707 -0.012962123 0.0460726 0.06657298 -0.049955286 -0.039482147
0.10341862 0.025181117 0.03239141 0.057450045 0.0065521575 -0.1130216 0.062311202 0.07731685
-0.07850797 0.09916995 -0.03673129 0.11222267 -0.044158984 -0.09129499 -0.06988472 -0.045729235
0.014159101 0.029125728 0.09368724 -0.105462305 -0.008041003 0.013512475 -0.026350971 -0.06974516
0.05309777 0.07101185 -0.05953536 -0.06263351 -0.007991134 0.08754661 -0.008266978 -0.007905786
0.020988533 -0.0320243 0.09890629 -0.054075275 -0.088551894 0.0020908408 -0.055604376 -0.0073997397
0.080952436 -0.03503158 0.042125147 0.07787887 0.0503434 0.06343432 -0.06550625 0.07026108
0.01801774 -0.0056619034 0.050201397 0.014088713 0.05847708 -0.04590739 -0.0014470841 -0.06786713
0.06065873 0.106784225 0.004950365 0.13938788 -0.0397861 -0.021270122 -0.032724626 0.015926685
0.043654993 -0.07835054 0.04627613 0.08821074 -0.078498505 -0.098374285 -0.11972935 -0.048127566
-0.026929678 -0.08731273 0.019342521 -0.024243394 -0.015029838 0.0028026265 -0.06682822 0.110894546
0.01870484 0.006849084 0.107682206 0.057219263 -0.051939376 0.001210224 -0.024386104 0.023889609
00000000: a816 c0bb 89f8 6b3d 9f09 a3bd 971a a03d
00000010: 19f5 3dbc 7b65 863d e308 7e3d 5459 02bc
00000020: f40f d3bd 27fd 493d 035a d1bd 6724 bf3b
00000030: ff41 9b3d 7efb bb3c 569a 11bc b173 6b3d
00000040: bf34 3abc a09f 09be a467 773d 4eb0 94bc
00000050: 7108 933b 2665 af3d c8f4 fbbd 2474 c73c
00000060: 48a8 67bc de1a 933d 6a70 c73d 1dd5 cdbc
00000070: b8fa f9bd 65c6 cebc 600b 07bc a989 e2bc
00000080: 1e75 923d 61fd 453d 22ba a03d 315b d53d
00000090: 0651 be3d 33c1 ac3d bd54 b93d 7f08 283d
000000a0: b879 bdbd 2382 923d eeba e7bd ffc7 483c
000000b0: 6dda aa3c 2a56 2d3d 7bda 8dbd c05c f33c
000000c0: 634f c7bd f089 b63d 8131 9fbd 7e17 80bd
000000d0: 5329 f33d d5a2 d1bd 2851 bdbd 850f 35bc
000000e0: e2d8 f63b b45d a23c cac5 983d 7c96 b8bd
000000f0: ccd0 843c f65b a9bd 7b4f bdbd 38b9 16bd
00000100: 385c 173d b937 9bbd 90e1 0bbe e567 233d
00000110: 34cb 723d 473b d93d a1cd 7dbd 78f3 c43d
00000120: 34da d7bd 8ddd 76bd e644 483c 3fae 083d
00000130: 839c 833b 2cf9 543d a697 85bc 028b b8bd
00000140: dce3 dabb d15a 3d3d 285e afbd 3241 493d
00000150: d38d e33d b885 90bd e61e a4bd ef2e 153d
00000160: c711 7d3c fe96 b33b 9744 23bd c6c2 0c3d
00000170: 99f4 5b3d de37 cdbc a8b1 90bd aac3 11bc
00000180: 744d c9bb 67ab 673d d93b 9c3c 74e5 2d3c
00000190: dbd9 c13d 5b31 1bbd 617a 94bd 9485 3fbd
000001a0: 7387 90bd b534 503d 83e9 2c3d 6890 a3bd
000001b0: 2926 adbd 3854 623c 94ef 3a3d 57e7 893c
000001c0: 806b 4c3d 9c1b a23c 2cf1 29bc 97c3 ccbd
000001d0: d48f fd3d 1de4 f2bc 9cbd a0bc eb28 de3b
000001e0: eed0 10be 478b ce3d 1055 e73b 5e98 dd3d
000001f0: f86c 0bbc 05c5 efbc 3be6 b0bb 8397 743d
00000200: 115f e5bd a529 ab3d e762 833d eb46 cfbd
00000210: ad3f b1bd 5148 63bd a511 c73d 4aac f6bc
00000220: 930c 763d 0363 b53d 9e3c 86bb 8b15 50bd
00000230: 3229 f5bd e739 49bd c74a 66bd fc2b 293d
00000240: 3dba 2e3d 5718 b7bc b632 6db9 4006 abbb
00000250: 34f0 76b8 4e5a 453d be65 6fbb 7228 5cbd
00000260: 3a66 8bbc 4e2b b6bd 6f8c bbbd c225 f8bc
00000270: 9dd4 d9bc 92ef 38bd 8765 b9bd 5e70 963c
00000280: 4122 ffbd c306 4f3d ffb8 023d 165f 54bc
00000290: 9fb6 3c3d 6a57 883d ea9d 4cbd 08b8 21bd
000002a0: 24cd d33d a148 ce3c dbac 043d bd50 6b3d
000002b0: 7bb3 d63b de77 e7bd 083a 7f3d 4c58 9e3d
000002c0: c9c8 a0bd 9d19 cb3d 8d73 16bd 00d5 e53d
000002d0: 0de0 34bd def8 babd b81f 8fbd 944e 3bbd
000002e0: 93fb 673c 1499 ee3c 18df bf3d 9ffc d7bd
000002f0: 69be 03bc 6e63 5d3c fedd d7bc 8dd6 8ebd
00000300: 0c7d 593d a96e 913d 5adb 73bd ff45 80bd
00000310: 3fed 02bc a34b b33d 3872 07bc 4587 01bc
00000320: 25f0 ab3c ea2b 03bd 628f ca3d 097e 5dbd
00000330: b25a b5bd 7d06 093b 6ac1 63bd 8479 f2bb
00000340: 64ca a53d 467d 0fbd 6b8b 2c3d f57e 9f3d
00000350: e234 4e3d dae9 813d 2428 86bd 0be5 8f3d
00000360: f199 933c 7d87 b9bb fb9f 4d3d 58d4 663c
00000370: aa85 6f3d 6309 3cbd 16ac bdba ecfd 8abd
00000380: 4a75 783d b0b1 da3d ac36 a23b b2bb 0e3e
00000390: c0f6 22bd ae3e aebc 420a 06bd ae78 823c
000003a0: 94cf 323d 3f76 a0bd 0a8c 3d3d d5a7 b43d
000003b0: d3c3 a0bd 7578 c9bd a934 f5bd 6921 45bd
000003c0: a19b dcbc 04d1 b2bd 3574 9e3c 159a c6bc
000003d0: b63f 76bc 45ac 373b 3cdd 88bd ae1c e33d
000003e0: e53a 993c 486e e03b 7d88 dc3d bf5e 6a3d
000003f0: 62be 54bd 61a0 9e3a 5ec5 c7bc 24b4 c33c

bias f4 [256]
-0.03516781 -0.09267019 -0.07398553 -0.060110793 0.1243234 0.0373683 -0.10011704 -0.010569888
-0.05412726 -0.08892301 0.0026103386 0.050816923 0.01935246 0.013911251 -0.09050911 0.0062126806
0.068987235 -0.11431424 -0.08531248 -0.043416917 0.06672388 -0.053744003 0.050256398 0.035439536
-0.027987363 0.023899872 0.021505397 0.081903115 -0.005116421 -0.020293219 0.019849537 -0.13402241
-0.016663201 -0.106912136 0.06888659 -0.0022122264 0.009738316 0.073353596 -0.03229977 0.057025075
-0.027676683 -0.03335337 -0.0074824924 -0.07310755 -0.012485591 -0.0755727 -0.009428646 -0.08248948
-0.061937053 0.037054222 -0.010646363 -0.13025837 -0.080045916 -0.073334984 -0.06762634 0.127505
-0.04036912 0.000873006 0.0253004 -0.036595926 0.071255565 -0.048440147 0.01805599 -0.057740074
-0.11624154 -0.039896198 0.0040881676 -0.010139214 0.10699021 0.079134084 0.04907201 -0.011619855
-0.028687637 -0.090100355 0.05520256 0.05817958 0.060048472 0.008474068 0.001944863 -0.048824277
0.038649585 0.071646966 0.09318478 -0.033779707 0.0046964097 0.030490277 -0.008418861 -0.059783764
-0.04733828 -0.031349037 -0.064879306 -0.039099958 0.041549634 0.01697 -0.036765017 0.0017233322
0.0204588 0.11135579 0.09107666 0.12068622 -0.04369019 0.026356015 -0.0473118 0.03730745
0.08502246 0.040875208 0.014753268 -0.053400517 0.09187239 -0.0052657337 -0.06407477 -0.03848271
0.016525904 0.06435749 -0.037930656 0.0017818466 -0.0062314854 -0.028556878 0.10040984 0.011597856
0.060436115 -0.07785538 -0.02875226 -0.010733402 0.017995022 -0.039392635 -0.057263833 -0.07175044
-0.008513572 0.053390127 0.009840927 0.043807194 -0.060947325 0.004591836 -0.031290818 0.05163513
0.049196053 -0.016300105 -0.06650014 -0.039605767 -0.10653533 0.09357446 0.008314676 -0.12740298
-0.019939067 0.080874205 -0.0037496286 0.0027780363 -0.08621671 -0.083992966 -0.046002366 0.023321599
0.02190545 -0.008612444 -0.028170498 0.013587626 0.05562408 0.03591492 0.023044255 -0.009966764
0.008423882 0.0015422925 -0.069126256 -0.025574742 -0.016734246 -0.050425585 0.064047195 -0.06888412
-0.037321113 -0.013516841 0.08891396 0.05159947 0.04985016 -0.014439077 -0.061908618 -0.045805372
-0.1160224 -0.00018614058 -0.056499165 -0.07576323 -0.039313864 -0.06662151 0.068434775 0.08661542
-0.013098588 0.062475376 0.04769132 -0.028638026 -0.0055436795 -0.008836434 0.04755871 -0.07340229
-0.052591626 -0.014958869 -0.0075924606 -0.014197551 0.027218627 0.07439257 -0.00528643 0.026610255
0.025951888 -0.010889521 0.04207252 0.0034014918 -0.061795413 -0.014358079 0.073119864 -0.0130042955
0.054181293 0.036392815 0.0067961565 -0.012362604 -0.06464384 0.09456072 -0.013532198 -0.050666448
-0.046316598 0.031984553 -0.028771713 -0.026389994 0.1035916 -0.030868363 0.12207431 -0.015872119
-0.09928562 -0.031882174 -0.022966743 -0.04241941 0.061643105 0.039593812 -0.05661329 -0.036853097
0.014464244 -0.08574484 0.025282787 -0.031897783 -0.07047416 0.040865116 0.0374757 0.039908547
0.048763297 -0.022093222 -0.0045336555 -0.07862882 -0.042140204 -0.044482257 -0.02570883 -0.008697242
0.071590126 0.01333628 0.05903176 0.057336837 -0.0019535928 0.061069414 -0.046007875 0.022588545
00000000: 1f0c 10bd dec9 bdbd ba85 97bd bc36 76bd
00000010: 449d fe3d 810f 193d 2a0a cdbd 532d 2dbc
00000020: 8cb4 5dbd 441d b6bd 3712 2b3b 6825 503d
00000030: 0d89 9e3c 04ec 633c d75c b9bd be93 cb3b
00000040: 2e49 8d3d 961d eabd 4fb8 aebd f0d5 31bd
00000050: 88a6 883d ac22 5cbd a7d9 4d3d 0c29 113d
00000060: c145 e5bc aac9 c33c 162c b03c d2bc a73d
00000070: a6a7 a7bb f73d a6bc 7f9b a23c 2c3d 09be
00000080: 4481 88bc c0f4 dabd 6a14 8d3d 00fb 10bb
00000090: 758d 1f3c 693a 963d c34c 04bd 2093 693d
000000a0: 36ba e2bc 8b9d 08bd b22f f5bb 69b9 95bd
000000b0: 5d90 4cbc dcc5 9abd 9c7a 1abc 3ff0 a8bd
000000c0: b5b1 7dbd 2bc6 173d 156e 2ebc 7362 05be
000000d0: 1def a3bd a730 96bd ae7f 8abd ac90 023e
000000e0: 175a 25bd 71da 643a c942 cf3c 9ce5 15bd
000000f0: 70ee 913d 2d69 46bd 28ea 933c db80 6cbd
00000100: 0b10 eebd 326a 23bd 09f6 853b f21e 26bc
00000110: af1d db3d 0d11 a23d bbff 483d 3461 3ebc
00000120: 5602 ebbc 8986 b8bd 141c 623d b64d 6e3d
00000130: 63f5 753d d1d6 0a3c c6ea fe3a f7fb 47bd
00000140: 074f 1e3d a5bb 923d a9d7 be3d 975c 0abd
00000150: 57e4 993b bfc6 f93c 43ef 09bc d2df 74bd
00000160: c9e5 41bd d967 00bd 71df 84bd 4727 20bd
00000170: f32f 2a3d ab04 8b3c ea96 16bd 6fe1 e13a
00000180: 3799 a73c 810e e43d 6686 ba3d 562a f73d
00000190: 7cf4 32bd 92e8 d73c 05ca 41bd b2cf 183d
000001a0: 4120 ae3d c36c 273d b1b7 713c 80ba 5abd
000001b0: 9727 bc3d 2d8c acbb a239 83bd 0ca0 1dbd
000001c0: 5561 873c dccd 833d 2d5d 1bbd da8c e93a
000001d0: 7d31 ccbb 1df0 e9bc ada3 cd3d ef04 3e3c
000001e0: dc8b 773d a472 9fbd dc89 ebbc 27db 2fbc
000001f0: 4c6a 933c 2c5a 21bd 7b8d 6abd e5f1 92bd
00000200: 827c 0bbc 9baf 5a3d d73b 213c 2c6f 333d
00000210: e7a3 79bd 1d77 963b cd2a 00bd 5c7f 533d
00000220: cd81 493d cc87 85bc 3a31 88bd a839 22bd
00000230: 322f dabd f7a3 bf3d 473a 083c ed75 02be
00000240: 4157 a3bc 60a1 a53d 54bc 75bb b70f 363b
00000250: 6392 b0bd 8104 acbd fa6c 3cbd f00c bf3c
00000260: 0f73 b33c 351b 0dbc d1c5 e6bc a29e 5e3c
00000270: 13d6 633d 861b 133d 4ec7 bc3c a34b 23bc
00000280: 5204 0a3c c026 ca3a 1192 8dbd 1f82 d1bc
00000290: 4216 89bc 0f8b 4ebd 2d2b 833d 1e13 8dbd
000002a0: 06de 18bd be75 5dbc 8618 b63d f759 533d
000002b0: ae2f 4c3d e191 6cbc e493 7dbd 6a9e 3bbd
000002c0: 279d edbd bb2e 43b9 ab6b 67bd c129 9bbd
000002d0: 9307 21bd dc70 88bd 8827 8c3d 6d63 b13d
000002e0: 769b 56bc 2ee6 7f3d f957 433d 4b9a eabc
000002f0: c1a7 b5bb b1c6 10bc eccc 423d f153 96bd
00000300: 516a 57bd 0b16 75bc 2dca f8bb d89c 68bc
00000310: 99f9 de3c 225b 983d ca39 adbb c0fd d93c
00000320: 0e99 d43c f669 32bc 3c54 2c3d 90eb 5e3b
00000330: 301d 7dbd 263e 6bbc debf 953d f80f 55bc
00000340: 34ed 5d3d a210 153d 4bb2 de3b 858c 4abc
00000350: fd63 84bd 0da9 c13d 27b6 5dbc 9f87 4fbd
00000360: 79b6 3dbd 3c02 033d a8b2 ebbc d42f d8bc
00000370: d527 d43d a6df fcbc 1902 fa3d 3f06 82bc
00000380: 4256 cbbd e296 02bd c024 bcbc fabf 2dbd
00000390: 7b7d 7c3d 1f2d 223d 56e3 67bd 46f3 16bd
000003a0: 70fb 6c3c fe9a afbd d91d cf3c 40a7 02bd
000003b0: c254 90bd 2e62 273d 1f80 193d 2577 233d
000003c0: 06bc 473d d8fc b4bc 0f8f 94bb 2608 a1bd
000003d0: 359b 2cbd 0733 36bd 539b d2bc e07e 0ebc
000003e0: d89d 923d 6a80 5a3c 49cb 713d 08da 6a3d
000003f0: d907 00bb ec23 7a3d c172 3cbd 9d0b b93c

weight f4 [1, 256]
-0.28032258 -0.23942935 -0.22767101 -0.2703158 0.29114914 -0.030804927 -0.29350486 -0.24259803
0.016673211 -0.20017841 -0.1989305 -0.20423067 0.28315952 -0.25486988 -0.3129413 0.04664041
-0.2881935 -0.29526392 -0.32669288 -0.28076455 0.289204 -0.27535373 -0.09208812 0.30185258
-0.15991981 -0.1732304 0.24003673 0.22770101 -0.26142412 0.31526902 -0.1460769 -0.31911615
-0.20838276 -0.26264766 0.30947125 0.26686946 -0.32429928 0.271156 0.18249704 0.3201021
0.043348428 -0.24457552 0.25885016 -0.2904496 0.26656616 -0.29850748 -0.27109337 -0.27165073
-0.15369058 -0.15218724 0.20794807 -0.26607203 -0.24817316 -0.26355624 -0.2846014 0.28626764
0.24538709 0.2922897 0.2863248 -0.26042786 0.24670514 -0.1523708 -0.0910326 -0.15656826
-0.26247045 0.19234991 -0.28244603 0.24680407 0.27441168 0.12573662 0.31762314 -0.25132218
-0.32065096 -0.3134046 0.24221534 0.27305192 0.24567907 0.31443325 0.26638326 -0.12007346
0.06893809 0.318824 0.29997733 -0.2992524 -0.28464228 0.2447852 0.29626486 -0.13171904
0.23995571 -0.29706085 -0.23017253 -0.2862425 0.26601112 0.25306574 -0.31093135 0.22983049
-0.23956849 0.28391078 0.31314027 0.31602156 -0.22428997 0.24992995 -0.26827976 0.1445037
0.27648568 -0.2738378 0.2895133 -0.27557924 0.30569375 -0.25894874 -0.32279548 0.3084285
-0.23766206 0.2923519 -0.32708436 -0.24198355 -0.30243468 0.24371985 0.26080948 0.26713222
0.26279017 0.16979946 -0.3146964 0.28421652 -0.03709577 -0.24637488 -0.2070993 -0.32623962
-0.2662091 0.26015407 -0.10853748 0.20737067 -0.18792504 0.24322459 -0.3013349 -0.084115274
-0.12814915 -0.24336547 -0.04141683 -0.25193188 -0.26499927 0.2967933 0.07859756 -0.31030986
-0.26871225 0.2981717 -0.23097037 -0.19512755 -0.2462714 -0.2888527 -0.22233674 0.29172984
-0.18084866 -0.23438002 -0.3174712 -0.06566658 0.30663672 0.037300605 0.20794436 -0.17079715
0.16943789 0.31402665 -0.29181334 -0.24462406 -0.2801928 -0.2585909 0.30293724 -0.25520408
0.19032267 -0.28843918 0.31785432 0.27870458 0.25879225 0.12153663 0.21503647 -0.25653097
-0.2459032 -0.13155611 -0.22896837 -0.27753896 -0.12869322 -0.26511517 0.2529635 0.25731388
-0.18151888 -0.103627294 0.24281164 0.24605039 -0.25009117 -0.27669176 -0.19779094 -0.30073518
-0.30905473 -0.13419522 0.2163348 -0.1199414 0.29186136 0.2107654 -0.27489927 0.32529482
0.29283997 -0.21959455 0.29400966 0.28611538 -0.2444711 0.27647263 0.31250846 0.24240167
0.26863158 -0.20033067 -0.23509069 -0.20681389 0.26761618 0.3219702 -0.18713854 0.2459276
-0.2931692 0.25899792 -0.16523786 0.26989388 0.32191125 -0.3000819 0.31798738 -0.17563906
-0.3180451 -0.31128123 0.29527572 -0.14255263 0.30568022 0.19589506 -0.17523666 -0.29820567
0.28110045 0.23390958 0.29698256 0.26774836 -0.25490424 0.2666737 -0.12980257 0.20631424
0.27446157 -0.28016686 -0.2951134 -0.263229 -0.29543358 -0.2962757 0.25763685 0.24286999
0.25139838 -0.14238699 -0.16058524 0.28230867 0.28298807 0.2774984 0.2111446 0.27222258
00000000: 7186 8fbe f82c 75be 9722 69be d566 8abe
00000010: 8011 953e 9d5a fcbc 4546 96be 9e6b 78be
00000020: 4296 883c 92fb 4cbe 70b4 4bbe d821 51be
00000030: 49fa 903e 4e7e 82be d839 a0be 040a 3f3d
00000040: 198e 93be d52c 97be 4a44 a7be 5fc0 8fbe
00000050: 8c12 943e 2afb 8cbe b298 bcbd 6c8c 9a3e
00000060: 05c2 23be 4f63 31be 30cc 753e 742a 693e
00000070: 62d9 85be f16a a13e 2f95 15be 3163 a3be
00000080: 4a62 55be c179 86be 0473 9e3e 1da3 883e
00000090: 8e0a a6be f6d4 8a3e 81e0 3a3e 6ce4 a33e
000000a0: 1f8e 313d 0172 7abe 0288 843e cfb5 94be
000000b0: 5c7b 883e f9d5 98be c0cc 8abe ce15 8bbe
000000c0: 1061 1dbe f9d6 1bbe 57f0 543e 983a 88be
000000d0: 1b21 7ebe d8f0 86be 46b7 91be ac91 923e
000000e0: c146 7b3e ffa6 953e 2a99 923e cd56 85be
000000f0: 46a0 7c3e 1707 1cbe 4d6f babd 6e53 20be
00000100: 8762 86be 60f7 443e c49c 90be 35ba 7c3e
00000110: b07f 8c3e 1ac1 003e 809f a23e 4dad 80be
00000120: 5d2c a4be 9176 a0be 4c07 783e 76cd 8b3e
00000130: 4b93 7b3e 65fd a03e 6363 883e 13e9 f5bd
00000140: 6a2f 8d3d e63c a33e a196 993e 9c37 99be
00000150: a2bc 91be f9a8 7a3e 07b0 973e 5be1 06be
00000160: f3b6 753e 5c18 98be 59b2 6bbe 618e 92be
00000170: 9c32 883e d591 813e 6532 9fbe af58 6b3e
00000180: 7151 75be c15c 913e ec53 a03e 94cd a13e
00000190: 45ac 65be a3ed 7f3e f75b 89be c7f8 133e
000001a0: 888f 8d3e 7834 8cbe 163b 943e b918 8dbe
000001b0: e483 9c3e ee94 84be 7345 a5be 57ea 9d3e
000001c0: af5d 73be 26af 953e 9a77 a7be 89ca 77be
000001d0: b8d8 9abe b291 793e d288 853e 8ec5 883e
000001e0: 6f8c 863e e9df 2d3e e31f a1be d484 913e
000001f0: bcf1 17bd b249 7cbe d711 54be e108 a7be
00000200: 8f4c 88be ea32 853e e648 debd fa58 543e
00000210: 6c6f 40be de0f 793e 9148 9abe a144 acbd
00000220: 8839 03be cc34 79be b2a4 29bd 37fd 80be
00000230: fcad 87be 4bf5 973e c2f7 a03d efe0 9ebe
00000240: a794 89be f6a9 983e 7f83 6cbe 84cf 47be
00000250: 922e 7cbe 80e4 93be 3eac 63be 9d5d 953e
00000260: 6430 39be 5101 70be 968b a2be 337c 86bd
00000270: 7dff 9c3e 85c8 183d 5eef 543e 73e5 2ebe
00000280: 2081 2d3e 1ac8 a03e 8f68 95be bb7e 7abe
00000290: 6e75 8fbe 0766 84be 971a 9b3e 1caa 82be
000002a0: f2e3 423e 4dae 93be cdbd a23e 5eb2 8e3e
000002b0: 6b80 843e 32e8 f83d 8532 5c3e 0758 83be
000002c0: 0cce 7bbe a5b6 06be af76 6abe 9619 8ebe
000002d0: 28c8 03be 2dbd 87be 6f84 813e a5be 833e
000002e0: 16e0 39be 8c3a d4bd 9da3 783e a2f4 7b3e
000002f0: f30b 80be 8baa 8dbe b589 4abe f6f9 99be
00000300: 6c3c 9ebe 796a 09be df86 5d3e d6a3 f5bd
00000310: da6e 953e e3d2 573e 99bf 8cbe 0b8d a63e
00000320: 1fef 953e 65dd 60be 6f88 963e b77d 923e
00000330: a256 7abe d28d 8d3e 1c01 a03e 2538 783e
00000340: 148a 893e 7c23 4dbe 9dbb 70be 05c7 53be
00000350: fd04 893e 47d9 a43e 3fa1 3fbe 72d4 7b3e
00000360: 461a 96be 609b 843e 1d34 29be 882f 8a3e
00000370: 8dd1 a43e 56a4 99be 3ecf a23e bada 33be
00000380: cfd6 a2be 4160 9fbe 612e 973e 51f9 11be
00000390: 1e82 9c3e b798 483e 3d71 33be 6aae 98be
000003a0: 66ec 8f3e fe85 6f3e 190e 983e 5016 893e
000003b0: cf82 82be 7589 883e f7ea 04be 0a44 533e
000003c0: 3a86 8c3e 0872 8fbe 1b19 97be f4c5 86be
000003d0: 1243 97be 73b1 97be fae8 833e e9b2 783e
000003e0: 4ab7 803e e5cd 11be 7570 24be c38a 903e
000003f0: d0e3 903e 4514 8e3e 4a36 583e c260 8b3e

weight f4 [6, 256]
-0.05129835 0.108521715 -0.019795276 -0.043659374 0.013465654 -0.041526448 -0.07986484 0.0055964496
-0.09737714 -0.004148508 0.027733417 0.12764527 -0.028505364 -0.026553236 -0.03634532 0.07236732
-0.054284193 0.04598735 0.033509254 -0.012962687 0.16504455 -0.022109495 -0.017699001 -0.055387147
0.038915437 0.111756235 -0.0008591465 0.007852936 0.005356853 0.052257136 0.007927554 -0.01272048
-0.10850884 -0.02330448 -0.064527586 0.075207 0.09165107 0.077544376 0.051898282 0.022533381
-0.15976648 0.051776137 0.05924949 -0.020236436 0.013977046 -0.02585857 0.012594412 -0.0078673875
0.03134982 -0.008730483 0.10071874 -0.018755728 -0.0620397 0.11675713 0.0573371 -0.03938623
-0.055010352 -0.06174402 0.04420165 0.012226671 0.004204566 0.0010630331 -0.076975696 0.069178395
-0.046394024 0.05033938 -0.10660141 -0.0897324 -0.0007590156 -0.05997145 0.09507736 -0.08543825
0.030258998 0.0681802 -0.08751551 -0.17125858 -0.017264716 -0.06747096 0.053623617 0.048126463
0.014902376 -0.12256453 0.04776297 0.05016527 -0.0518373 0.069880255 0.11830317 0.13867937
0.073168226 0.039907902 0.022459535 0.011537706 -0.026227387 -0.05766024 -0.011149713 0.054824885
-0.05464192 0.022176428 -0.024483597 0.07072859 -0.015615884 -0.118434615 0.011892152 0.113809496
-0.11157702 -0.11549926 0.059778824 -0.035905205 0.07175632 0.0150180105 0.03072438 -0.12126137
0.018321471 -0.017489603 -0.063348554 0.0024407546 -0.028242672 -0.18959916 0.11215961 -0.055064447
-0.15130064 -0.07669531 0.13359179 0.075889066 0.0032498944 -0.0067186267 0.013144758 -0.059143197
-0.056763917 -0.013178599 -0.028335303 0.033802025 -0.0076469947 -0.010443893 -0.07559063 -0.05283535
-0.051543757 -0.023117498 -0.132204 -0.012577601 -0.055966023 0.04918729 -0.111659326 -0.061709244
-0.000722153 -0.020443073 -0.1549819 0.026612269 -0.02973479 -0.025635775 0.038472146 0.0040447484
0.016038818 -0.08501829 -0.023095932 0.017980693 -0.0012732971 -0.008654776 0.0024543146 0.025736932
-0.133404 -0.060644686 -0.036861192 -1.45576605e-05 -0.027508048 -0.032505255 -0.13471279 -0.049863506
0.01343841 0.07193281 0.027283097 -0.061116975 0.012362479 -0.03665389 -0.063853934 -0.03735826
0.037706356 -0.07948445 -0.033482578 -0.08025471 -0.013578947 0.028330656 0.13905881 0.0668751
-0.080150485 0.063189924 0.07372047 -0.04174594 -0.12182017 -0.027458007 0.05653583 0.032049466
-0.051424872 -0.047515728 -0.1008886 -0.01752704 0.05448861 0.10470931 0.021759218 0.029418087
-0.059053246 -0.036030874 0.04060118 0.03678459 -0.14512688 0.034747418 0.01047901 0.111524716
0.08864254 0.12788737 0.034586668 -0.033918668 -0.12534568 -0.044141017 0.15417834 -0.06710901
0.03285645 0.09741763 0.023746124 -0.084145285 0.0640985 0.061613277 -0.05796088 0.03972415
-0.092002414 -0.07528961 -0.059019234 0.11588467 0.033761583 -0.063725755 0.04815181 -0.003490982
-0.024500592 0.03165514 -0.09704125 0.090362415 -0.04536615 -0.17946112 0.023692282 -0.05507095
0.057809472 -0.086735226 -0.02975027 -0.02227876 -0.112567775 -0.00381503 0.08411811 -0.18527262
0.038095843 0.008791527 0.058217593 -0.040544637 -0.06873714 0.020393541 -0.02946605 0.021002522
00000000: 381e 52bd a240 de3d b429 a2bc 2cd4 32bd
00000010: 0c9f 5c3c a317 2abd 2d90 a3bd 6c62 b73b
00000020: aa6d c7bd 35f0 87bb 3131 e33c 71b5 023e
00000030: 1584 e9bc 2c86 d9bc d5de 14bd 5135 943d
00000040: 1a59 5ebd 3b5d 3c3d 0041 093d 7361 54bc
00000050: 7001 293e f91e b5bc 7ffd 90bc a2dd 62bd
00000060: cb65 1f3d 74e0 e43d 5838 61ba 9aa9 003c
00000070: 8a88 af3b 940b 563d 92e2 013c 8f69 50bc
00000080: e239 debd 09e9 bebc 0a27 84bd 2106 9a3d
00000090: 8eb3 bb3d 96cf 9e3d 4b93 543d ed97 b83c
000000a0: d399 23be 3713 543d 98af 723d e2c6 a5bc
000000b0: fbff 643c 5ad5 d3bc cb58 4e3c 37e6 00bc
000000c0: ab68 003d 4d0a 0fbc a045 ce3d 9da5 99bc
000000d0: 571d 7ebd 5d1e ef3d 4fda 6a3d 7553 21bd
000000e0: 8952 61bd 4ce7 7cbd ca0c 353d 6052 483c
000000f0: 75c6 893b 7955 8b3a 6fa5 9dbd 67ad 8d3d
00000100: a907 3ebd aa30 4e3d d751 dabd 9fc5 b7bd
00000110: adf8 46ba a0a4 75bd ebb7 c23d 40fa aebd
00000120: b8e1 f73c 10a2 8b3d 553b b3bd 695e 2fbe
00000130: bc6e 8dbc 372e 8abd 70a4 5b3d 4120 453d
00000140: 1829 743c 1d03 fbbd 1ba3 433d 197a 4d3d
00000150: 5953 54bd 611d 8f3d ef48 f23d f701 0e3e
00000160: 39d9 953d 7876 233d 0ffd b73c a508 3d3c
00000170: d1da d6bc 252d 6cbd 49ad 36bc 0f90 603d
00000180: 35d0 5fbd 57ab b53c d391 c8bc 27da 903d
00000190: c4d9 7fbc d98d f2bd 4dd7 423c f414 e93d
000001a0: 7e82 e4bd e08a ecbd a4da 743d 5611 13bd
000001b0: faf4 923d 1a0e 763c b2b1 fb3c e257 f8bd
000001c0: e916 963c 5b46 8fbc e3bc 81bd 11f5 1f3b
000001d0: 2d5d e7bc 4826 42be f0b3 e53d 428b 61bd
000001e0: 8eee 1abe 6e12 9dbd 49cc 083e ba6b 9b3d
000001f0: 2efc 543b ed27 dcbb 1c5d 573c 2340 72bd
00000200: 4881 68bd 0deb 57bc 701f e8bc fe73 0a3d
00000210: a493 fabb dd1c 2bbc 43cf 9abd e169 58bd
00000220: 8c1f 53bd e860 bdbc 7c60 07be 4812 4ebc
00000230: a13c 65bd 9d78 493d a5ad e4bd d5c2 7cbd
00000240: de4e 3dba 3b78 a7bc 93b3 1ebe f901 da3c
00000250: 6096 f3bc 1e02 d2bc f894 1d3d cf89 843b
00000260: d763 833c 121e aebd ae33 bdbc 3f4c 933c
00000270: c3e4 a6ba c3cc 0dbc 91d8 203b 42d6 d23c
00000280: 0f9b 08be 9066 78bd c3fb 16bd ad3c 74b7
00000290: 8f58 e1bc 3b24 05bd 26f2 09be ad3d 4cbd
000002a0: c72c 5c3c 8251 933d cd80 df3c cb55 7abd
000002b0: ff8b 4a3c 6422 16bd dac5 82bd fa04 19bd
000002c0: fb71 1a3d bec8 a2bd 0725 09bd 955c a4bd
000002d0: 3b7a 5ebc b115 e83c 6f65 0e3e d0f5 883d
000002e0: f025 a4bd b869 813d c2fa 963d cafd 2abd
000002f0: da7c f9bd 9def e0bc 1d92 673d 4d46 033d
00000300: e3a2 52bd da9f 42bd af9e cebd de94 8fbc
00000310: 732f 5f3d d671 d63d 6340 b23c 33fe f03c
00000320: d1e1 71bd 1c95 13bd 6c4d 263d 70ab 163d
00000330: 249c 14be 4f53 0e3d 27b0 2b3c 1267 e43d
00000340: 388a b53d e8f4 023e c0aa 0d3d 4dee 0abd
00000350: 9e5a 00be 36cd 34bd ede0 1d3e 7370 89bd
00000360: 7c94 063d e582 c73d 3b87 c23c 5d54 acbd
00000370: 1346 833d 345e 7c3d 6368 6dbd cab5 223d
00000380: c36b bcbd 7031 9abd 27be 71bd f154 ed3d
00000390: 9649 0a3d a682 82bd d53a 453d f6c8 64bb
000003a0: 77b5 c8bc d2a8 013d 90bd c6bd ee0f b93d
000003b0: dbd1 39bd a8c4 37be 5116 c23c 1492 61bd
000003c0: a0c9 6c3d 3da2 b1bd d7b6 f3bc f281 b6bc
000003d0: ef89 e6bd 9505 7abb 1e46 ac3d 1bb8 3dbe
000003e0: 630a 1c3d 560a 103c 9275 6e3d 2212 26bd
000003f0: 0fc6 8cbd 5b10 a73c c962 f1bc 7b0d ac3c

bias f4 [6]
-0.029319894 0.006982264 0.006913316 -0.016372483 0.06911253 -0.057612196
00000000: 4630 f0bc 7acb e43b 1989 e23b 961f 86bc
00000010: df8a 8d3d c4fa 6bbd
