models/adi_network_hk_3.pth (torch, 424172 bytes, 7 tensors)

weight f4 [256, 144]
00000000: 9d51 c23d 9846 b53c f4b7 a1bc e65a 91bd
00000010: 9652 e03d 31c0 043d bb69 b93d d204 de3c
00000020: 83c9 0abd 1fab 00be 16d2 ed3c 3b8b 81bd
00000030: b282 72bd 0f33 2d3b 41ef 6e3d 8b3e a0bd
00000040: 0078 b33d 03ce 143d 6950 d0bc 536d 10bc
00000050: 0dd7 6f3d 0710 f3bc 44ef 4fbd e82b abbd
00000060: 36a2 0abd c761 a7bd 9ab8 b53d 83ae afbc
00000070: 7fb6 813c 4460 a63d 9374 d83d 4ae4 3dbd
00000080: f600 593d 2002 303d f67a 65bd ad14 3f3d
00000090: c6fb e4bd e7b5 89bd e07f 803d b180 b63c
000000a0: ffe8 8fbd 90ce 753c 0c6f eb3d 9622 6b3d
000000b0: d452 223c 34a2 173d 1221 8bbd 37de 963c
000000c0: 2537 533d 20da cd3d 999e 0f3d 7602 1ebc
000000d0: 7167 a5bd 99f3 b23c 68e3 e83c 235f eabd
000000e0: 6a98 16bc 9c4d 15bd 0ebb a13d 9f06 893d
000000f0: 4daf 9c3b 0834 f6bb b7d5 0dbe 267a d5bd
00000100: 89e8 1fbd 5b4c 473d d667 b9bb 1817 333c
00000110: 06f4 d13c 0f1a 623d 905f 85bc d110 253d
00000120: c27a cfbd 2ba6 803c 8e30 c0bc da98 813b
00000130: d24c 21bc 2a19 143c bb87 ab3d 86cd f93d
00000140: 8e9c c73d 3265 1cbc 3002 37bd 0ed4 733d
00000150: e079 f7bc c791 aabc 4fd5 b03c bf40 fa3d
00000160: 9cb2 47bc e1cd fabc f422 b4bc ad2d 4a3d
00000170: c4de 5e3c 8ead 623d be72 84bb 3027 6e3d
00000180: 4451 e43c d353 07bd 42bd 1d3b 8e98 f23d
00000190: 8b3b d7bd 5b61 42be acca 99bd 4b7a bf3c
000001a0: cc25 be3d ef7b 27bd d89b a53d 0897 f13c
000001b0: 0f12 373d 157a cbbb 6620 84bd 0381 cbbd
000001c0: 9db5 b03c 6efb b6bd 5c0a 8e3c 1ab2 cabc
000001d0: 9ddf febc e331 14bd f348 943c 0998 c23c
000001e0: 6f07 3d3d d8b7 8ebc 85e8 263a 764c 9b3d
000001f0: 25fd 2dbd 7ea5 733b fcd4 933b 4ad9 783d
00000200: be2b 1cbe 9db6 b73d 43a8 8ab8 4000 93bd
00000210: d594 40bd a1f3 cc3d 7fb9 e73c 2c02 b4bc
00000220: 0b7f 8c3d f7d9 353d 5f78 64bd 0c96 98bd
00000230: a236 a63c ad5e 11bd d49f ea3c c1f8 04bd
00000240: a096 9fbc e2bd da3d 1e5d f03c d464 9f3c
00000250: c355 14bb e886 143e 5292 4fbd d2db 79bc
00000260: 8d8d 8fbc ca10 5a3d c4f4 9f3d f6c4 4cbc
00000270: 7b65 0c3d aa95 33bd e413 d0bc fdf4 ed3d
00000280: 9326 1bbd 5b01 d0bd 50b7 60bd c8c6 fdbd
00000290: 4d69 28bc 1e47 bb3d c825 8bbc 132d 0cbe
000002a0: 7010 afbd 771b 1b3d 9832 5f3d 2f93 d1bc
000002b0: e61b 34bd 299a 263d 8e82 5d3d 93d5 1f3e
000002c0: d3e9 f3bd dc10 4fbd ad16 f3bc 0d7c 623d
000002d0: d3f1 f1bd a9d2 06bc 9a7f e0bd ddb5 273d
000002e0: a517 88bd e51c a33c 6d55 c1bd 8649 acbd
000002f0: c03d 43bc 98a9 883d c0a7 71bc 2546 463d
00000300: 5320 1b3d 7382 ab3c 0ef7 c8bc ee51 c4bd
00000310: 0ab7 063e 1928 bdbd 5215 f83c 8657 6c3d
00000320: 768d 6d3d 9f0b e9bd 51da cebd b462 693d
00000330: 243d 9dbd 8fe2 c13d 9608 b8bc c8b9 babd
00000340: 6e75 4c3d a83f d8bd 83db 713d cc43 7a3d
00000350: 2def 0f3e 491d f33d 3f61 99bd fa4e f7bd
00000360: 1f54 113e 5f2c 143c 0827 e43d 386e f0bd
00000370: cf4c dc3d 072a 92bd 001c 253d 4bb0 7bbd
00000380: 4a7c d7bc 5f3a 64bd 60a8 4b3d cf6f 443c
00000390: a356 273d f5f5 fbbb d083 1c3d 7743 2dbd
000003a0: 6be2 ec3c 32b4 293d 5704 853b 31b4 b0bc
000003b0: f46b 043d 6b4a 15bd cdd0 853d 1f73 0b3d
000003c0: 987b 043c f7f3 2dbd b1af 10be f67a 2e3d
000003d0: dd56 5dbd eb78 0a3e ba55 623d d175 b93d
000003e0: 5198 52bc c626 053e 0e71 053d 00ae bb3d
000003f0: b12f c73d 26b2 94bd 3fba 043d f8e2 42bd
0.09488223 0.022128388 -0.019741036 -0.070974156 0.10953252 0.03240985 0.090533696 0.027101908
-0.033883583 -0.12565278 0.02903084 -0.06325384 -0.059206672 0.0026428138 0.05833364 -0.07824429
0.087631226 0.03632928 -0.025428968 -0.008815127 0.058554698 -0.029670728 -0.05076529 -0.08357984
-0.033846103 -0.081729464 0.088731006 -0.021445518 0.015834091 0.0812383 0.1056911 -0.04636029
0.052979432 0.042970777 -0.056025468 0.046650577 -0.111808345 -0.06724148 0.0627439 0.022278162
-0.07026862 0.015002862 0.1149579 0.05740603 0.009907443 0.037019923 -0.06793417 0.018416507
0.05156626 0.1005137 0.03506336 -0.009644141 -0.080763705 0.021844672 0.028428748 -0.11443927
-0.009191612 -0.036450967 0.07897006 0.06690716 0.0047816397 -0.007513527 -0.13851057 -0.104236886
-0.039040122 0.048656803 -0.00565813 0.010930799 0.025629055 0.055200633 -0.01628092 0.04029924
-0.10130836 0.015704235 -0.023460653 0.003954989 -0.009844976 0.009039203 0.08375498 0.121974036
0.09746657 -0.009545611 -0.04467982 0.059528403 -0.030209482 -0.020821465 0.021586088 0.122193806
-0.01218858 -0.030615749 -0.021989323 0.049359966 0.013602916 0.055341296 -0.0040419986 0.05814284
0.027870782 -0.033038925 0.0024069105 0.11845504 -0.10509404 -0.1898245 -0.0750936 0.023373744
0.09284553 -0.040889677 0.080863655 0.029490963 0.044694956 -0.0062096217 -0.06451492 -0.099367164
0.021570975 -0.08934675 0.017338924 -0.024743129 -0.031112486 -0.03618039 0.018101191 0.023754137
0.046149667 -0.017421648 0.00063670456 0.07582943 -0.042477746 0.0037177498 0.0045114737 0.060754098
-0.15251061 0.089703776 -6.611694e-05 -0.07177782 -0.047016937 0.10007406 0.028286694 -0.021973692
0.06860169 0.04439732 -0.055778857 -0.07450494 0.020289723 -0.03549068 0.028640665 -0.032463793
-0.019481003 0.106807485 0.029341277 0.019457258 -0.0022634126 0.14504588 -0.05067665 -0.015250163
-0.017523551 0.053238668 0.07810357 -0.012498131 0.034276467 -0.043843903 -0.02540011 0.116189934
-0.037878584 -0.101565085 -0.05486232 -0.1239143 -0.010279012 0.09144424 -0.016985789 -0.1368907
-0.08548057 0.03786799 0.05449161 -0.025582878 -0.04397192 0.040674362 0.054079585 0.15608816
-0.11909833 -0.050553188 -0.029673899 0.055294085 -0.118137024 -0.008228936 -0.10961838 0.040944923
-0.06645135 0.019911239 -0.09440122 -0.08412461 -0.011916578 0.066729724 -0.014749467 0.04840674
0.037872624 0.020936226 -0.024531867 -0.09585939 0.13155761 -0.09236164 0.030283604 0.057700656
0.057996236 -0.1137917 -0.10100234 0.056978896 -0.07677677 0.09467041 -0.022465032 -0.09117466
0.049916677 -0.105590165 0.059047233 0.061099812 0.14056082 0.1187082 -0.07489251 -0.120756105
0.14192246 0.009043782 0.11140257 -0.117397726 0.107568376 -0.07136922 0.040309906 -0.061447423
-0.026304383 -0.05571973 0.04972112 0.011989548 0.040854108 -0.0076892325 0.038211644 -0.042300668
0.028916558 0.041431613 0.0040593552 -0.021570297 0.032329515 -0.036447924 0.06533966 0.034045335
0.008086108 -0.04246899 -0.14129521 0.042597733 -0.054037917 0.13522689 0.055257536 0.09055675
-0.012853698 0.13003072 0.03257852 0.09164047 0.09725893 -0.072605416 0.03240418 -0.047579736

bias f4 [256]
00000000: 5fdf 5abd 4d48 153d 2d06 7f3d b694 173c
00000010: d1c9 0ebd c2c7 94bd 4fec a1bc edde 8d3d
00000020: 4b1e 8bbd aa1c b83d 68e8 293d 58ad c33b
00000030: cbc3 a53b e835 ccbd 4ecc c53d ed0d 8bbc
00000040: 3e03 d2bd 98af fbbb d50a 4bbc 1e01 073d
00000050: ec82 07bc 4f33 c2b8 f537 95bd 8097 16bc
00000060: 078d 0abd ff6c 26bc 44dc 1fbd 49aa b03d
00000070: 7fa9 5f3d cffd 7fbd 3bde b8bd d819 db3d
00000080: b876 183e 035a 71bd 90a6 3abd a162 a4bb
00000090: 7d10 a43c a2f8 d93b aebc ca3d 9a21 693d
000000a0: d62b 84bd 5ab8 593d d276 523d ea03 bb3b
000000b0: c50f b03d 601f 153d 7f3e 56bb 4b9b f7bd
000000c0: 0600 13bd c34a 27bd 0cff c63d 1b6a dd3b
000000d0: 7499 adbd c396 f03d e73b 4dbd c120 043d
000000e0: bbdd 72bd 5633 44bd a88a 943c b1ab cabd
000000f0: 4151 81bd a678 e63b 046f 2c3d cb31 5b3c
00000100: 9c7b b0bd 8fb5 e2bd c9c1 373d c304 3fbc
00000110: 09d9 913d 37d6 933d beae 3a3d a6bf e33c
00000120: 60b2 903d 9d5e e2bd b65e 173d 4f53 3abc
00000130: a327 373d 0cc2 8d3b 6e73 a43b 6395 1ebe
00000140: aa3a 90bb 5fec 10be e3b8 93ba b94d 933c
00000150: 2d3e b7bd bd91 d9bc 49e3 d1bc 1fad 863d
00000160: 22de ae3d 2873 133d 647c 073e 9f8a ea3d
00000170: 444c 8d3c 598b cb3d cda4 d2bc 785b 2fbc
00000180: 048b babd 3625 8ebd bf2f 91bc a00c d53c
00000190: 0b18 8c3d 1083 99bc 0d32 1abd 4b0e b43a
000001a0: 553f c5bc 4f2d 5e3d 5817 c0bd a142 8d3c
000001b0: 0a7e 35bd d175 8bbd c7c5 233b 7dfe 073d
000001c0: 1cc5 d6bc 8298 f3bc 6fc2 2b3b 5f53 0d3e
000001d0: b6b2 6f3d fd2f ba3d 18a6 a8bd 877a d1bb
000001e0: 1f90 25be d04d 59bd 4121 f4bd 7b9f edbd
000001f0: 7d7c 933c 4d84 b93c 2b54 a2bc 9af4 17be
00000200: 8534 31bc 1001 a13d 7a0a 57bd e16d d6bd
00000210: aa21 71bd 8cb0 e0bb 9072 f8bd 9187 ee3d
00000220: b6c0 a43c 764a f9bc c2f8 b63d e743 3e3d
00000230: 7387 cb3c af64 f1bc db9d 313d 10b8 b13c
00000240: 5a27 8a3a b2e1 883d cb73 09be dc18 b0bc
00000250: 1062 40bc 6153 8b3a a1a2 3cbd 0115 f3bd
00000260: e078 a5bc 27fc 783d 897c d83c dd70 09bd
00000270: ef0f 23bd 6dfe 12bc 9100 1a3a 49ee 253d
00000280: bb49 aabc 21bb 723d 313c 6e3d e1ef 71bc
00000290: 99b8 363d 44b0 f0bc 7e5a aebc 661a 96bc
000002a0: f58d a83c 04a3 ac3d 607a 293d 33d1 ffbd
000002b0: aa9d 0c3d eed4 b4bd 4ef1 8fbc f2c4 bb3d
000002c0: 757d 883d a9d3 3e3c b0b0 d3bb 604e 1c3d
000002d0: 0178 d03b 429e 18bd 2a71 ff3c 4107 ad3b
000002e0: 11a0 78bd 2994 c53c 8843 e8bd 5f60 653d
000002f0: 3e05 8dbd aa97 ab3d 089a 3abd cb7f 403d
00000300: 8086 973b 7e62 4bbd 5a67 5cbd b975 143c
00000310: f612 1b3e 9dff 803c 702b 1b3c f555 733d
00000320: faa3 693d a8da 4cba c1e3 21bd a9ea 933d
00000330: 09d1 823b fc9d 45bd 07e8 64bd 8429 043e
00000340: faa3 a33c 698a 8cbd 8000 3b3d 627d 203d
00000350: 486b 82bd 0e03 c4bd 43d9 80bd 48aa 7bbd
00000360: 0553 593b b295 2dbd f2df ddbb d8f0 2ebd
00000370: 51a1 3abd 7a69 b1bd 7288 9dbd 0608 2abc
00000380: 4336 b0bd b19e c83c fdad 083c 2a15 f3bc
00000390: cd64 ab3d 6d8c 473d efca 503c 101b 96bc
000003a0: fda6 d8bc 8efa c53d 1231 553c 1591 1fbc
000003b0: 50c7 363d d21a 223c 8ff7 84bc 5bce 85bd
000003c0: d0cd 473d 8c9d 503d d7eb 973d ecdf be3d
000003d0: c6fb d0bc c9b5 3ebc df54 d3bd 3872 04be
000003e0: c284 f23c 717e f4bc 68f3 18bd 2918 35bd
000003f0: cf9e d33b 158d a4bc e8bc 943c 0eb6 bf3d
-0.05343568 0.036445905 0.06226175 0.009251764 -0.034860436 -0.07264663 -0.019766001 0.06927285
-0.06792887 0.08989842 0.041481405 0.005971592 0.0050587407 -0.09971219 0.09658109 -0.016974414
-0.10254525 -0.0076808445 -0.012392719 0.03296005 -0.00827096 -9.260198e-05 -0.072860636 -0.009191394
-0.0338259 -0.010157823 -0.03902842 0.08626229 0.054605003 -0.06249791 -0.09026762 0.10698289
0.14889038 -0.058923732 -0.045569003 -0.0050166403 0.020027393 0.006651954 0.09899269 0.05691681
-0.064536735 0.053154327 0.051382847 0.0057072537 0.08596758 0.036406875 -0.003269106 -0.12090167
-0.035888694 -0.040842783 0.09716615 0.0067570335 -0.084765345 0.117475055 -0.050105955 0.0322578
-0.05929349 -0.04790052 0.018132523 -0.09896029 -0.06314326 0.0070334254 0.04209806 0.013378571
-0.086173266 -0.11069786 0.044862542 -0.01165885 0.07121474 0.072185926 0.045576803 0.027801346
0.07065272 -0.11053202 0.036955558 -0.011372401 0.044715535 0.0043261107 0.005018643 -0.15486674
-0.0044015246 -0.14152668 -0.001127031 0.017981397 -0.08947406 -0.026558751 -0.025621073 0.06575989
0.08538462 0.035998493 0.13231045 0.11452221 0.01724828 0.09938688 -0.025713349 -0.01070296
-0.091085464 -0.06940691 -0.017722962 0.026006997 0.06840523 -0.018739253 -0.03764539 0.001373717
-0.02407805 0.05424243 -0.093794525 0.017243685 -0.044309653 -0.06809581 0.002498971 0.033201683
-0.026217036 -0.029735807 0.002620842 0.13801335 0.05852004 0.09091184 -0.08234805 -0.00639278
-0.16168259 -0.053052723 -0.11920405 -0.11602684 0.018003697 0.022646094 -0.019815525 -0.14839402
-0.010815744 0.07861531 -0.052500226 -0.104701765 -0.058869995 -0.0068569835 -0.12131226 0.11646951
0.020111423 -0.030431014 0.089341655 0.046451475 0.02484486 -0.029466955 0.043363433 0.021694213
0.0010540292 0.06683673 -0.13423078 -0.021496229 -0.01174213 0.0010629707 -0.046053533 -0.118692406
-0.02019924 0.060787346 0.02642657 -0.0335549 -0.039810117 -0.008971793 0.0005874718 0.04051045
-0.02078711 0.05926049 0.05816287 -0.014766664 0.04460964 -0.029380925 -0.021283384 -0.018323135
0.020575503 0.0842953 0.04137647 -0.124910735 0.034330048 -0.088296756 -0.017571118 0.09168424
0.06664554 0.011647143 -0.006460272 0.03816068 0.006361962 -0.0372603 0.03118189 0.0052804057
-0.060699526 0.0241185 -0.113410056 0.05600011 -0.068857655 0.08378537 -0.045557052 0.046996873
0.004624188 -0.049654476 -0.0538095 0.00906127 0.15143952 0.015746886 0.0094708055 0.059408147
0.057041146 -0.0007814565 -0.039523844 0.07222492 0.003992204 -0.04824637 -0.05588534 0.12906462
0.019975651 -0.06862337 0.045654774 0.039182074 -0.063681185 -0.09570895 -0.062914394 -0.06144169
0.0033161056 -0.04237909 -0.006771081 -0.042710155 -0.045564 -0.08662696 -0.076920405 -0.0103778895
-0.086040996 0.024489732 0.008342263 -0.029673178 0.083688356 0.048717905 0.012743696 -0.018323451
-0.026446814 0.0966693 0.013012188 -0.00973918 0.044623673 0.00989409 -0.016231326 -0.065335
0.048780262 0.0509315 0.0741803 0.093200535 -0.02551068 -0.011640021 -0.10318922 -0.12934196
0.02960432 -0.029845448 -0.037341505 -0.044212494 0.0064581404 -0.020086804 0.018156484 0.09360896

weight f4 [256, 256]
00000000: eb57 b6bc 5e67 62b8 ba5f e1bc 7c54 d7bd
00000010: 4b83 853d 5348 243d 5899 d1ba d2b4 4e3c
00000020: c142 28bd 9f94 8bbc b0c6 3b3d c37c 80bd
00000030: ef01 4c3d 3631 043c d51b f5bc 3cdb 96bd
00000040: ee48 8c3d 4d0a a73c 4d6c 963c 202d 9d3d
00000050: 86e1 10bd 1ef3 98bd d760 813d 5a9e 9abd
00000060: f3bf 17be 390a 2c3d e76f 65bd 1200 e1bb
00000070: 9d8f 95bd 0244 68bd d789 d23d 8fa5 04bd
00000080: 773a 95bb 31e7 b2bc 4ee9 403d 52b1 233d
00000090: 7eb9 d23d dc0e 06bd 4712 b8bd 8a45 8bbd
000000a0: ffa4 fb3c da54 57bd bbf3 c93d 8918 e23d
000000b0: 74e9 6cbd 0e8b 333d f686 183d 8b0d 6b3d
000000c0: 463c b23d 0c9e 1abd ea20 27bd 4f0d 95bc
000000d0: 4a88 79bd 52e4 df3c a826 a13d 2b4d d33c
000000e0: 30e5 f63c b3a8 44bb 1e7f 30bc aa4f 80bc
000000f0: 2208 9d3b 8676 bb3c b7d5 00bd cb5f 0dbd
00000100: 0bda 4a3d 3dac 073d 0226 c23d bbeb 3e3d
00000110: 6715 593d df35 d1bd e3fc 71bc dd7b 283c
00000120: 65b4 9abd ddf2 b73d 5984 cbbc badd 3b3d
00000130: 6464 0f3d 2d28 afbb 0f33 90bd 0694 5e3d
00000140: 5f98 423d 49dd c83c 1cf0 c3bd bb54 34bd
00000150: 2b76 5d3d ff8c e4bc d204 6cbd fd47 92bc
00000160: e55a 9bbd 82f0 d03c f6fb d9bd 84dd a4ba
00000170: 14c2 a53d 68fe 86bd 0059 b73c f520 913c
00000180: 30a5 d23c d359 16bd cf7d f7bb 57b7 66bd
00000190: 64b2 5ebd e8f5 16bd d420 573d 5a14 a63b
000001a0: 263c b0bc c6f9 25bd b916 ba3d 6b15 833d
000001b0: 0687 d3bc 2cd4 51bd 9917 323d 15b4 0cbb
000001c0: 59da 7abd 68ff a0bd 3d3c f83b f77f aebd
000001d0: 4dca 75bd 080b 12bc fc59 ad3c 3aab 62bd
000001e0: 7b71 07bc 5f05 443c fd58 933d c16a 933d
000001f0: 05a5 db39 459e 44bc d11a 973a 5e52 413d
00000200: 1d53 cbbd 3785 c8bd 2a96 b03d e3e6 9c3d
00000210: fd84 4dbd 42ea d9bb 7119 b73d d5d2 b13c
00000220: 3180 32bd 161d 833c f315 e93c 20ed c4bb
00000230: a656 fdbc c254 083d 2667 9bbd a4f3 b1bc
00000240: 82fa 41bd e82e 2fbd bebc 2d3d e927 ef3d
00000250: c0bb 08bd b1a4 96bd 1bf6 d23c 7ccc a43c
00000260: 4557 90bc 3fcd 76bd dc14 7f3c 182f ffbb
00000270: 404c 003d af2b 20bd 94b5 1f3b 41f1 9ebc
00000280: d0f5 38bd 2f9a cdbd 32d3 19bd c399 523d
00000290: 2b96 0dbd 30fd f83b 866d 41bd d894 933c
000002a0: 876d c33c cab0 7f3b 8931 483d 31fd 2b3d
000002b0: b539 fabc ba0c e8b8 c861 393d d137 0bbc
000002c0: 8d9e 1e3d c6f0 15bd 91b1 523d b627 973d
000002d0: 22e1 573d a659 55bd 8460 483d 3d64 1a3d
000002e0: 8726 fb3c f03d 843d a4d2 6fbd ad66 6abd
000002f0: d148 a63d af2f 4dbd 52bf b2bb ccfc 8bbd
00000300: cbe8 babd c57d 033c 4bc9 4d3c 428e 053d
00000310: 6cd5 3bbd 9a1b ec3c 09e3 eebb 4715 8a3c
00000320: e0a9 33bd 89c7 b03d fd21 51bc d774 333c
00000330: afca e6bc 7586 153d cb8b 403d 24b5 e1bc
00000340: c210 273d 68e7 a73b d3c8 35bd 7f34 06be
00000350: 4e1c f6bc fac6 1a3d 2712 f6bd 6e90 c2bc
00000360: e739 96bd fbaf e13c 3376 bcbc 8a27 823d
00000370: 7938 c33b b950 c4bc ab56 bb3c ccd0 b53d
00000380: e2e0 be3d c023 0fbd 10d8 19bd 2f2e b73d
00000390: 26a4 3abd 53ca 44bd 39cd dbbc eae6 edbd
000003a0: 905f 0abd 097a a1bd 9616 64bd 5d08 80b9
000003b0: 0e27 903d 2b4c 0dbd 9fec 4c3c 5331 993d
000003c0: 55a0 183d 291c a73c 2b83 e8bd 47d1 163d
000003d0: ea63 01bd 952a 8ebd ff73 003d 6eaf 9b3d
000003e0: 28af 7abd ef76 fd3d 9184 a93d 9727 f4bc
000003f0: fa49 2dbd ed43 b4bc 373b bbbc 3be3 b0bd
-0.02225872 -5.3978867e-05 -0.027511466 -0.10514161 0.06519183 0.040108036 -0.0015991135 0.012616353
-0.041079286 -0.017038641 0.04584378 -0.062737964 0.04980653 0.008068373 -0.029920498 -0.073660344
0.06849848 0.020390654 0.018362189 0.076746225 -0.035371326 -0.07468246 0.06317299 -0.075497344
-0.14819317 0.042001937 -0.05601492 -0.0068664635 -0.07302783 -0.056705482 0.10280197 -0.03238445
-0.0045540887 -0.021838756 0.047097497 0.039964028 0.10289286 -0.032729015 -0.08987861 -0.06800373
0.030718325 -0.052571155 0.09860941 0.11039836 -0.057839826 0.043833785 0.037238084 0.057385962
0.087029025 -0.03774838 -0.040802874 -0.018194823 -0.06092099 0.027330551 0.07868701 0.025793632
0.030138582 -0.003000778 -0.010772495 -0.015662987 0.0047922293 0.022883665 -0.031453814 -0.034515183
0.04952435 0.033123244 0.09479906 0.04661153 0.052998926 -0.10215353 -0.014769766 0.010283438
-0.07553939 0.08981869 -0.024843382 0.04586575 0.03500785 -0.0053453655 -0.07040989 0.054340385
0.047508594 0.02451958 -0.095672816 -0.044026118 0.054067772 -0.027899263 -0.057621785 -0.017856592
-0.07585696 0.025505308 -0.10643761 -0.0012578224 0.08093658 -0.06591493 0.022381306 0.01771591
0.025713533 -0.036706757 -0.0075528393 -0.05632719 -0.054369345 -0.03685561 0.05252154 0.005068344
-0.021513056 -0.040521406 0.09086365 0.064005695 -0.02582122 -0.051227733 0.043479536 -0.0021469642
-0.06124339 -0.07861215 0.0075755403 -0.08520501 -0.060007382 -0.008913763 0.021161072 -0.055339076
-0.008266802 0.011964171 0.071947075 0.07198096 0.00041893884 -0.012000625 0.0011528378 0.047197692
-0.09927962 -0.09791034 0.086223915 0.07661226 -0.050175656 -0.00665024 0.089403994 0.021706978
-0.043579284 0.01600508 0.028452849 -0.006009713 -0.030925106 0.033283956 -0.075880334 -0.021722622
-0.047358043 -0.042769343 0.042416327 0.11677534 -0.033382177 -0.07355631 0.025752118 0.020117037
-0.017619738 -0.06025433 0.015568938 -0.0077875964 0.031322718 -0.03910416 0.0024369704 -0.019402148
-0.0451563 -0.10039174 -0.037554927 0.05141617 -0.03456704 0.0075985417 -0.04722359 0.01801531
0.023855938 0.0039015287 0.048875365 0.04198951 -0.030545095 -0.000110649926 0.045259267 -0.008497194
0.038725425 -0.036606573 0.05143887 0.07380621 0.052704938 -0.05208745 0.04892017 0.03769325
0.03065802 0.06457126 -0.058550492 -0.057226826 0.081193574 -0.050094303 -0.005454936 -0.068353266
-0.09126433 0.008025591 0.012560199 0.03260637 -0.04585783 0.028821755 -0.0072902483 0.016855849
-0.043863177 0.08631808 -0.012764451 0.01095315 -0.028172819 0.03650518 0.047008317 -0.027552195
0.040787466 0.0051240213 -0.044380974 -0.13105963 -0.030042794 0.037787415 -0.12015181 -0.02375051
-0.07335263 0.027549734 -0.02300558 0.06355198 0.00595766 -0.023964273 0.022868475 0.088777155
0.09320237 -0.034946203 -0.03755957 0.08944356 -0.0455667 -0.048044514 -0.026831256 -0.11616309
-0.03378254 -0.078846045 -0.055685602 -0.00024420294 0.07038699 -0.034496468 0.012507587 0.07480111
0.03726228 0.02039917 -0.11353143 0.036820676 -0.031589426 -0.06941716 0.031360622 0.0760182
-0.0612022 0.123762004 0.08277238 -0.029804034 -0.042306878 -0.022005046 -0.022855384 -0.08637091

bias f4 [256]
00000000: ef09 bdbc 19ad eabd c375 4cbc 200b a93d
00000010: a9d2 193c 4f25 17bd fe4e 40bd 2532 4fbd
00000020: 440b 163d a6e0 a6bd e68a c4bd a8d3 bd3c
00000030: 3d82 dc3d de7b 983d 0322 443d 2c95 0b3c
00000040: 300b a63c 57e3 363d ac04 513c 1c66 843d
00000050: 91e6 4cbd 9511 53bd 4b3f bfbd c5c9 c13c
00000060: 8194 47ba c8bb 67bd 4c37 e7bc dd53 a0bd
00000070: 9c89 9f3d a42e f3bc 099a 893c e468 79bd
00000080: 7db6 21bc b9d4 99bc dfdf cfbc 2441 9e3d
00000090: b2af c3bd 09fc ca3d 47a6 87bc 830b 953d
000000a0: 7c3b a8bd 1412 6e3d feff dcbd 49df cabc
000000b0: 157c 5dbb 48f9 943c cc0a 8e3c 6d4a aebd
000000c0: 5740 2f3d e5c2 8e3d 7770 323d bd77 ea3d
000000d0: b7dc 753c 49a1 743d da60 413d b69e 3e3d
000000e0: 7813 95bd 9461 83bc 5e3d df3d 6f2e b43d
000000f0: 2716 4e3d a2cf bbbc 42a1 7abc 3390 4dbc
00000100: 369a c4bc 0dd1 89bd f02e 57bd 9a1e 62bd
00000110: b0a5 31bd aedb c9bd 15f2 bdbb 6b48 cdbd
00000120: 384d 173c 0098 c93d 1f2b 9abd f094 933a
00000130: 9055 6d3d 6e66 6dbc 549f b13c 416d 873d
00000140: bb48 fd3d 3e83 07bd 77f0 ecbc 24e5 293c
00000150: 9700 8b3d 8433 05bd a1dd bb3d 7c94 afbc
00000160: 0b0b 69bd 4271 0e3e 458d 8b3d a21f 57bd
00000170: 27ff a4bd fb4d da3c e39e 043b 08a5 7d3d
00000180: 21c5 aabd 47dd 1f3c ff42 93bd d020 503c
00000190: a1e8 9fbb c6c4 b43d 854f 88bd ebf5 7b3d
000001a0: a099 36bd 5320 d43d f7b7 e53c 0420 39bc
000001b0: bfd1 953a f3be 64bd 5adc 933d 6ca3 7b3c
000001c0: 8311 d63d e4d3 dcbd f87a 67bd 5aaf a7bd
000001d0: cac5 bbbd 9e77 2a3d c011 3d3d b1a3 a9bd
000001e0: 0557 953d be0a 06bd 1d32 28bd d9cd c83d
000001f0: 979a b8bd ecf3 2bbb 13aa 64bc 214f 3b3d
00000200: b18f cdbc 60ea d23d d91e dcbd 76e5 073c
00000210: 7fe5 9a3d c4d1 1dbd 38e5 e1bc cbd0 c13d
00000220: f6d4 173d 7bdc 3cb9 f164 2bbd 3688 c13d
00000230: d614 9abd 3058 88bc f336 c9bd 6c15 df3b
00000240: 0c02 2c3c c425 2fbb 8404 243d 3a36 a13b
00000250: 62b5 40bd b305 6c3d 9c42 f5bd 1502 bb3d
00000260: f355 593d 7151 e93b dcee 5cbd 9faa 3f3c
00000270: 2d86 4a3d 516c babd 430e d63b 30cf cc3b
00000280: db4e cd3d ee5b 6d3c 358b bebc 1eb8 1abc
00000290: b13a 15bd b3e2 0e3c 5471 fd3c bf94 c3bd
000002a0: 7c27 343d c51f 8d3d 0adb 57bc f6bc 0cbd
000002b0: 6e37 ca3d 964e fc3d 43df 99bd 42ff cdbb
000002c0: f61f 96bd 331e 25bd 9001 633d 146c 80bd
000002d0: 264a 94bd ae82 013d f13a f63d 30f8 babd
000002e0: 385a ca3d b746 31bd c78b 36bc b2e9 ccbd
000002f0: 175a 97bd 5ad3 05bc 4531 d2bc b0fd 6c3d
00000300: 7746 e13c a737 0dbc da91 96bd f33a 32bc
00000310: 49b1 9ebb f88a 31bc 0c06 f9bc 3f68 22bd
00000320: 6776 7dbd b015 c9bd 6532 bd3d 62d8 b03d
00000330: 7134 293d 9fd3 873d 797f 71bd b229 8ebd
00000340: d3be 8dbc f435 b63d 19d2 553c fbab 6e3c
00000350: 2163 c0bd ee02 033c 3b1e e4bd 4cc2 a5bd
00000360: bd7e c83a a3de 9abd aefa 92bd 5021 b13d
00000370: 1f55 093d e552 e3bd 546f 85bc c63c 33bd
00000380: 24fe 253d c500 9ebd 7afe c0bd 2e75 053d
00000390: 2bdf 3dba 0f4c 1e3d e3b5 8a3d 5ab9 5abd
000003a0: 4237 eabd 8475 583c d88b 023d 3906 953d
000003b0: 4b5d 0ebd 6e10 c13c 08a2 be3d 68f8 85bc
000003c0: 7dd3 493d 634d d43d 902b 61bc 88e1 92bd
000003d0: 7e70 ba3d d775 8bbb 48ce 0fbd b5e0 b53b
000003e0: e11b 743d 6178 d0bc b617 acbd 2b67 dc3d
000003f0: 4617 07bc 9e70 abbd 1615 dabd ba04 b43d
-0.023076026 -0.11458797 -0.012479248 0.08254075 0.009388604 -0.036900815 -0.046950333 -0.05058493
0.036631837 -0.08148317 -0.09596805 0.023172215 0.107670285 0.07445501 0.047884 0.008519452
0.020269006 0.044650402 0.0127574615 0.06464788 -0.050024573 -0.05153044 -0.09338244 0.023655782
-0.00076133764 -0.056575567 -0.02822461 -0.07828496 0.07789919 -0.029685326 0.016797082 -0.060891047
-0.009870169 -0.018778192 -0.025375305 0.07727268 -0.095549956 0.09911353 -0.01655878 0.07277586
-0.08214471 0.05812271 -0.10791014 -0.024764674 -0.0033795882 0.018185273 0.017339133 -0.08510289
0.04278597 0.06970767 0.043564286 0.114486195 0.015006236 0.059724126 0.047211505 0.046538077
-0.07279104 -0.01603774 0.10900377 0.08797919 0.050314095 -0.022926155 -0.015297236 -0.012546587
-0.023999315 -0.067293264 -0.052534997 -0.055204965 -0.043370903 -0.09856354 -0.0057966807 -0.10023578
0.009234719 0.09843445 -0.07527756 0.0011259597 0.057942927 -0.014489753 0.021682419 0.066126354
0.12367388 -0.033084147 -0.028923256 0.010369573 0.06787222 -0.032519832 0.09173132 -0.021433108
-0.056895297 0.13910392 0.068140544 -0.0525204 -0.08056479 0.026648512 0.0020236305 0.061924964
-0.083383806 0.0097573465 -0.07190513 0.012703136 -0.0048800264 0.08826594 -0.06655792 0.061513823
-0.044580102 0.10357728 0.028041823 -0.011299137 0.0011430307 -0.055846166 0.07219763 0.015358787
0.10452559 -0.107826024 -0.056513757 -0.081877425 -0.09168585 0.041617982 0.046159506 -0.08283175
0.07291988 -0.03272509 -0.041063417 0.09804887 -0.09013861 -0.0026237918 -0.0139565645 0.04572976
-0.025092931 0.1029861 -0.10748071 0.008294454 0.07563304 -0.038530126 -0.02757512 0.09463652
0.03706833 -0.00018011213 -0.041844312 0.09449808 -0.075235054 -0.016643614 -0.09824934 0.0068079736
0.010498535 -0.002672539 0.04004337 0.0049197944 -0.04704798 0.057622623 -0.11975595 0.091312565
0.053060483 0.0071203043 -0.05393873 0.011698394 0.049444366 -0.09102691 0.006532462 0.0062502846
0.10024806 0.01448725 -0.023259738 -0.009443311 -0.036432926 0.0087210415 0.030937828 -0.095498554
0.043982968 0.06890825 -0.013174782 -0.034359895 0.098738536 0.123196766 -0.07513287 -0.0062865326
-0.07330315 -0.040312003 0.055421412 -0.06270614 -0.07240705 0.031618766 0.12022961 -0.09129369
0.09880489 -0.04328033 -0.011141724 -0.10005511 -0.0739023 -0.008168066 -0.02565826 0.057859123
0.02749942 -0.008619226 -0.07352038 -0.010878312 -0.0048429114 -0.010836355 -0.030398391 -0.039650198
-0.061880495 -0.0981859 0.092381276 0.08635022 0.041309778 0.066321604 -0.058959458 -0.069415465
-0.017302906 0.088970095 0.0130505795 0.0145673705 -0.09393907 0.007996304 -0.111385785 -0.080937
0.001529656 -0.07561996 -0.071767196 0.08648932 0.033528443 -0.11099795 -0.016288437 -0.04375913
0.04052557 -0.077149905 -0.094235376 0.032582454 -0.00072430325 0.038646754 0.067729734 -0.05339942
-0.11436321 0.013211612 0.031871647 0.072765775 -0.03475694 0.023567405 0.09308249 -0.0163538
0.049273957 0.10366323 -0.013743296 -0.07171923 0.091034874 -0.004255991 -0.035108835 0.005550469
0.0595969 -0.025448026 -0.0840296 0.10761865 -0.008245295 -0.083710894 -0.10648553 0.08789964

weight f4 [1, 256]
00000000: 034e a0be 5bde adbe d8f1 b43e 33f3 ae3e
00000010: 0cc5 bc3e 62f9 98be 5f90 a6be 5c97 b4be
00000020: 2636 bf3e 2043 b9be edc7 c5be 3151 c23e
00000030: b662 be3e b02e c03e ba36 c53e 16cc c0be
00000040: a3bd c23e 1d95 c33e 6989 b33e 8701 c43e
00000050: 9b9e 9fbe 895d c1be 379b a6be 249f c53e
00000060: 0bcf bf3e ff38 babe 265d cabe 23c0 b9be
00000070: fcdc a93e 1ab8 bdbe dc1e c13e b4c1 cabe
00000080: 2288 b5be 43a6 94be e0d8 afbe 5407 c33e
00000090: 80c9 bdbe 5676 c43e 4ad6 c2be 1435 ac3e
000000a0: 86a1 cbbe a2f0 bc3e 6c2c cabe 5825 b7be
000000b0: 796d aebe e1f4 c23e c849 b7be 6893 b8be
000000c0: faeb c13e dd0e bf3e bc70 c43e 5246 c93e
000000d0: 6bbb b53e efed c13e f9c5 bc3e c4ca c03e
000000e0: fd89 b7be f6fb bfbe dd67 c03e e3c9 c13e
000000f0: 1a65 ba3e ceed abbe 59d8 bdbe 1dd1 99be
00000100: 53d7 b8be 0db1 c8be d92c 9ebe 8a6b c0be
00000110: c4c5 bebe 6ba9 bdbe 1c48 bc3e e15a a2be
00000120: 7c2f abbe 2f54 bd3e fda1 b8be 683f aebe
00000130: 44dd 02be bfd5 b63e da4a c23e a547 bd3e
00000140: aada c83e e1e4 9fbe 3da9 b5be e633 c03e
00000150: fc8e 7abe 837b 6fbe 9e9b b83e 7759 92be
00000160: ff4f c1be 0e9b c03e 13a2 b43e 7e52 c1be
00000170: 01a7 14be 1ba3 c53e 7d81 ab3e 190d c33e
00000180: 72cd c5be 78da c23e ef6b c7be c012 bb3e
00000190: 6f76 b93e f79a b53e dced bcbe a612 c33e
000001a0: ed95 c9be e77e c63e 2111 c23e f19e a7be
000001b0: e020 b6be 0d9d 8cbe 8ab1 bc3e 02b5 c03e
000001c0: 9662 c73e 59a8 c0be 8e3f bbbe 847e c6be
000001d0: dafd cbbe 2eef c33e 67a5 be3e 7735 cfbe
000001e0: e31e ac3e 8b16 b8be 836d b5be 3917 bf3e
000001f0: 2de9 bfbe bc21 afbe 14a3 9bbe 1f5b c63e
00000200: 6edb c6be 1aec c23e 8417 bbbe eabf a5be
00000210: 600b c53e 53e4 aabe 07b8 cfbe eee7 c33e
00000220: b3d0 4fbe ceff bcbe 1478 b53e c214 b13e
00000230: 8bb9 9ebe 7b60 a2be 3ebe babe ddea bdbe
00000240: 9165 bc3e 795d b73e c464 c63e 125c c23e
00000250: b165 c3be 8112 bd3e 7287 b4be e20a bf3e
00000260: b274 a2be 0c2e b8be 7f80 c9be 5ed2 b93e
00000270: 408f c33e fc17 c5be 4833 c4be 51bf c23e
00000280: 1be9 c13e 8c1c a1be f93b bcbe 982e acbe
00000290: 0d76 a1be dc53 b7be 0ed6 ac3e 9226 b6be
000002a0: 2c4a c83e beb6 be3e e40a c4be e25a 58be
000002b0: 6431 c23e f5ac c23e e8d1 bfbe 6292 cabe
000002c0: 6b56 a5be 9c2d b7be 17da c03e 196a c5be
000002d0: 657f 97be 40c8 c03e 0173 c13e 5ed4 c5be
000002e0: 4465 c33e ac98 c2be 3fd4 abbe 3135 c5be
000002f0: 4c57 c2be 3077 87be 485b a93e cce0 c43e
00000300: e18b c83e 9725 b5be 08b3 bcbe 6697 b73e
00000310: 9afb cabe 73e2 afbe 6db6 acbe 2e41 bdbe
00000320: 2a5e b5be 8a25 9fbe 107c b93e 8da9 9e3e
00000330: 51fd ae3e 8049 c13e 68d0 42be 876f 9dbe
00000340: 5801 b1be 5c09 c23e cdc4 b93e ea3d bd3e
00000350: 906b c0be 079f a9be e004 b1be 116f a1be
00000360: 489a b9be 809d b1be 3395 b3be b38a be3e
00000370: 0e85 c23e cff7 bcbe 9cd3 aabe 0bdf b2be
00000380: 22b1 bb3e e3b9 c6be 3b7d b8be 0d62 9bbe
00000390: 0fb3 8bbe ab81 c63e 09b4 c13e 297c a2be
000003a0: 9d22 cdbe 61cd c53e d562 bd3e 0329 c63e
000003b0: 8928 b8be 91f0 bd3e 9f0b ba3e 9e3a cbbe
000003c0: e292 b73e e516 bd3e 9b8c a0be 2f4b c0be
000003d0: de47 bd3e 7fb6 9cbe 2ecf a5be 2b40 c23e
000003e0: 02a7 c03e 5f8c b6be 245c cdbe 3936 c43e
000003f0: 00ba b53e dbcd a3be 9d31 b4be 5c53 c83e
-0.31309518 -0.33958706 0.35340762 0.3416992 0.36869085 -0.29877764 -0.3253202 -0.35271728
0.37346 -0.36184025 -0.38629094 0.3795257 0.37184685 0.3753562 0.38518316 -0.37655705
0.38035306 0.38199702 0.35065773 0.38282415 -0.31175694 -0.37766674 -0.32540295 0.38597977
0.3746265 -0.3637161 -0.39524192 -0.362794 0.3317641 -0.3705452 0.37718856 -0.3960091
-0.35455424 -0.29033098 -0.3434515 0.38091528 -0.37067795 0.38371533 -0.38054115 0.33634245
-0.3977167 0.36902338 -0.39487016 -0.3577068 -0.34067896 0.38077453 -0.35798478 -0.36049962
0.37875348 0.37316027 0.3836726 0.39311463 0.3549455 0.3787684 0.3686979 0.37654698
-0.35847464 -0.37496918 0.3757924 0.3784934 0.3640526 -0.33579868 -0.37079123 -0.30042353
-0.3610178 -0.3919758 -0.3089359 -0.37582046 -0.37260258 -0.37043318 0.36773765 -0.3170996
-0.33434665 0.3697829 -0.36061087 -0.3403275 -0.12779719 0.3570995 0.37947732 0.36968723
0.39229327 -0.31229308 -0.3548068 0.37539595 -0.24468607 -0.2338696 0.36056226 -0.2858388
-0.37756345 0.37618297 0.35279903 -0.3775825 -0.14516832 0.38601002 0.3349723 0.3809593
-0.38633305 0.38057303 -0.38949534 0.36537743 0.3622317 0.3546979 -0.36900222 0.38100165
-0.39372197 0.38768694 0.37903693 -0.3273845 -0.35571957 -0.2746357 0.36854202 0.37638098
0.38942403 -0.3762844 -0.36571926 -0.387684 -0.3984211 0.38268417 0.37235567 -0.40470478
0.33617315 -0.359547 -0.35435113 0.37322405 -0.37482587 -0.34205425 -0.30397856 0.38741395
-0.38839287 0.38070756 -0.36541378 -0.3237298 0.3848524 -0.33377323 -0.4057009 0.38262886
-0.20294456 -0.36913913 0.35443175 0.3458615 -0.31000933 -0.31714234 -0.36473268 -0.3709325
0.3679624 0.358135 0.38748753 0.3796087 -0.38163522 0.3692818 -0.35259587 0.3731299
-0.31729656 -0.3597263 -0.39355847 0.3629331 0.3819523 -0.3849486 -0.38320374 0.38036588
0.37873158 -0.31467092 -0.36764506 -0.33629298 -0.31535378 -0.35806167 0.3375706 -0.35576302
0.3911909 0.37248796 -0.3828956 -0.21128419 0.37928307 0.3802258 -0.37464833 -0.39564806
-0.32292494 -0.35776985 0.3766639 -0.3855751 -0.29589382 0.3765278 0.37783054 -0.38638586
0.38163197 -0.38007104 -0.33560368 -0.38517144 -0.37957227 -0.2645812 0.33077455 0.38452756
0.3916922 -0.3538024 -0.3685534 0.35857695 -0.39645082 -0.34352455 -0.3373293 -0.3696379
-0.35423404 -0.31083328 0.36227465 0.30988732 0.3417764 0.3775139 -0.19024813 -0.3074915
-0.34571338 0.37897766 0.3628296 0.369613 -0.37582064 -0.3312914 -0.34574032 -0.3153005
-0.3625052 -0.34690475 -0.35074767 0.37215194 0.37992138 -0.36907813 -0.3336457 -0.34935793
0.3665858 -0.38813695 -0.36033043 -0.30348244 -0.27285048 0.38770804 0.37832668 -0.31735352
-0.4006547 0.38633254 0.36989465 0.38703164 -0.35968426 0.370976 0.3633699 -0.3969316
0.3585425 0.3693153 -0.31357273 -0.3755736 0.36968893 -0.30607983 -0.32384628 0.3793958
0.37627417 -0.3565397 -0.4010936 0.3832262 0.3549347 -0.31992993 -0.35194102 0.39126098

weight f4 [6, 256]
00000000: 2c64 ddbd 07d1 183e e7a2 3abe 512b 533d
00000010: 0145 213e 928d 19be a134 14be c74c 073c
00000020: 204e 35be 7a16 e43a 8f05 6c3d 0c1a b4bd
00000030: 8f61 443e d376 4b3e bc96 07be 1553 b03d
00000040: 9f47 213d 4727 e43d 1f11 243e edd3 3ebb
00000050: b625 083e d78f 003e 7d72 a0bd 3725 93bc
00000060: dea7 99bd 202f 88bd 5296 9fbd a68c 023e
00000070: dec3 4abe 852f a73c fc53 e13d bd64 a43d
00000080: 4b92 02bd 0d39 cc3d 9e94 e23d b5e1 213d
00000090: ecac bcbd 1a16 43be 8d9b ecbc d80e fa3d
000000a0: 8b75 a83d 28a9 143e a600 16bd e296 edbb
000000b0: 9037 e03d 6c33 76bd 02ea 24bd cdbf 773c
000000c0: 9aba c0bd 2f5e 3abd f980 943c 3076 70bd
000000d0: 6dcf 053e 6091 0f3d 0a07 6bbe 1a57 c0bd
000000e0: da77 a63c cac1 ae3d d985 4c3d 563a ec3d
000000f0: acab ebbc dfc1 0dbc 8bfa 7e3c 6133 973b
00000100: c09e 9a3c cc57 a53d c8a5 d63c f1a4 4bbd
00000110: 15b7 803d 5519 643d 225b 0d3d a38a 5f3e
00000120: e194 d73d f835 733e 2dfd f93d a8bc 05be
00000130: 9830 88be de10 8b3d 5968 f33d 69f8 463d
00000140: d9d5 8cbd f7d1 05be cb8f 06bd 3379 bdbd
00000150: bc86 25bd 5c7b 8dbd f0d5 43be f45e 49bd
00000160: 0d98 0e3e 003e 0ebe ba30 643d 5376 b2bd
00000170: ab96 233d 2b03 3ebe 3585 fc3d 83ca abbd
00000180: dfa2 843d 94ef 7bbd 595f 9a3d 5e06 89be
00000190: 1671 7dbe 1727 4b3c 127c 50bc 8055 8b3d
000001a0: 6804 77bd 5c74 9abc 5705 ca3d 74ad ebbd
000001b0: a87c 09bd 667d 2d3e 3b6a 213e 40ac 103e
000001c0: a2b4 b8bc 8a06 f13c 3043 a8bd b399 c53b
000001d0: 355c 143d 085d 603d 51fb 46be 09cb 393d
000001e0: 507a 8fbe c3f1 a3bc 9c5f 4e3e f6cc d7bd
000001f0: 8cb2 00be 80c5 9ebd f8c5 3e3e 2887 06bd
00000200: a205 023d 1ea5 90bd 222b 5fbd b0da b3bd
00000210: 2c49 63be 8026 313d d527 20bd bd56 0dbd
00000220: ef3e 0b3e 76e3 a53d 6dbf 77be 1834 433e
00000230: e23a 103e 40e1 16ba 4814 53bd 83fa dabd
00000240: 5b64 8b3e ed02 673e 191b ec3d b587 5ebc
00000250: 191b 933d 0031 4f3e c775 30bd 06f7 553e
00000260: 679e b1bc a979 3cbd c6ae 8d3d c5d0 fa3d
00000270: cc9f 87bd 8bb6 b9bd 52ef 48bc ba59 c8ba
00000280: f606 053e 7573 3abe 9603 7cbd 8f46 e93d
00000290: 1306 693b 27f8 a13d 3772 553e 0f24 0fbc
000002a0: 456b 123e 1169 063e 5172 01be 132f 6d3d
000002b0: 5fe1 71bb efc8 85bd 488c 89bc a48a 0cbd
000002c0: c8ba 8c39 304d e0bd 6a09 29be 7a51 61bc
000002d0: 6840 803c 0a61 32be 3649 ea3d b291 563c
000002e0: e171 ecbd 9baf 22bc 1b67 2dbd a730 163e
000002f0: 9138 2dbd 5f43 27be 7493 dabc ac32 1ebc
00000300: e9dc 03bd dbf6 ac3c 7a94 fdbc 8ae1 edbc
00000310: 90ca e93c 9705 cfbd a239 b63d 08ec 773d
00000320: fa93 debd d59c c1bd d71b 9b3d 5e35 98be
00000330: dd27 c3bd f81e f1bd 772f 54bd 6725 3cbe
00000340: 8fb4 81bd c8df 79be 04fc 22be ddc1 03be
00000350: 3e4d b6bd 6bef fa3d 355c b93d 0fcd 9b3d
00000360: 384b ab3d 20ef 1a3e 55ed cabd 22a4 6ebe
00000370: 0070 413d c9da 2dbd 7723 fa3c 417a d23d
00000380: 4334 473e 3e75 9fbd a674 85bd af6c 883d
00000390: 71f7 10be 49bc 44bd 3bfa 5fbe 8876 123e
000003a0: c071 52bd 3658 2abd 7211 893d 59ff 353d
000003b0: e137 533c c8c1 9e3d f54b d93c 46e9 e1bd
000003c0: bf1c 943e aa5a 2e3e 382d 9bbd 1444 e2bd
000003d0: 8775 6fbe 1485 5bbb e10b 3f3e 6af1 b9bc
000003e0: 1884 e7bd 565f 84bd 2268 a6bc 63bb 233d
000003f0: 8ed3 f9bd e391 2ebe fbfd 36bd 98d7 b33d
-0.10810122 0.14923488 -0.18226205 0.05155498 0.15748979 -0.14995411 -0.14473201 0.008258051
-0.17705584 0.0017401718 0.05762249 -0.087940305 0.1917784 0.19869547 -0.13241094 0.08609597
0.039374944 0.11140304 0.16022156 -0.0029118017 0.13295636 0.1255487 -0.07834337 -0.017962081
-0.07502721 -0.066496134 -0.07792343 0.12748966 -0.1980128 0.020408401 0.11002347 0.08027027
-0.031877797 0.09971819 0.11063503 0.03952189 -0.0921267 -0.190514 -0.028882766 0.122098625
0.082255445 0.14517653 -0.036621712 -0.0072506526 0.10948098 -0.060107633 -0.04026223 0.015121412
-0.094105914 -0.045499977 0.018127905 -0.058706462 0.13067408 0.03505075 -0.22951904 -0.09391613
0.020320822 0.08533056 0.049932335 0.11534564 -0.028768383 -0.0086521795 0.015562664 0.004614279
0.018874526 0.080733865 0.026202098 -0.049717847 0.0628492 0.05568822 0.03451074 0.2183023
0.10526443 0.23751056 0.122064926 -0.13060248 -0.26599574 0.067903265 0.11885137 0.048576746
-0.06876726 -0.13068376 -0.032851975 -0.092516325 -0.040411696 -0.069082946 -0.1912458 -0.04916282
0.1392519 -0.13890839 0.05571053 -0.08713975 0.03993861 -0.18555896 0.12330095 -0.083882354
0.06476378 -0.061507776 0.07537717 -0.2676267 -0.2475017 0.012399456 -0.012724893 0.06803417
-0.060306937 -0.018854313 0.098643 -0.11507693 -0.033566147 0.16942367 0.1576318 0.14128208
-0.02254707 0.029422063 -0.0821594 0.0060302853 0.036220748 0.05477622 -0.19431807 0.045359645
-0.28023005 -0.020012742 0.2015366 -0.1053714 -0.1256811 -0.07752514 0.18630207 -0.03284374
0.031743653 -0.070627436 -0.054484494 -0.08781946 -0.22195882 0.043249607 -0.039100487 -0.03450655
0.13598226 0.08100025 -0.24194117 0.19062841 0.14084962 -0.0005755611 -0.051533014 -0.106923126
0.27225003 0.2255971 0.11528606 -0.01358216 0.07182903 0.20233536 -0.04308107 0.20895013
-0.021681977 -0.04601446 0.06918101 0.12246851 -0.06622276 -0.090680204 -0.01226409 -0.001528553
0.12990937 -0.18208106 -0.061526857 0.11390411 0.00355566 0.079086594 0.20844351 -0.008736624
0.14298733 0.13126017 -0.12641264 0.05790622 -0.0036908013 -0.06532466 -0.016790524 -0.034311906
0.00026842044 -0.10952222 -0.16507497 -0.013752336 0.015655711 -0.1741983 0.11439745 0.01309626
-0.11545158 -0.009929563 -0.042334657 0.14666997 -0.042290274 -0.16334294 -0.02668164 -0.009655636
-0.0321931 0.021113804 -0.030954588 -0.02903821 0.028538972 -0.10108488 0.08897711 0.06052783
-0.10868068 -0.094537415 0.075736694 -0.29728216 -0.09529088 -0.11773485 -0.05180308 -0.18373643
-0.06333267 -0.24401772 -0.15916449 -0.12866922 -0.089014515 0.122526966 0.0905079 0.07607471
0.08363956 0.15130281 -0.09908549 -0.23304799 0.047225952 -0.042444978 0.03053449 0.10277224
0.1945353 -0.07786034 -0.065163895 0.06661355 -0.14156891 -0.048031125 -0.21872799 0.14303029
-0.05137801 -0.04158803 0.066927806 0.04443297 0.012891741 0.077518046 0.026525477 -0.110308215
0.28928182 0.17026773 -0.07576984 -0.11048141 -0.23384677 -0.0033496069 0.18656875 -0.022698123
-0.11304492 -0.064634964 -0.020313326 0.039973628 -0.12198554 -0.17047839 -0.04467581 0.087813556

bias f4 [6]
00000000: 7442 72bd 7ee8 d6bc fc09 ffbb 500c f9bc
00000010: 0b39 02bd 8132 c43d
-0.059145406 -0.026233908 -0.0077831727 -0.030401379 -0.03179268 0.09579945
