models/adi_network_hk_1c.pth (torch, 424172 bytes, 7 tensors)

weight f4 [256, 144]
0	0xbc176093	-0.009239334
1	0x3db93288	0.09042841
2	0x3d070d7d	0.032971848
3	0x3caee6c3	0.02135027
4	0xbd92b42b	-0.071632706
5	0x3be23a8e	0.006903953
6	0xbd1c6259	-0.03817973
7	0xbdb7a4f0	-0.08967006
8	0xbd44d564	-0.048055068
9	0x3c346722	0.011010917
10	0x3dc7c54b	0.097544275
11	0xbd6cc84e	-0.057808213
12	0xbd6dcb19	-0.058055017
13	0xbd0d8914	-0.034554556
14	0xbd2f19c9	-0.0427492
15	0x3df83b61	0.12120701
16	0x3c82d2b6	0.015969615
17	0xbd566f80	-0.05235243
18	0x3dab8112	0.083742276
19	0x3cc75adb	0.024335315
20	0x3d27ced2	0.040968724
21	0xbd956aec	-0.07295784
22	0x3d89a5e3	0.067210935
23	0xbdd5399d	-0.104113795
24	0xbd5d76a6	-0.05406823
25	0xbdb77209	-0.08957297
26	0xbdac1ac0	-0.0840354
27	0x3cb9583f	0.022625087
28	0xbdb7ed26	-0.08980779
29	0x3dd525dc	0.10407612
30	0x3cd38881	0.025821926
31	0xbb9e6311	-0.004833587
32	0xbd47ee56	-0.04881128
33	0xbd8d953e	-0.06913231
34	0xba9f27df	-0.001214262
35	0x3d413223	0.047166955
36	0x3d01217f	0.031526085
37	0x3d4227a3	0.04740108
38	0x3d35aec6	0.04435613
39	0x3da6b54a	0.08140047
40	0x3d2a2e47	0.04154804
41	0x3d4cf5ef	0.050039228
42	0x3cf6ed84	0.030142553
43	0x3d379f45	0.044829626
44	0xbda15add	-0.07878659
45	0x3db727f1	0.08943165
46	0xbbbeab27	-0.005818743
47	0x3af51204	0.0018697386
48	0x3cd565e5	0.026049564
49	0x3df067a3	0.11738517
50	0xbd265534	-0.0406086
51	0x3d2cb514	0.042164877
52	0x3d20b4ce	0.03923493
53	0xbc889cf6	-0.016676407
54	0x3d01a9af	0.031655964
55	0xbd92bc95	-0.071648754
56	0x3dc641b0	0.09680498
57	0x3ad5202c	0.0016260198
58	0x3e116709	0.14199461
59	0x3da365b2	0.07978381
60	0xba1eb2f4	-0.0006053888
61	0x3bca38c3	0.0061713173
62	0x3c6291e8	0.013828732
63	0x3d43083d	0.04761528
64	0xbdf043de	-0.11731695
65	0x3b57fa6e	0.0032955664
66	0xbd75fe7c	-0.06005715
67	0x3db865b5	0.09003774
68	0xbda7d825	-0.08195523
69	0x3d87036e	0.06592451
70	0x3d0183fd	0.031620014
71	0x3d2372e2	0.039904483
72	0x3d7f87cd	0.06238537
73	0x3d419bea	0.04726783
74	0x3c104d13	0.008807438
75	0x3a9fc35e	0.0012188961
76	0x3d535361	0.05159319
77	0xbd87c8dd	-0.066301085
78	0x3d5afeb0	0.053465545
79	0xbdcebd11	-0.10094655
80	0x3de10c2a	0.10988648
81	0x3d18d1b3	0.03730936
82	0x3cca1a44	0.024670728
83	0xbd7e89f9	-0.0621433
84	0xbcbd7125	-0.02312524
85	0xbc93fe49	-0.018065589
86	0xbbc7bb23	-0.0060953065
87	0xbd684245	-0.056703825
88	0x3dd194d3	0.10233464
89	0xbdad653f	-0.08466577
90	0x3c15ce17	0.009143374
91	0x3d47934d	0.04872446
92	0x3c2a6a10	0.010401264
93	0xbd562930	-0.052285373
94	0xbd943c72	-0.072380915
95	0x3d1d3230	0.03837794
96	0x3d8a95ea	0.06766875
97	0x3d96d90f	0.073656194
98	0xbd71061f	-0.05884373
99	0x3d2f313f	0.042771574
100	0xbaabde27	-0.0013112471
101	0xbe02801c	-0.12744182
102	0x3d5072e4	0.05089082
103	0xbd0ee6af	-0.034887966
104	0x3ba0daae	0.004908881
105	0x3c84cc05	0.016210565
106	0x3e355cb5	0.17711146
107	0x3dbb42db	0.09143611
108	0x3cf57eda	0.029967714
109	0xbd93176f	-0.07182204
110	0xbba7beaf	-0.005119167
111	0xbd0f4fe1	-0.034988288
112	0x3d24b180	0.04020834
113	0xbd85f409	-0.06540687
114	0x3d3bac52	0.045818634
115	0x3c6493e9	0.01395128
116	0x3cd742d5	0.026276985
117	0xbd99368c	-0.07481107
118	0x3c371c79	0.011176222
119	0x3cbed1cd	0.0232934
120	0xbcb7cd0a	-0.022436637
121	0x3d2d884d	0.042366315
122	0x3d03c2d3	0.03216822
123	0x3cdef04c	0.027214192
124	0xbd20c425	-0.039249558
125	0xbda8c61a	-0.0824091
126	0x3c802af3	0.01564548
127	0x3d863e2d	0.06554828
128	0xbd4a8076	-0.049438916
129	0xbc2486cc	-0.010041904
130	0x3a860324	0.0010224325
131	0xbd994c6b	-0.07485279
132	0x3cf0fac1	0.029416444
133	0xbce49b70	-0.02790615
134	0x3cab2030	0.020889372
135	0xbd94b007	-0.07260137
136	0xbd167d27	-0.03674045
137	0x3d8024c1	0.0625701
138	0x3ab3aa46	0.0013707362
139	0xbc6cd986	-0.0144561585
140	0xbd673fce	-0.056457333
141	0x3d99f720	0.075178385
142	0x3d0adaff	0.033900257
143	0x3cf360f4	0.029709317
144	0xbcabf727	-0.020991875
145	0xbc9e053e	-0.019289609
146	0xbd56c8bc	-0.05243753
147	0x3d301a2b	0.042993706
148	0xbd270885	-0.04077961
149	0xbe10da8f	-0.14145873
150	0x3e01d8c0	0.1268034
151	0xbc102936	-0.008798888
152	0x3d4f5e91	0.050627295
153	0x3d6ee558	0.058324188
154	0x3c806035	0.015670875
155	0xbc902cb2	-0.017599437
156	0xbdec0a36	-0.11525385
157	0xbcbf8da1	-0.023382964
158	0x3dd0a665	0.10187987
159	0x3c9c54a0	0.019083321
160	0x3d39560b	0.045248073
161	0x3d3ce965	0.04612102
162	0x3c33d730	0.010976598
163	0x3da1912e	0.07889019
164	0xbbe1287d	-0.0068712817
165	0xbded6f83	-0.11593535
166	0xbb96d978	-0.004603561
167	0x3d4f55b0	0.050618827
168	0xbcf28fbe	-0.029609557
169	0x3c76a775	0.015054573
170	0xbd94df90	-0.07269204
171	0x3b0726bb	0.002062245
172	0x3c9bd313	0.019021546
173	0xbcad331b	-0.021142533
174	0x3c9bfc9d	0.019041354
175	0xbe390006	-0.18066415
176	0x3e13f0c3	0.14447312
177	0x3d7393cd	0.059467126
178	0x3d9bf809	0.07615668
179	0xbcfc11e3	-0.030770248
180	0x3da2160d	0.07914362
181	0x3d31e058	0.04342684
182	0x3dcd81bb	0.1003451
183	0x3be40d28	0.006959576
184	0x3d083eb0	0.03326291
185	0xbcb62cb5	-0.022238115
186	0x3e09912c	0.13434285
187	0xbd67b84a	-0.056572236
188	0x3e06b78a	0.13155952
189	0xbe0000c5	-0.12500294
190	0x3db2fbf4	0.087394625
191	0xbd39da17	-0.045374002
192	0x3d3418af	0.043968853
193	0x3b5cae45	0.0033673209
194	0xbc92b4b8	-0.017908439
195	0xbce5a711	-0.028033765
196	0xbda2d4f9	-0.079507776
197	0x3c47d5ff	0.012197017
198	0x3c4cdefa	0.012504334
199	0xbb8f572a	-0.0043744044
200	0xbdd38c88	-0.103295386
201	0xbd6b5f13	-0.057463717
202	0xbda40ec3	-0.08010628
203	0x3cbb2c5e	0.022848304
204	0x3d2e95eb	0.04262344
205	0xbdba00a0	-0.090821505
206	0x3db244dd	0.08704541
207	0x3ded243b	0.11579176
208	0xbd3c439a	-0.045962907
209	0x3e220dae	0.15825531
210	0xbd2b20ee	-0.04177945
211	0x3b892c9b	0.0041862256
212	0xbda0d181	-0.0785246
213	0xbdd8f48e	-0.1059352
214	0x3d92641d	0.07148001
215	0x3e054c85	0.13017471
216	0x3b16f06d	0.0023031489
217	0x3e18a76f	0.14907621
218	0xbe004ef5	-0.1253012
219	0x3b28e557	0.0025771463
220	0xbc32b9d5	-0.010908564
221	0x3db9b19e	0.09067081
222	0x3d7366a0	0.059424043
223	0x3ab1f552	0.001357714
224	0xbc0499c6	-0.008093303
225	0x3e27f0cb	0.16400449
226	0xbe0d8d93	-0.13823538
227	0x3ba7e141	0.005123288
228	0xbdbf7733	-0.09348907
229	0x3c44ebaf	0.012019082
230	0x3d68adaa	0.056806244
231	0x3dbc5ab5	0.091969885
232	0x3d9a6671	0.075390704
233	0xbd011e35	-0.03152295
234	0x3da987f8	0.08277887
235	0xbc970bde	-0.018438276
236	0xbd6e516b	-0.058183115
237	0xbd828bb0	-0.063742995
238	0xbdca8571	-0.09888733
239	0x3c8d59d3	0.017254746
240	0x3c626174	0.01381718
241	0xbdb63b3e	-0.08898018
242	0x3d006e18	0.031354994
243	0xbdc7728c	-0.09738645
244	0x3ddfe9bb	0.109332524
245	0xbd9ae384	-0.075629264
246	0x3cab9e16	0.020949405
247	0xbbc0ce01	-0.0058839326
248	0x3d825d7f	0.06365489
249	0xbdbf9b7a	-0.09355827
250	0xbd64a400	-0.055820465
251	0x3d9941e9	0.074832745
252	0x3dc3fbc6	0.09569506
253	0x3ca736a9	0.020411806
254	0xbc3079e8	-0.010771252
255	0xbdb60136	-0.0888695

bias f4 [256]
0	0x3d39a8dc	0.045327052
1	0xbd8de0e3	-0.06927659
2	0x3d05e588	0.0326896
3	0xbc56735a	-0.013089025
4	0xba7e60ab	-0.00097037357
5	0xbde96b45	-0.11397413
6	0xbddb438f	-0.10706245
7	0xbcff38fa	-0.031155098
8	0xbd3482d5	-0.044070084
9	0xbdc896f5	-0.09794418
10	0xbc2ccc0e	-0.010546697
11	0xbc410a2e	-0.011782212
12	0xbda1cbf4	-0.07900229
13	0xbd19e0f9	-0.037568066
14	0xbd9ca0c9	-0.07647855
15	0xbd93ae6b	-0.07211002
16	0xbdc7b1e5	-0.097507276
17	0xbc826106	-0.015915405
18	0xbcf9d44c	-0.030496739
19	0xbd25acc2	-0.040447958
20	0x3d97088d	0.07374678
21	0xbcde0b3d	-0.027104968
22	0xbd930b49	-0.07179887
23	0x3d74160a	0.05959133
24	0xbd25a1bf	-0.040437456
25	0xbcacd72e	-0.0210987
26	0x3de1ccd4	0.11025396
27	0xbc592981	-0.013254524
28	0xbc9880b7	-0.018616064
29	0x3dafa574	0.085764796
30	0x3d96c1e4	0.073612005
31	0xbd3c9721	-0.046042565
32	0xbcb6256e	-0.022234645
33	0x3da0d75a	0.07853575
34	0x3de39a6a	0.111134365
35	0x3d20ca3b	0.039255362
36	0x3da7e2e1	0.081975706
37	0xbc890dd2	-0.016730223
38	0x3d5f8f35	0.054579932
39	0x3d19e1c2	0.037568815
40	0xbd9de99b	-0.07710572
41	0xbd339675	-0.04384466
42	0xbdaf692e	-0.08564983
43	0xbd5bbcd5	-0.05364688
44	0x3d15b6ea	0.036551394
45	0xbd36fb1b	-0.044673067
46	0x3d9c6869	0.07637102
47	0xbd2e30e8	-0.04252711
48	0xbdf678d4	-0.12034765
49	0xbd5ba3b1	-0.053622905
50	0x3d58bc0a	0.052913703
51	0xbca6f67b	-0.020381203
52	0xbc97795b	-0.018490484
53	0xbcb0ad8a	-0.021567125
54	0xbd5a5db7	-0.05331203
55	0xbdae689a	-0.08516045
56	0xba744b12	-0.00093190477
57	0xbd24b695	-0.040213186
58	0xbb93facb	-0.004515981
59	0xbc8be4f0	-0.01707694
60	0x3b533dbf	0.0032232848
61	0x3d8c9cdc	0.06865856
62	0x3d5dadf7	0.054120984
63	0x3bdc61be	0.006725519
64	0xbca152ee	-0.019692864
65	0x3d462150	0.048371613
66	0xbcf2e49d	-0.029650027
67	0xbd50ac59	-0.050945614
68	0xbce1a548	-0.027544633
69	0xbd029778	-0.031882733
70	0xbceffbc7	-0.029294861
71	0xbce8c182	-0.028412584
72	0xbc268df3	-0.010165679
73	0xbc46faba	-0.012144739
74	0x3bb22142	0.0054360935
75	0xbd95cf7e	-0.073149666
76	0xbd08f341	-0.03343511
77	0x3c29a890	0.01035513
78	0x3dbf644a	0.093453005
79	0xbdab5e5c	-0.08367607
80	0x3dffb164	0.124850065
81	0xbd5fd706	-0.05464842
82	0x3de23e1d	0.110470034
83	0xbc016362	-0.00789723
84	0xbd24e8e8	-0.04026118
85	0x3cf10fa3	0.029426401
86	0xbc197e71	-0.009368525
87	0x3d2e5464	0.04256095
88	0x3cdb8ae8	0.026799634
89	0xbd511148	-0.05104187
90	0x3d8898fc	0.066698045
91	0x3d352b53	0.04423077
92	0x3d9b5392	0.07584299
93	0xbd850618	-0.06495303
94	0x3d829c5c	0.063774794
95	0xbd98d6f6	-0.074628755
96	0xbda7409e	-0.081666216
97	0x3d9c3bf2	0.07628621
98	0xbce286ca	-0.027652163
99	0xbd8afbdb	-0.06786319
100	0x3d41f9cd	0.04735737
101	0x3b253933	0.0025211095
102	0xbd6176a4	-0.055044785
103	0x3d095362	0.033526786
104	0xbdae29c9	-0.08504064
105	0x3d3cdeef	0.046111044
106	0x3c2979ae	0.010343952
107	0x3da2f6e9	0.079572506
108	0xbc821ac0	-0.015881896
109	0x3d2fd1c6	0.042924665
110	0x3de3f252	0.11130203
111	0xbdd0624b	-0.10174998
112	0xbca662eb	-0.02031084
113	0xbd27be74	-0.040953115
114	0xb9c53482	-0.0003761389
115	0xbcac56c5	-0.021037469
116	0x3cfd44b2	0.030916546
117	0xbc129c3c	-0.008948382
118	0x3d82769e	0.06370281
119	0x3cfb1f30	0.03065452
120	0x3d2e9e2b	0.04263131
121	0x3cb0c7e0	0.021579683
122	0x3d802e1a	0.06258793
123	0xbc60f7a0	-0.013730913
124	0x3d675f82	0.056487568
125	0x3cc47c63	0.023985093
126	0x3d74119e	0.059587114
127	0xbce3df69	-0.027816491
128	0x3d67910e	0.05653482
129	0xbd2fbbca	-0.0429037
130	0xbdac3528	-0.08408576
131	0x3dccaab6	0.09993498
132	0xbc934433	-0.017976856
133	0xbc8aa79b	-0.016925624
134	0xbd99ad14	-0.07503715
135	0xbcf62a88	-0.030049577
136	0xbd28129e	-0.04103338
137	0x3bb8a1ec	0.005634537
138	0x3d28dfc6	0.041229032
139	0xbc6ff896	-0.01464667
140	0xbde01b04	-0.10942653
141	0x3bb784b6	0.005600537
142	0x3d27b146	0.040940545
143	0x3da17f26	0.0788558
144	0x3c28643f	0.010277807
145	0xbd640593	-0.05566938
146	0x3d841069	0.064484425
147	0x3e0cf66f	0.13765882
148	0x3d105c5a	0.035244323
149	0x3d9122a6	0.07086687
150	0x3dc09c8e	0.094048604
151	0x3d921049	0.071320124
152	0xbc939f90	-0.018020421
153	0xbd22a091	-0.03970391
154	0xbdb665fe	-0.08906172
155	0x3cb040c8	0.021515265
156	0xbd53976e	-0.051658086
157	0xbd1773d4	-0.036975697
158	0xbd923da4	-0.07140663
159	0xb9f76afa	-0.00047191215
160	0xbd2f334e	-0.042773537
161	0xbda867c2	-0.08222915
162	0xbd7a56f5	-0.061118085
163	0xbd8f6135	-0.07000963
164	0xbd1280cc	-0.03576736
165	0x3cdb6eb6	0.02678619
166	0xbd2ddaf2	-0.04244513
167	0xbd47c5de	-0.048772685
168	0x3d171587	0.036885764
169	0xbd94b103	-0.07260325
170	0xbdae97f8	-0.085250795
171	0x3c85f01f	0.01634985
172	0xbcb5d0e3	-0.022194332
173	0xbcdc1e37	-0.026869876
174	0xbd27ada3	-0.040937077
175	0xbdc27ac4	-0.09496072
176	0x3b7625cc	0.003755915
177	0x3d6ed0bf	0.058304545
178	0x3d11ee7d	0.03562783
179	0x3c7eb785	0.015546684
180	0xbc52d2e9	-0.012867668
181	0xbd0c89dc	-0.03431116
182	0x3d093a9f	0.03350317
183	0xbcfb9638	-0.030711278
184	0xbde72b07	-0.11287504
185	0xbd5b8de3	-0.05360211
186	0x3d051e79	0.032499764
187	0xbdaeff62	-0.08544804
188	0xbd048233	-0.03235073
189	0xbd378564	-0.044804946
190	0xbd5d9a40	-0.054102182
191	0x3db9295e	0.09041093
192	0xbd8a4277	-0.067509584
193	0xbd1e4fb3	-0.038650226
194	0xbd1f47ab	-0.038886707
195	0xbdb2c439	-0.08728833
196	0x3da5a0b2	0.08087291
197	0x3d925d25	0.07146672
198	0xbd92cb43	-0.07167675
199	0x3c1511df	0.009098499
200	0xbd0be283	-0.034151565
201	0xbd1e7638	-0.03868696
202	0x3cc5a178	0.024124846
203	0xbcfc9593	-0.030833041
204	0x3c8d924c	0.017281674
205	0xbd1ca4df	-0.03824317
206	0x3d265808	0.040611297
207	0x3d98c009	0.07458503
208	0xbd11eca1	-0.035626058
209	0xbac8fd92	-0.0015334359
210	0x3d27180c	0.040794417
211	0x3d3402e2	0.04394806
212	0xbd9bb5f1	-0.07603062
213	0xbd1acb7d	-0.037791718
214	0xbdcb327b	-0.09921738
215	0x3c4903db	0.012268986
216	0xbbe761ac	-0.007061204
217	0x3d42b3d8	0.047534794
218	0xbd9514e5	-0.07279376
219	0xba6933ae	-0.00088959455
220	0x3bc2c31b	0.0059436685
221	0x3cf3a953	0.029743826
222	0xbe12ea91	-0.14347292
223	0x3e0c729b	0.13715594
224	0x3e16c52f	0.14723657
225	0x3dba3c76	0.09093563
226	0xbd6ebdde	-0.05828654
227	0xbae3b4dc	-0.0017372626
228	0x3982f33f	0.00024976765
229	0xbcb5fa31	-0.022214027
230	0x3d7f5f72	0.062346883
231	0x3d0958dd	0.033532012
232	0xbcaaa455	-0.020830313
233	0x3dac752d	0.08420787
234	0xbdafb88a	-0.0858012
235	0xbdaaf37a	-0.08347221
236	0x3d997fcd	0.07495079
237	0x3ca46bec	0.020070992
238	0xbd6ec253	-0.05829079
239	0x3d9abafc	0.07555196
240	0xbd998d6c	-0.07497677
241	0xbb4a9870	-0.0030913614
242	0x3bff6e8a	0.0077951597
243	0x3be10a94	0.006867716
244	0x3cd17c56	0.025571983
245	0xbd2a517f	-0.041581627
246	0x3a837e42	0.0010032135
247	0xbd736ca9	-0.0594298
248	0x3dba7778	0.09104818
249	0xbd85a850	-0.06526244
250	0xbc80747b	-0.015680542
251	0x3c921f8c	0.017837308
252	0x3d96ba17	0.073597126
253	0xbdada4ee	-0.084787235
254	0x3cf23e03	0.029570585
255	0x3cb73fb0	0.022369236

weight f4 [256, 256]
0	0xbd992ea3	-0.074795984
1	0x3c745bd0	0.014914468
2	0xbc73ed03	-0.014888051
3	0xbd7c32ea	-0.061571993
4	0xbcb729b2	-0.022358749
5	0x3cd5d0b1	0.026100488
6	0x3d10c52e	0.035344295
7	0xbd827bd5	-0.06371275
8	0x3d903102	0.070405975
9	0x3d39a3dd	0.045322288
10	0xbd0f1d4a	-0.03494004
11	0xbab6c0af	-0.0013942922
12	0x3d40ba33	0.047052573
13	0x3b8f31fb	0.004369972
14	0x3dde6944	0.108599216
15	0x3daa655c	0.08320114
16	0xbcdc3cea	-0.026884515
17	0x3da76a58	0.0817458
18	0xbcc6f395	-0.02428607
19	0x3c240863	0.010011765
20	0xbbee833c	-0.007278828
21	0x3cd7e7e0	0.026355684
22	0xbabf80eb	-0.0014610564
23	0xbd7cf28e	-0.061754756
24	0x3d544eac	0.05183284
25	0xbdede7d4	-0.11616483
26	0xbdcf55ef	-0.101238124
27	0x3d07a797	0.03311881
28	0xbbd3c911	-0.006463178
29	0xbd8d300e	-0.06893931
30	0xbca02d87	-0.01955296
31	0x3da5868d	0.08082304
32	0x3b8b5515	0.004252086
33	0x3b0c6a79	0.0021425767
34	0x3bd07f1c	0.006362809
35	0xbd09113f	-0.033463713
36	0xbdc600c8	-0.09668118
37	0xbd8f169c	-0.06986734
38	0x3d757689	0.059927497
39	0xbc95dec3	-0.018294698
40	0xbd804330	-0.06262815
41	0x3d1fb439	0.038990233
42	0x3cd1cb01	0.025609495
43	0xbd9df895	-0.07713429
44	0xbd8f631e	-0.07001327
45	0xbcb95ab2	-0.022626255
46	0x3da20922	0.07911898
47	0x3bfeb6b5	0.007773245
48	0x3d9ff3dc	0.07810184
49	0xbc825168	-0.015907958
50	0xbdb15518	-0.086588085
51	0x3dc1ec63	0.09468915
52	0xbd965216	-0.073398754
53	0xbd2a4a78	-0.041574925
54	0xbd9e03d5	-0.07715575
55	0x3d526d0b	0.051373523
56	0x3d90e817	0.070755176
57	0xbce05101	-0.027382376
58	0xbd322717	-0.04349431
59	0xbdd25075	-0.10269252
60	0x3d474fc2	0.048660047
61	0x3bc8078d	0.0061044157
62	0x3b40fbb3	0.00294469
63	0xbc229f6a	-0.009925703
64	0xbda6811f	-0.08130097
65	0xbdd3a0b7	-0.10333388
66	0x3d08f146	0.03343322
67	0xbb354613	-0.0027660176
68	0x3c61664c	0.0137573
69	0x3d1dc6e0	0.03851974
70	0xbcfffdb7	-0.03124891
71	0x3b4cfec5	0.0031279784
72	0xbd19bbc9	-0.0375326
73	0xbccfa9e2	-0.025349561
74	0xbd2677d6	-0.04064163
75	0x3c6596d0	0.014013007
76	0xbc824e70	-0.015906543
77	0xbc9c8cbc	-0.019110076
78	0x3af61cbd	0.0018776875
79	0x3c836f60	0.016044319
80	0xbd9f859e	-0.07789157
81	0x3d989537	0.074503355
82	0xbcd58b9c	-0.026067548
83	0xbd873113	-0.06601157
84	0x3dca2972	0.09871186
85	0xbdad5d11	-0.08465017
86	0xbc6a9464	-0.014317606
87	0xbd4f4653	-0.050604176
88	0x3b48ea42	0.0030657207
89	0xbcb58859	-0.022159742
90	0xbd5bfedd	-0.053709853
91	0x3d338b3d	0.04383396
92	0xbb94fee2	-0.004546986
93	0x3d4a79a9	0.04943243
94	0x3cb50cbd	0.0221008
95	0x3d2e9a7a	0.04262779
96	0x3cb06258	0.021531269
97	0xbd52c60b	-0.0514584
98	0x3d0ca2e5	0.034335036
99	0x3ceecfb6	0.029151779
100	0x3b6283df	0.0034563465
101	0xbd1ea9a0	-0.038735986
102	0x3c0fa725	0.008767878
103	0x3d892ea8	0.06698352
104	0xbd7dd146	-0.061967157
105	0xbb0bf902	-0.0021358137
106	0x3d296708	0.041358024
107	0x3a83b4a7	0.0010048345
108	0x3d46cc79	0.048534844
109	0xbc67e12b	-0.014152805
110	0xbca09e99	-0.019606875
111	0x3b8b24b8	0.0042463206
112	0x3c08c7d0	0.00834842
113	0xbca659c2	-0.020306472
114	0xbc1fb6c2	-0.009748163
115	0x3d821cb8	0.06353134
116	0x3cd6f072	0.0262377
117	0x3cade559	0.021227526
118	0x3da31763	0.07963445
119	0x3dc22591	0.094798215
120	0xbdc207ed	-0.09474168
121	0x3c2a6f84	0.010402564
122	0x3c65a0ff	0.014015435
123	0x3c962804	0.018329628
124	0xbdac92d4	-0.08426443
125	0x3ba6f22a	0.005094786
126	0x3d0e1394	0.03468664
127	0x3cb0115f	0.021492658
128	0xbdbc6b1f	-0.09200119
129	0x3d7d8d8b	0.061902564
130	0xbd942963	-0.072344564
131	0xbdb25ff7	-0.0870971
132	0x3dc974fd	0.09836767
133	0xbd4edb9b	-0.0505024
134	0x3c4bc74a	0.012437651
135	0xbc87264c	-0.016497754
136	0x3c83db52	0.016095791
137	0xbd0bfa85	-0.03417446
138	0x3d08c527	0.033391144
139	0x3c8304eb	0.015993556
140	0x3cc9c102	0.024628166
141	0xbc42c82d	-0.011888546
142	0xbb109adf	-0.0022064967
143	0xbd801e1e	-0.062557444
144	0x3ca623dc	0.020280771
145	0xbc8fc2b2	-0.017548893
146	0xbd8a86a9	-0.06763966
147	0x3c20e72a	0.009820739
148	0xbd8cd3fe	-0.06876372
149	0xbc3c052e	-0.011475844
150	0x3be8e39c	0.0071072113
151	0xbc1d5b71	-0.009604321
152	0xbd3de3bc	-0.046359763
153	0xbb9a5170	-0.004709415
154	0xbd99acdd	-0.07503674
155	0xbb4f311e	-0.003161497
156	0x3c2d8aa5	0.010592137
157	0xbbebc082	-0.0071945796
158	0x3cbb50ee	0.022865739
159	0x3d97ced9	0.074125
160	0xbdbdfe5c	-0.09277031
161	0x3d446f09	0.047957454
162	0x3da988fc	0.08278081
163	0x3c9c2e3d	0.019065017
164	0x3d7af6c8	0.061270505
165	0x3da8980a	0.08232124
166	0x3dd593f5	0.10428611
167	0xbc7803e0	-0.015137643
168	0xbdcd7d3a	-0.10033651
169	0x3df13a35	0.1177868
170	0xbc8a3861	-0.016872587
171	0xbdc145f9	-0.09437174
172	0xbb89464c	-0.0041892882
173	0xbd6f1589	-0.058370147
174	0x3c554713	0.013017434
175	0x3c483341	0.012219251
176	0x3d1f3ef4	0.038878396
177	0x3d5d908c	0.05409293
178	0xbcfa2a9b	-0.030537894
179	0xb93b3fdb	-0.00017857498
180	0xbd0c66f0	-0.034277856
181	0xbd9958fa	-0.07487674
182	0x3d201aa5	0.03908791
183	0xbdb0fdbd	-0.08642147
184	0x3da902fc	0.08252522
185	0x3ded2ec6	0.11581187
186	0xbd1f0028	-0.03881851
187	0x3dc4a40d	0.09601603
188	0x3d748f90	0.059707224
189	0xbd41eb93	-0.0473438
190	0x3c35cb68	0.011095859
191	0xbcfb7c91	-0.030699046
192	0x3c62304a	0.013805458
193	0xbd03a7a5	-0.0321423
194	0xbc630082	-0.013855102
195	0xbbe2309c	-0.0069027673
196	0xbce6a7c6	-0.028156172
197	0x3d423c8d	0.047421027
198	0x3d46fb2e	0.048579387
199	0xbd40125b	-0.046892505
200	0x3d885f58	0.066588104
201	0xbd167dcd	-0.036741067
202	0xbdad1e8a	-0.084530905
203	0x3cf7484b	0.03018584
204	0x3dc5184f	0.09623777
205	0xbbd9b59e	-0.006643965
206	0xbdd94385	-0.106085815
207	0x3c8174b9	0.015802728
208	0xbd1527ad	-0.03641479
209	0x3da7b0b0	0.08187997
210	0x3db8e9a1	0.09028936
211	0x3dfcaf93	0.123381756
212	0xbb9b9bbc	-0.0047487896
213	0x3d9899ab	0.07451185
214	0x3dc5bc58	0.09655064
215	0xbd2b3838	-0.04180166
216	0xbdc1a1ab	-0.09454664
217	0xbd0733c9	-0.03300837
218	0xbcdec7a8	-0.027194813
219	0xbd900981	-0.07033063
220	0x3cc5ff76	0.024169665
221	0x3d5531db	0.0520495
222	0x3d8f8ae0	0.0700891
223	0xbd62c818	-0.055366606
224	0xbd042995	-0.03226622
225	0xbdf85d3d	-0.12127159
226	0x3d97071a	0.073744014
227	0x3d2f6370	0.04281944
228	0x3ca92d5c	0.020651512
229	0x3aa5eab6	0.001265845
230	0xbd74aad2	-0.05973322
231	0x3bf53d1a	0.0074840905
232	0x3dc69be7	0.09697705
233	0x3d082493	0.033238005
234	0x3db4893e	0.08815239
235	0x3d96c8ef	0.07362544
236	0x3a53cb3d	0.0008079296
237	0x3bb6d956	0.0055801077
238	0xbbbf12a2	-0.0058310786
239	0x3d0f7116	0.035019957
240	0x3d111248	0.035417825
241	0x3d073c3a	0.03301642
242	0xbda3eb46	-0.08003859
243	0xbd6f6605	-0.058446903
244	0xbd53044e	-0.051517777
245	0xbc1bbcf2	-0.009505497
246	0xbd140148	-0.036134034
247	0xb995fbc3	-0.00028607072
248	0x3c94ac42	0.018148545
249	0xbc80de87	-0.01573111
250	0xbd197c1b	-0.03747187
251	0xbcecdc5a	-0.028913666
252	0xbdaeb401	-0.08530427
253	0x3d4389b6	0.047738753
254	0x3d7e6ada	0.06211362
255	0x3d62082c	0.055183575

bias f4 [256]
0	0x39eb0889	0.00044829052
1	0xbd0a9b3e	-0.033839457
2	0xbdd852f3	-0.10562696
3	0xbd01a071	-0.03164715
4	0x3d0422b0	0.032259643
5	0xbc35ead5	-0.011103352
6	0xbd01afbd	-0.031661738
7	0x3e008af8	0.12553012
8	0x3dc5b480	0.09653568
9	0xbcf30e7d	-0.029669994
10	0x3cec3719	0.028834866
11	0x3cd6fab4	0.026242591
12	0x3c82f252	0.015984688
13	0x3d3c97ef	0.046043333
14	0x3d167490	0.036732256
15	0xbdbe24cf	-0.092843644
16	0xbd907bda	-0.07054873
17	0x3d2a26e3	0.04154099
18	0x3da24fe8	0.07925397
19	0x3bc11241	0.0058920686
20	0xbdc37732	-0.09544219
21	0x3da708de	0.08155988
22	0x3d87dd48	0.06634003
23	0x3c350682	0.011048915
24	0xbcf9a54b	-0.030474326
25	0x3d35ea63	0.04441298
26	0x3d9c2df4	0.07625952
27	0xbd96a07f	-0.07354831
28	0x3c112872	0.008859741
29	0x3d820e4f	0.063503854
30	0xbdcce0f8	-0.10003847
31	0xbdaf27c1	-0.08552504
32	0xbdce6545	-0.100779094
33	0x3caaa419	0.020830201
34	0xbd43f2f0	-0.047839105
35	0x3daacf4d	0.08340321
36	0x3cc4bbb6	0.024015289
37	0xbcaf4b67	-0.02139826
38	0xbd082b09	-0.033244167
39	0x3ddbfc5d	0.10741494
40	0x3b0df1f3	0.0021659106
41	0xbc8ad376	-0.016946536
42	0x3b3b28f6	0.002855835
43	0x3b019b85	0.0019776535
44	0xbcdf3610	-0.027247459
45	0x3dd28f0a	0.10281189
46	0xbc9bd68c	-0.019023202
47	0xbde6f086	-0.11276345
48	0xbc1371a9	-0.008999267
49	0x3dac3298	0.084080875
50	0x3e0b7edc	0.13622612
51	0x3e00ade1	0.1256633
52	0xbd886de5	-0.06661586
53	0x3b8dfbdc	0.0043330025
54	0xbd70f2ab	-0.058825176
55	0xbca52b39	-0.020162212
56	0x3dce334d	0.100683786
57	0xbdac1245	-0.08401922
58	0x3d1d83a0	0.038455606
59	0xbd6157ca	-0.055015363
60	0xbd35a28d	-0.044344474
61	0x3d9fe808	0.07807928
62	0x3c239a14	0.009985466
63	0xbd4b8cc3	-0.049694788
64	0x3d1a3468	0.037647635
65	0xba878d07	-0.0010341712
66	0xbc08837f	-0.008332132
67	0xbd04b917	-0.032403078
68	0xbce9bde6	-0.028532933
69	0x3ddb1630	0.10697591
70	0xbcabb626	-0.020960879
71	0xbdca72fa	-0.09885211
72	0x3871993e	5.7601595e-05
73	0x3da36ff5	0.079803385
74	0x3cf26291	0.029588016
75	0xbe0c9159	-0.1372732
76	0x3dc11c1a	0.09429188
77	0xbdc83462	-0.09775616
78	0xbb6a2100	-0.0035725236
79	0xbc5be8ef	-0.013422235
80	0x3b8f29ed	0.0043690116
81	0x3ca58894	0.020206727
82	0x3cb86a21	0.022511544
83	0xbd8a730b	-0.06760224
84	0x3d08a02e	0.033355884
85	0x3c91b35c	0.01778572
86	0x3c923013	0.01784519
87	0x3d5c6c0c	0.05381398
88	0x3d2be2ba	0.04196427
89	0xbd944e80	-0.07241535
90	0xbda3cf6a	-0.079985455
91	0x3c9b2cb3	0.018942213
92	0x3da735da	0.08164568
93	0xbdb5f54f	-0.088846795
94	0xbd7cd66f	-0.061727937
95	0xbc357cad	-0.011077088
96	0xbc809768	-0.015697196
97	0x3d521ff9	0.051300023
98	0xbc2f234f	-0.010689571
99	0xbc9c157a	-0.01905321
100	0xbbcebba9	-0.006308992
101	0x3ce4a23a	0.027909387
102	0x3d73dcd9	0.05953679
103	0x3d161d5d	0.036649097
104	0xbdb0069c	-0.08595011
105	0x3c93f759	0.01806228
106	0xbd45070b	-0.04810242
107	0x3db4c2f7	0.08826249
108	0xbd5b21be	-0.053498976
109	0xbd97696d	-0.07393155
110	0xbd3f89a2	-0.046762116
111	0x3d780f03	0.06056119
112	0xbb8b05f4	-0.004242653
113	0x3cd103d3	0.025514519
114	0xbcceb6eb	-0.025233706
115	0x3dd23eb7	0.10265868
116	0x392f953e	0.00016744898
117	0x3cf6105b	0.030037096
118	0xbe0664d7	-0.13124405
119	0xbd93948b	-0.07206067
120	0xbcc8d02a	-0.024513323
121	0x3de4ab96	0.1116554
122	0xbe0180e2	-0.12646821
123	0xbd27275c	-0.04080902
124	0x3d9b86b3	0.07594051
125	0x3c0bc952	0.008531885
126	0xbc930114	-0.01794485
127	0xbc145149	-0.009052583
128	0x3bd3261a	0.006443751
129	0x3dac0d46	0.08400969
130	0x3abffe3a	0.0014647909
131	0xbd754939	-0.059884284
132	0xbdc33ebf	-0.09533452
133	0x3e013a54	0.12619907
134	0x3d9312e2	0.07181336
135	0xbcdb66bc	-0.026782386
136	0x3d16b488	0.03679326
137	0x3d47c36f	0.048770364
138	0x3da60b13	0.08107581
139	0xbd129535	-0.035786826
140	0x3dc15bf3	0.09441366
141	0xbd7f6191	-0.062348906
142	0x3cb9892f	0.022648422
143	0x3c6086ae	0.013703985
144	0x3b8ca77c	0.0042924266
145	0x3c915448	0.017740384
146	0x3ceefa4a	0.029172082
147	0xbda0a0cc	-0.078431696
148	0x3c74a2d3	0.014931398
149	0x3cd252cc	0.025674246
150	0x3de37143	0.11105587
151	0xbb81ca49	-0.003960882
152	0xbd078225	-0.0330831
153	0xbcbb99dc	-0.022900514
154	0x3d831cd2	0.064019814
155	0x3ba768c8	0.0051089264
156	0xbdb97e41	-0.09057284
157	0x3d057dcc	0.032590672
158	0xbd0f2497	-0.034947004
159	0xbd90c3d6	-0.07068603
160	0x3cd6d183	0.02622295
161	0x3d03fcfe	0.032223694
162	0xbd88e6f8	-0.06684679
163	0xbdbe82f2	-0.093023196
164	0x3d5ebc81	0.05437899
165	0x3d558af9	0.052134488
166	0xbe18b108	-0.14911282
167	0xbd1efc5b	-0.038814884
168	0x3d30de08	0.043180496
169	0xbdb6e0d6	-0.08929603
170	0xbd259ff3	-0.040435743
171	0x3cc88920	0.024479449
172	0x3afb3538	0.0019165641
173	0xbcd04477	-0.025423272
174	0xbc299ed2	-0.010352807
175	0x3dda09dd	0.106464125
176	0x3d756f16	0.059920393
177	0xbc9842d0	-0.018586546
178	0x3b4edc00	0.0031564236
179	0xbd34e7f6	-0.044166528
180	0xbc351f71	-0.0110548595
181	0xbd30f2a6	-0.043200158
182	0x3d17a918	0.037026495
183	0xbd58d1af	-0.052934345
184	0xbe096115	-0.1341594
185	0xbd1312be	-0.035906546
186	0x3d99edca	0.07516058
187	0xbc79fa7f	-0.015257477
188	0xbd0e6748	-0.034766465
189	0x3bd096fb	0.0063656545
190	0xbbfcd6fc	-0.007716058
191	0x3d23bb26	0.0399734
192	0xb5a35f4e	-1.2172184e-06
193	0x3d40f79f	0.04711115
194	0xbb51d8c7	-0.0032020079
195	0x3d0dbd54	0.034604385
196	0x3da1f69b	0.079083644
197	0xbc23edae	-0.010005398
198	0xbdeab0b7	-0.11459487
199	0x3ccdc723	0.02511937
200	0xbd796c3b	-0.060894232
201	0xbdc07de9	-0.093990155
202	0x3d364509	0.04449943
203	0x3dd15f56	0.10223262
204	0xbc1d3605	-0.009595399
205	0x3db3e03f	0.08783006
206	0xbc9506b9	-0.018191682
207	0xbc035119	-0.008014941
208	0x3c2b798f	0.010465994
209	0x3db80d5b	0.08986922
210	0xbcfee304	-0.031114109
211	0x3d108d5d	0.035291065
212	0x3dbebb1e	0.093130335
213	0xbe0731a6	-0.13202533
214	0xbde2186c	-0.11039814
215	0x3b9df9a0	0.0048210174
216	0x3d5b3943	0.053521406
217	0xbd522a4c	-0.05130987
218	0xbdee2bd7	-0.116294555
219	0x3cf1e221	0.029526772
220	0xbd9316fc	-0.07182118
221	0x3becb3fc	0.0072236042
222	0xbce12765	-0.027484605
223	0xbd48d898	-0.049034685
224	0xbde8368b	-0.11338528
225	0x3cff2b20	0.031148493
226	0x3d21327e	0.039354794
227	0x3db47714	0.08811775
228	0xbdf4a6c3	-0.1194587
229	0xbde5322f	-0.111912124
230	0x3d025e86	0.031828426
231	0x3d6878bc	0.056755766
232	0xbd230829	-0.039802704
233	0x3cb57f56	0.022155445
234	0xbd893f5b	-0.06701537
235	0x3d13463b	0.03595565
236	0xbbed01d7	-0.0072328853
237	0xbdc41529	-0.095743485
238	0xbcc776b3	-0.024348592
239	0x3d372463	0.044712435
240	0xbda19331	-0.07889403
241	0x3d30617a	0.04306171
242	0x3cf99de4	0.030470796
243	0x3d2af8c4	0.041741148
244	0x3ccc0560	0.024904907
245	0xbd0b6e56	-0.03404077
246	0x3d36c506	0.04462149
247	0x3d2e2872	0.04251904
248	0x3beafc85	0.007171216
249	0xbd28cfaf	-0.041213688
250	0xbd5a0258	-0.05322489
251	0x3e006a36	0.12540516
252	0x3b718c02	0.0036857133
253	0x3c93cb5c	0.018041305
254	0xbddec19b	-0.10876771
255	0x3dc81029	0.09768707

weight f4 [1, 256]
0	0xbe8bfb60	-0.2734022
1	0x3e8b3a47	0.271929
2	0xbeb3bd77	-0.35105488
3	0xbec5901e	-0.38586515
4	0xbdf501a4	-0.119632035
5	0xbd5bdb85	-0.053676147
6	0xbebe1dd9	-0.37132147
7	0x3eb92c82	0.3616677
8	0x3eca36ed	0.3949503
9	0x3e9d44b4	0.3071648
10	0x3ec30407	0.3808901
11	0x3ea99cf9	0.33127573
12	0x3e888035	0.26660314
13	0x3eae4743	0.34038743
14	0x3eb01dcc	0.34397733
15	0xbeb4158c	-0.3517269
16	0xbeba28f5	-0.36359373
17	0x3eb1d6e0	0.3473425
18	0x3eb858f8	0.36005378
19	0xbeb782e1	-0.3584204
20	0xbea00e3c	-0.3126086
21	0x3eb1dd97	0.34739372
22	0x3eb3b39c	0.3509797
23	0x3eb34bc7	0.3501875
24	0xbe69beb9	-0.22826661
25	0x3e81839c	0.25295722
26	0x3eabf35f	0.33584115
27	0xbe997c30	-0.2997756
28	0xbe527acb	-0.20554654
29	0x3e8f60b8	0.28003478
30	0xbeaa9f67	-0.3332474
31	0xbeb7c944	-0.3589574
32	0xbe6d5863	-0.23178248
33	0xbe9045ce	-0.28178257
34	0xbeaeee48	-0.3416617
35	0x3ebeb603	0.3724824
36	0xbe8548b3	-0.26032028
37	0xbe932a95	-0.28743425
38	0xbecd82ad	-0.4013876
39	0x3eb514a9	0.35367325
40	0x3e950520	0.29105473
41	0x3e9a1c8a	0.300999
42	0xbea980b5	-0.33106008
43	0xbe52b1b9	-0.20575608
44	0x3eb85e1b	0.36009297
45	0x3ebb40a2	0.36572748
46	0xbe9133ef	-0.28359935
47	0xbe5d5ffb	-0.21618645
48	0xbe86d742	-0.26336104
49	0x3ec433fe	0.38320917
50	0x3ebf7d24	0.37400162
51	0x3ec6a1c9	0.38795307
52	0xbe453501	-0.192585
53	0xbead94cb	-0.33902583
54	0xbea12873	-0.31476173
55	0x3eb697d5	0.35662714
56	0x3ebdb681	0.37053302
57	0xbec53c05	-0.38522354
58	0xbe9682f4	-0.29396784
59	0xbe57943b	-0.21052639
60	0xbecaca72	-0.3960758
61	0x3ebe334e	0.37148517
62	0x3eb7b7e2	0.3588248
63	0xbea6f315	-0.32607332
64	0x3ea96096	0.33081502
65	0xbe803dd4	-0.2504717
66	0xbeb67a54	-0.35640204
67	0xbead57c6	-0.33856028
68	0x3ea61e4d	0.32444993
69	0x3ea8b549	0.3295081
70	0xbeaa8515	-0.3330466
71	0xbeafb73e	-0.3431949
72	0xbe6fa80f	-0.23403953
73	0x3eb0b94c	0.3451637
74	0x3eb414ff	0.3517227
75	0xbeb2072b	-0.34771094
76	0x3eafcfc4	0.343382
77	0xbeb7e26c	-0.35914934
78	0xbeafd29e	-0.34340376
79	0xbea27cdc	-0.31735885
80	0xbec85f50	-0.39135218
81	0xbe807757	-0.2509105
82	0x3eb05d78	0.3444631
83	0xbeaaa176	-0.3332631
84	0x3ea0be0d	0.31394997
85	0xbeb66a8f	-0.35628173
86	0xbe3acd71	-0.18242432
87	0xbe31a52e	-0.17348167
88	0x3e9538fb	0.29145035
89	0xbeabed56	-0.3357951
90	0xbeb307ce	-0.34966892
91	0x3eaefdc9	0.34177998
92	0x3eb61a9a	0.3556717
93	0xbe8e76e7	-0.2782509
94	0xbebf6340	-0.3738041
95	0xbec5d1c4	-0.386366
96	0x3e9a29fd	0.3011016
97	0x3ea2921c	0.31752098
98	0x3ea9a8f7	0.33136722
99	0x3eadad39	0.3392122
100	0xbe825c3f	-0.25461003
101	0xbc89b07f	-0.016807793
102	0x3eb973fa	0.36221296
103	0x3e9f0d14	0.31064665
104	0xbeb578b6	-0.35443658
105	0x3eb357ea	0.3502801
106	0xbeaed20c	-0.34144628
107	0x3eaefe3c	0.3417834
108	0xbe3f368a	-0.18673149
109	0xbeb0691d	-0.34455195
110	0x3e79f209	0.24408735
111	0x3ebecbd0	0.37264872
112	0xbeb654d7	-0.35611603
113	0xbebacc30	-0.36483908
114	0xbd185c7c	-0.037197575
115	0x3ebc6dc1	0.36802486
116	0x3e878b6c	0.26473558
117	0xbdad70ee	-0.08468805
118	0xbeb40bcc	-0.3516525
119	0xbeb22e9e	-0.3480119
120	0x3e5c80ff	0.21533583
121	0x3eb4ec1d	0.3533639
122	0xbe99ca77	-0.3003728
123	0xbeaf04ab	-0.3418325
124	0x3ebdcfb1	0.37072518
125	0xbea74878	-0.32672477
126	0x3ebc31f5	0.36756864
127	0xbea0b4e3	-0.31388006
128	0x3e0aa53a	0.13539591
129	0x3e72b667	0.23702393
130	0xbe1a7d65	-0.15086897
131	0xbe9ec08e	-0.31006283
132	0xbeb79e3c	-0.3586291
133	0x3eb49562	0.3527022
134	0x3eab168c	0.3341564
135	0xbec0bbf3	-0.37643394
136	0x3eb6f3a5	0.3573276
137	0xbe035493	-0.12825231
138	0x3ebecaf6	0.37264222
139	0xbec496be	-0.38396257
140	0x3eba4d1a	0.3638695
141	0xbc7fcd28	-0.015612878
142	0x3ea59841	0.32342723
143	0xbe50b80a	-0.20382705
144	0x3eb38446	0.35061854
145	0x3eae47ff	0.34039304
146	0x3ec032a9	0.3753865
147	0xbec00d8c	-0.37510335
148	0x3ea1995b	0.31562313
149	0x3eb0f614	0.34562743
150	0x3ebd0869	0.3692048
151	0xbeb4469b	-0.35210118
152	0xbe7c8a63	-0.24662165
153	0x3eaaec24	0.33383286
154	0x3eb323a8	0.3498814
155	0xbe8898ca	-0.2667907
156	0xbec630d0	-0.38709116
157	0x3e978a34	0.29597628
158	0x3ea99649	0.3312247
159	0xbebc97be	-0.3683452
160	0xbe93c5d0	-0.28861856
161	0x3eb8f2c0	0.36122704
162	0xbeb7d55a	-0.35904962
163	0xbeaa835b	-0.3330334
164	0x3eadff0a	0.33983642
165	0x3e8d0cc6	0.27548808
166	0xbea60c39	-0.324312
167	0xbe920ee1	-0.28526977
168	0x3ea7ff91	0.3281217
169	0xbe9166af	-0.28398654
170	0xbead20e9	-0.3381417
171	0xbeb9609c	-0.3620652
172	0x3e96f3fb	0.29483017
173	0x3ebbbc10	0.36666918
174	0x3ea2214d	0.3166603
175	0x3ebc75b3	0.36808547
176	0x3e43d3ec	0.1912381
177	0xbe8f5ca7	-0.28000376
178	0xbea9d88d	-0.33173028
179	0xbe8481f4	-0.25880396
180	0xbea6fd4c	-0.32615125
181	0x3e9a5c67	0.30148622
182	0xbe4d96fb	-0.20077126
183	0xbe8e51fb	-0.2779692
184	0xbeb4158e	-0.35172695
185	0xbcb708b3	-0.022343015
186	0x3ea326a2	0.31865412
187	0x3e9a90e8	0.3018868
188	0xbeb62af6	-0.35579652
189	0x3e8f1867	0.27948305
190	0xbeb7732c	-0.35830057
191	0x3eb5c1e8	0.354995
192	0x3ea52216	0.32252568
193	0x3e9bfc82	0.30466086
194	0x3db1b62d	0.086773254
195	0x3ebad2f5	0.36489072
196	0x3eb787ef	0.35845897
197	0xbe79f707	-0.2441064
198	0xbea5926f	-0.32338282
199	0xbead1ea7	-0.33812448
200	0xbe99f313	-0.30068263
201	0xbe96cc6f	-0.29452845
202	0x3eb827f1	0.35967973
203	0x3eb84feb	0.35998473
204	0x3ec5a5fd	0.38603202
205	0x3ea2afb6	0.31774682
206	0x3ea6b388	0.32558846
207	0xbebcb456	-0.36856335
208	0xbd0f15d9	-0.034932945
209	0x3e49b5c5	0.19698246
210	0xbe0137f4	-0.12619
211	0xbe62877f	-0.22122
212	0x3eb1f5f7	0.3475797
213	0xbe5dfb75	-0.21677954
214	0xbeb392af	-0.35072848
215	0xbe9ddaa7	-0.3083088
216	0x3e950799	0.2910736
217	0xbeab37ba	-0.33440953
218	0xbeabb012	-0.33532768
219	0x3eafd0d1	0.34339002
220	0xbeaf426f	-0.34230372
221	0xbea30881	-0.31842425
222	0xbe9d5581	-0.30729297
223	0xbec9ee81	-0.39439777
224	0xbe6a4615	-0.22878297
225	0x3eaa8d9a	0.33311158
226	0x3e275e4c	0.16344565
227	0x3ebf4786	0.37359256
228	0xbeb317f3	-0.3497921
229	0xbeb4f619	-0.35344008
230	0xbe8dd792	-0.2770353
231	0x3ec44704	0.3833543
232	0xbe19d385	-0.15022095
233	0xbea5ef92	-0.3240934
234	0xbec58445	-0.38577476
235	0x3eb0d259	0.34535483
236	0xbebb410b	-0.3657306
237	0xbecac651	-0.39604428
238	0xbebd2dc4	-0.3694898
239	0x3e3e5c9f	0.1859002
240	0xbe928d64	-0.28623497
241	0x3eb021b5	0.34400716
242	0xbe80b951	-0.25141385
243	0x3ea52b1c	0.32259452
244	0xbe7b2dfa	-0.24529257
245	0x3ea2ea72	0.31819493
246	0x3e888334	0.266626
247	0xbeafc594	-0.34330428
248	0xbec69bca	-0.38790733
249	0xbeb53014	-0.35388243
250	0xbecd474c	-0.40093458
251	0x3eae27ce	0.34014744
252	0xbeb910ab	-0.3614553
253	0xbeaed772	-0.34148747
254	0xbeb6fd4a	-0.3574012
255	0x3eb91696	0.36150044

weight f4 [6, 256]
0	0xbd147475	-0.036243875
1	0xbd5a1053	-0.053238224
2	0xbcf03b6e	-0.029325213
3	0xbcd9dd20	-0.026594698
4	0x3e25ba75	0.16184409
5	0xbdbe9ccf	-0.093072526
6	0x3d4511e3	0.04811276
7	0x3d75ee82	0.060041912
8	0x3d58ec67	0.052959826
9	0x3ccdeffb	0.025138846
10	0x3d984238	0.07434505
11	0x3cff8a5b	0.031193903
12	0xbdeecd6b	-0.11660274
13	0x3de961d4	0.11395612
14	0xbd553e9e	-0.05206167
15	0xbd04d726	-0.032431744
16	0x3d30cc6d	0.043163706
17	0xbd5bf1ee	-0.05369752
18	0x3dd6c3f3	0.10486593
19	0x3d3ba8fb	0.04581545
20	0xbd169bb1	-0.036769573
21	0xbdc7c0d1	-0.09753574
22	0xbd9d1b62	-0.076712385
23	0x3df0b8d7	0.117540054
24	0xbc47a08d	-0.012184274
25	0xbcbb412c	-0.022858225
26	0xbe1434f3	-0.14473324
27	0xbd983752	-0.074324265
28	0xbd3842dc	-0.044985637
29	0xbc9d0f52	-0.019172344
30	0xbd2f9624	-0.042867795
31	0xbd878a17	-0.066181354
32	0x3d7c15b8	0.06154415
33	0x3d3df730	0.046378314
34	0xbd3a578e	-0.045493655
35	0xbd11546e	-0.03548091
36	0xbd2935bb	-0.041311007
37	0x3e08321c	0.13300365
38	0xbd29a8b1	-0.041420642
39	0x3de0485f	0.10951304
40	0xbe5e050c	-0.21681613
41	0xbdeb32e4	-0.11484316
42	0xbcb34b44	-0.021886475
43	0x3e378e2f	0.17925332
44	0x3d29fe94	0.04150255
45	0xba2ec98c	-0.0006667606
46	0xbc9dccad	-0.019262636
47	0x3da896d4	0.08231893
48	0xbd3c8bfe	-0.046031944
49	0xbc711cf6	-0.0147163775
50	0x3d16aff3	0.036788892
51	0x3cc66ec9	0.024222748
52	0xbdaab6dd	-0.0833566
53	0xbd563310	-0.05229479
54	0xbd095efd	-0.033537854
55	0x3ddb9e6e	0.107235774
56	0xbc052bdd	-0.008128134
57	0x3c9bff08	0.019042507
58	0x3c43228a	0.01191009
59	0x3e143922	0.1447492
60	0xbcb93786	-0.022609483
61	0xbb9dfe95	-0.0048216083
62	0x3da09f05	0.078428306
63	0x3dc9c78f	0.09852516
64	0x3d9e6479	0.077340074
65	0x3d4d598d	0.05013423
66	0x3ccf8109	0.025330083
67	0x3aa0e24c	0.0012274473
68	0xbdb5368e	-0.08848296
69	0x3db62460	0.08893657
70	0x3cc56ab9	0.02409874
71	0x3d2cb341	0.042163137
72	0xbe01374c	-0.1261875
73	0x3d355bd9	0.044277046
74	0xbe4ba588	-0.19887364
75	0x3d0a7db1	0.033811275
76	0x3ddb2943	0.107012294
77	0xbda05a75	-0.07829753
78	0x3dac7ecf	0.08422624
79	0x3e59fec4	0.21288592
80	0xbba62749	-0.005070601
81	0xbc2c32ef	-0.01051019
82	0xbc8d30ee	-0.017235246
83	0xbd9d62e2	-0.07684876
84	0xbd3ed7d3	-0.046592545
85	0xbdc3beba	-0.095578626
86	0xbd87cfdf	-0.06631445
87	0xbe3cd892	-0.1844199
88	0xbe0dfc85	-0.1386586
89	0xbd041d5c	-0.03225456
90	0x3ca031a2	0.019554917
91	0xbd4664fe	-0.048436157
92	0x3d13c2cb	0.03607444
93	0xbd9068cb	-0.07051238
94	0xbd1c8371	-0.03821129
95	0xbd6e607b	-0.05819748
96	0xbe46f96a	-0.19431081
97	0xbe48b2c1	-0.19599439
98	0x3c23a2d7	0.0099875545
99	0xbd8bcccd	-0.06826172
100	0xbe0ef469	-0.13960423
101	0xbe1d4a49	-0.15360369
102	0x3d8a9d22	0.06768252
103	0x3d2b68d4	0.04184802
104	0x3c325a4c	0.010885786
105	0xbd9aa6bb	-0.075513326
106	0xbbd6c93b	-0.0065547503
107	0xbd4006ec	-0.0468816
108	0x3cfc7f84	0.030822523
109	0x3d2f1e8b	0.042753737
110	0x3d227e02	0.03967095
111	0x3d34d2cb	0.04414634
112	0x3d9a9f36	0.07549898
113	0x3d780ccd	0.060559083
114	0x3e32c9b2	0.17459753
115	0xbe04e06a	-0.12976232
116	0xbda884a5	-0.08228425
117	0x3d509ce1	0.05093086
118	0x3cf6023b	0.03003036
119	0x3d8eeb33	0.069784544
120	0x3dabbbab	0.08385404
121	0xbd0eb681	-0.034842018
122	0x3dac232b	0.08405145
123	0xbd3ac722	-0.045600064
124	0x3d829052	0.06375183
125	0x3e21c704	0.15798575
126	0x3e0485d7	0.12941681
127	0xbcf79440	-0.030222058
128	0xbe0a1244	-0.1348353
129	0xbe4d28c3	-0.2003508
130	0xbd82d6db	-0.06388637
131	0x3d43e9fe	0.047830574
132	0x3c883e87	0.016631378
133	0x3d3200b5	0.043457706
134	0x3cdc9c2c	0.026929937
135	0xbcb36403	-0.021898275
136	0xbdf70624	-0.12061718
137	0xbe34144e	-0.1758587
138	0xbd1c39ed	-0.03814118
139	0xbc305bb0	-0.0107640475
140	0xbd6536d3	-0.055960488
141	0xbda390ed	-0.07986627
142	0x3da6a05e	0.08136056
143	0x3dc9b101	0.09848214
144	0xbe202f45	-0.15643032
145	0x3e17b424	0.14814812
146	0xbdfb25a4	-0.12263039
147	0x3b22b962	0.0024829735
148	0x3e1f82b2	0.155772
149	0x3e1c3498	0.15254438
150	0x3d68eaed	0.056864668
151	0xbb93a778	-0.004506048
152	0xbcc4129a	-0.023934651
153	0xbd1709ce	-0.036874585
154	0x3d483ddc	0.04888712
155	0xbda3a89b	-0.07991143
156	0x3c65e8f7	0.014032594
157	0x3e6c79a2	0.23093274
158	0x3e34b12e	0.17645714
159	0xbd94e45b	-0.07270118
160	0xbd939e57	-0.07207935
161	0x3b23439e	0.002491213
162	0xbbdbd300	-0.006708503
163	0xbcc3908d	-0.023872638
164	0x3dd2d008	0.10293585
165	0xbdb81eee	-0.08990274
166	0xbcdaed9e	-0.026724633
167	0xbd9c09a2	-0.07619025
168	0x3d08d682	0.033407696
169	0xbce3ef25	-0.027823994
170	0xbe000859	-0.12503184
171	0xbda6402c	-0.081177086
172	0x3d02d474	0.031940892
173	0x3dd56de6	0.10421352
174	0x3dc66f8b	0.09689244
175	0xbd0ac1df	-0.033876296
176	0xbca8d212	-0.020607982
177	0x3da6a81b	0.08137532
178	0x3d316717	0.043311205
179	0xbbfedb64	-0.0077776182
180	0xbc58718d	-0.013210666
181	0x3e0a669a	0.13515702
182	0x3cee7ae6	0.029111337
183	0xbc248406	-0.010041242
184	0xbc16a752	-0.009195166
185	0x3e2e83aa	0.17042413
186	0x3de42ae9	0.11140997
187	0x3e3677f9	0.17819203
188	0x3b97c3e1	0.004631505
189	0xbdca0321	-0.09863878
190	0x3de8e390	0.11371529
191	0xbe6a8e14	-0.22905761
192	0xbd4279f2	-0.047479577
193	0x3cbc55b8	0.022990093
194	0xbe0fa29b	-0.14026873
195	0x3dd7e5cd	0.10541878
196	0x3d84dd81	0.06487561
197	0x3e034daf	0.12822603
198	0x3cff084b	0.031131884
199	0xbda0cebb	-0.07851931
200	0xbce5eb1c	-0.02806621
201	0x3e1f0029	0.15527405
202	0xbe0df1a2	-0.13861707
203	0x3cb5c7e3	0.02219004
204	0xbd05df0e	-0.032683425
205	0xbcb3bd50	-0.021940857
206	0xbe20d224	-0.15705162
207	0xbd806cef	-0.062707774
208	0x3c261d92	0.010138886
209	0xbe7da8cf	-0.24771427
210	0x3da2b6d3	0.07945027
211	0x3c4b520d	0.012409699
212	0x3d05887e	0.032600872
213	0x3dcee71f	0.101026766
214	0xbd36e4bf	-0.044651743
215	0x3d340824	0.043953076
216	0x3ce82321	0.028337063
217	0xbd41ade3	-0.047284972
218	0x3d102e2c	0.035200283
219	0xbd695d90	-0.056973994
220	0x3c200a61	0.0097680995
221	0x3e12f4fb	0.14351265
222	0x3d840dfb	0.06447979
223	0xbc9a0639	-0.018801795
224	0x3ddb0418	0.1069414
225	0xbdfdbf06	-0.123899505
226	0x3d4b9089	0.049698386
227	0x3c8140ae	0.015777912
228	0xbd210277	-0.03930899
229	0x3b2e8b13	0.0026633188
230	0x3ca70b66	0.020391177
231	0x3cf588bb	0.029972425
232	0x3c224e22	0.009906324
233	0xbd3ba701	-0.045813564
234	0x3c9c4b11	0.019078763
235	0x3dffcd41	0.12490321
236	0xbc51f251	-0.01281412
237	0xbd39dd80	-0.045377254
238	0x3c055395	0.008137603
239	0x3ce3546f	0.027750222
240	0xbdd4374f	-0.10362112
241	0x3d46147a	0.04835937
242	0x3d78eccc	0.060772702
243	0xbd66e567	-0.05637112
244	0xb8c35f02	-9.316021e-05
245	0xbe134f4c	-0.14385718
246	0x3e01c06d	0.12671061
247	0x3e0b9df2	0.1363447
248	0x3ceb97d1	0.028758915
249	0x3bc69d23	0.0060612126
250	0xbd3d7afc	-0.046259865
251	0x3e2c13d6	0.16804442
252	0xbc28e7c9	-0.010309168
253	0x3d18df89	0.037322555
254	0x3db185c1	0.0866809
255	0x3c1a9a82	0.009436252

bias f4 [6]
0	0x3ca36979	0.019947754
1	0x3d47be7f	0.048765656
2	0x3bbaa7b6	0.0056962622
3	0xbb33b70b	-0.0027422335
4	0x3c47f7f2	0.012205111
5	0xbd4ee21d	-0.050508607
