models/adi_network_hk_2.pth (torch, 424172 bytes, 7 tensors)

weight f4 [256, 144]
0	0xbd1d80c2	-0.03845287
1	0x3d44a201	0.04800606
2	0x3dcba74f	0.09944021
3	0x3d9662c0	0.07343054
4	0xbcf90100	-0.030395985
5	0xbdefc97f	-0.11708354
6	0xbd585791	-0.052817885
7	0x3dc0ae57	0.09408253
8	0xbbd2cb29	-0.00643291
9	0xbcb0d815	-0.021587411
10	0x3dbafead	0.09130607
11	0x3dde9abf	0.10869359
12	0xbd522053	-0.051300358
13	0x3d272b3a	0.04081271
14	0x3ddc7a01	0.10765458
15	0x3ddad4f9	0.106851526
16	0x3c4b59e3	0.012411567
17	0xbccfcd53	-0.02536646
18	0x3c954e32	0.018225763
19	0x3c8c17e1	0.01710123
20	0x3c6f9fdd	0.014625517
21	0x3ca22a81	0.019795658
22	0x3d8c4e75	0.06850902
23	0x3c02db1c	0.00798681
24	0xbd97702c	-0.07394442
25	0x3dba6b30	0.09102476
26	0xbbe7e08a	-0.0070763277
27	0x3d2d56ca	0.042319097
28	0xbd8e2ee4	-0.069425374
29	0x3e3137fc	0.17306513
30	0x3d7a5a89	0.061121497
31	0xbd96a71b	-0.073560916
32	0xbd785d59	-0.0606359
33	0x3d847654	0.06467882
34	0x3b5fb2a8	0.0034133587
35	0x3da59636	0.08085291
36	0x3d3ef32a	0.046618618
37	0x3e085ddd	0.13317056
38	0x3d9c121a	0.0762064
39	0x3d142ca0	0.03617537
40	0x3c82265a	0.015887428
41	0xbcb852a7	-0.02250035
42	0xbcb8525e	-0.022500213
43	0x3db6dd1f	0.08928894
44	0x3c07ca35	0.008287956
45	0x3dd998fb	0.10624882
46	0x3d67d870	0.056602895
47	0x3c9b67c1	0.018970372
48	0xbd6b2ed6	-0.057417713
49	0x3dcba5d1	0.09943736
50	0xbcba0e2a	-0.022711832
51	0xbd7a9c49	-0.0611842
52	0xbc001f9f	-0.007820039
53	0x3d11b7de	0.03557574
54	0x3d96ecb1	0.07369364
55	0x3c2e0a02	0.010622503
56	0x3d3561d0	0.044282734
57	0xbcaafb63	-0.020871824
58	0xbc98c56f	-0.018648831
59	0x3d11dd5b	0.03561149
60	0xbdbd8f8c	-0.09255895
61	0x3e2f8825	0.17141779
62	0xbdd7ab64	-0.10530737
63	0x3d5622ca	0.05227927
64	0xbc63fedc	-0.013915744
65	0xbd7bff16	-0.061522566
66	0xbd83c458	-0.06433934
67	0x3dc6a118	0.09698695
68	0x3d93b497	0.07212179
69	0x3cc5fcc5	0.024168381
70	0x3d6448e3	0.055733573
71	0xbc9133d1	-0.017724903
72	0x3c5520ab	0.013008277
73	0xbcea2e8c	-0.028586648
74	0x3cf8cbee	0.030370679
75	0x3d977337	0.07395022
76	0x3bca137f	0.006166875
77	0xbd05d198	-0.032670587
78	0x3d1780d3	0.03698809
79	0x3d9d6c8d	0.0768672
80	0x3d99b557	0.07505291
81	0x3ddda969	0.10823328
82	0xbcbb91d4	-0.022896685
83	0xbc9db1a1	-0.01924974
84	0x3d95bc86	0.073113486
85	0xbbfa9850	-0.0076475516
86	0xbd8755d1	-0.06608165
87	0x3c7f12c2	0.015568437
88	0x3dd4119b	0.103549205
89	0xbd946170	-0.07245147
90	0xbd99c603	-0.07508471
91	0x3c86d7b4	0.016460277
92	0xbd9a4263	-0.075321935
93	0x3d9dd1d7	0.077060394
94	0x3ddd36d6	0.10801475
95	0x3d67e6f3	0.056616735
96	0x3e19cf95	0.15020593
97	0x3d00e386	0.031466983
98	0xbcc9ec27	-0.024648739
99	0xbd6e1319	-0.05812368
100	0xbd97b2c8	-0.07407147
101	0x3c9bf9f1	0.01904008
102	0x3c8ccab8	0.017186508
103	0x3d70db73	0.058803033
104	0x3b9092a7	0.0044120136
105	0x3cb983e0	0.02264589
106	0x3d45eb9b	0.048320394
107	0x3d278845	0.04090144
108	0x3e29b812	0.16574124
109	0x3d849e2c	0.064754814
110	0xbd965fe2	-0.07342507
111	0x3d194a67	0.03742447
112	0x3d1fe777	0.0390391
113	0x3c7f782a	0.015592614
114	0xbd0b08ea	-0.033944048
115	0x3d7043ed	0.05865853
116	0x3d52eed2	0.051497288
117	0x3d37327c	0.04472588
118	0x3bf74e4b	0.007547175
119	0xbd9784b6	-0.073983595
120	0xbd52e307	-0.05148604
121	0xbcc66c46	-0.02422155
122	0xbb765afa	-0.0037590847
123	0xbbd82cf2	-0.006597155
124	0xbcba8a8c	-0.022771142
125	0x3d84a9ca	0.06477697
126	0xbc2f40a5	-0.010696565
127	0x3d2ec1a5	0.042665143
128	0x3d820c7e	0.06350039
129	0x3d90b3c7	0.0706554
130	0x3d83ae6d	0.064297535
131	0xbd825efe	-0.063657746
132	0xbd897f83	-0.06713774
133	0xbdda71dc	-0.10666248
134	0xbd36ae23	-0.044599663
135	0x3ce43f45	0.0278622
136	0x3e14ee4a	0.14544025
137	0x3e12166d	0.14266367
138	0xbd8e96bc	-0.06962344
139	0xbd2209ed	-0.039560247
140	0xbc079439	-0.008275085
141	0x3da3c977	0.07997411
142	0x3da6e411	0.08148969
143	0x3da3acec	0.079919666
144	0x3d540958	0.051766723
145	0xbd435aea	-0.047694124
146	0xbcfffb30	-0.031247705
147	0xbd67a668	-0.05655518
148	0x3bbf7474	0.0058427397
149	0xbdcdbb8e	-0.10045539
150	0xbd26101e	-0.040542714
151	0xbe314d16	-0.17314562
152	0xbd996b11	-0.074911244
153	0xbdec4b01	-0.11537743
154	0x3d7c8652	0.061651535
155	0x3bdd5d59	0.0067555127
156	0xbdec2774	-0.115309626
157	0x3cdf74f0	0.02727744
158	0xbc82f6dd	-0.015986854
159	0xbc3437e1	-0.010999651
160	0x3a877d3b	0.0010337004
161	0xbc59fb6b	-0.013304572
162	0x3d31633a	0.04330752
163	0xbdab8ff6	-0.08377068
164	0x3da18b0c	0.07887849
165	0xbc9fa13b	-0.01948606
166	0xbc0c2dd1	-0.008555845
167	0xbc41fcf8	-0.011840098
168	0xbe0a5ac0	-0.13511181
169	0xbe04ae28	-0.1295706
170	0xbcbe6458	-0.023241207
171	0xbcac4860	-0.021030605
172	0xbd9a476a	-0.075331524
173	0xbd09f94b	-0.03368501
174	0xbc15d4c4	-0.009144966
175	0xbd2ded59	-0.04246268
176	0xbcce5ae9	-0.025189834
177	0x3cc7ef27	0.024406029
178	0x3d098733	0.0335762
179	0x3c1a84a4	0.009431038
180	0xbd95e09e	-0.07318233
181	0xbd7e3311	-0.06206042
182	0xbdcaf9f7	-0.09910958
183	0x3c909828	0.017650679
184	0xbc90f9d4	-0.017697252
185	0xbcb76822	-0.022388522
186	0xbce4c08f	-0.02792385
187	0x3d19a7d6	0.037513576
188	0x3d4aab2a	0.04947964
189	0x3d81a429	0.06330139
190	0xbd389ec8	-0.0450733
191	0x3a7c3b03	0.00096218305
192	0x3d41fcc1	0.047360186
193	0x3d0366ee	0.032080583
194	0xbe08226a	-0.13294378
195	0x3d27a45c	0.04092823
196	0xbd23ebcd	-0.0400198
197	0x3cc946d8	0.024569914
198	0x3b0dcb6a	0.0021636137
199	0x3c20bf07	0.0098111695
200	0xbc93db6c	-0.018048964
201	0x3dbce0de	0.092225775
202	0x3dd19e42	0.102352634
203	0x3d8299f2	0.06377019
204	0xbd9a207c	-0.07525727
205	0x3c95b174	0.018273093
206	0x3cc67a97	0.024228377
207	0xbc15a691	-0.009133951
208	0xbb4cfba1	-0.0031277912
209	0xbc0a1e3c	-0.00843006
210	0xbdd24dbd	-0.10268734
211	0x3b3bfddb	0.0028685245
212	0xbd226ca8	-0.039654404
213	0x3cf368d5	0.029713074
214	0x3d4152ab	0.04719798
215	0xbd131229	-0.03590599
216	0x3d016ec5	0.03159978
217	0xbde84af3	-0.113424204
218	0x3c4fa440	0.012673438
219	0xbd4f297d	-0.050576676
220	0xbb30158c	-0.0026868312
221	0xbc847a24	-0.016171522
222	0xbca17b02	-0.019711975
223	0x3c9ff347	0.019525183
224	0xbd386b76	-0.045024358
225	0x3d49aabf	0.0492351
226	0xbd932e5a	-0.07186575
227	0x3d2c9650	0.042135537
228	0xbcc8f56e	-0.024531092
229	0x3d062934	0.032754138
230	0x3bde50fc	0.0067845564
231	0x3d00beaf	0.03143185
232	0xbd67816f	-0.056519922
233	0x3d093730	0.033499897
234	0xbd786f9d	-0.060653318
235	0x3b957b5c	0.0045618247
236	0xbcf70336	-0.030152898
237	0xbd716e8e	-0.058943324
238	0xbdc52881	-0.09626866
239	0x3c99820f	0.018738775
240	0x3d277551	0.040883366
241	0xbd3b8d18	-0.045788854
242	0x3bdcb50e	0.0067354506
243	0xbd9ed4a8	-0.07755405
244	0xbdd597c1	-0.104293354
245	0xbdf32a1c	-0.11873266
246	0xbc9c7ae2	-0.019101564
247	0xbd17d560	-0.037068725
248	0x3da21944	0.07914975
249	0xbda817f1	-0.082076915
250	0x3c4afdcc	0.012389611
251	0xbdf707e0	-0.12062049
252	0x3cd91957	0.02650134
253	0xbd0b1530	-0.033955753
254	0x3d590475	0.052982766
255	0xbdb30649	-0.08741433

bias f4 [256]
0	0x3d31d261	0.043413524
1	0xbc4b432b	-0.012406151
2	0xbd849bf4	-0.06475058
3	0x3d94d30b	0.07266816
4	0x3dcc23dd	0.09967778
5	0x3dc9557a	0.098307565
6	0xbde09536	-0.1096596
7	0x3cea97cc	0.028636836
8	0x3d7e70ae	0.06211918
9	0xbcdf71f9	-0.027276026
10	0x3da3abe4	0.0799177
11	0x3cc80026	0.024414133
12	0xbd5239bc	-0.05132459
13	0xbda21f0d	-0.07916079
14	0x3c3bf29b	0.011471416
15	0x3dd56c7b	0.10421082
16	0xbdeb7e30	-0.11498678
17	0xbb9541c1	-0.0045549576
18	0xbd8cb168	-0.06869775
19	0xbe010e26	-0.12603053
20	0xbda3d83c	-0.08000228
21	0xbdf7bc6a	-0.12096484
22	0xbd35ed3a	-0.04441569
23	0xbdad0ab0	-0.08449304
24	0xbce01bbc	-0.027356975
25	0x3d38becf	0.045103844
26	0x3dad796c	0.08470425
27	0xbd08568e	-0.03328567
28	0x3daa1c65	0.08306197
29	0xbdd540dd	-0.10412762
30	0xbd1b00d4	-0.037842587
31	0xbdf7f90d	-0.121080495
32	0x3cad53cb	0.02115812
33	0x3c8f34af	0.017481176
34	0x3baa3557	0.005194347
35	0x3db8731e	0.09006332
36	0xbd45eb49	-0.04832009
37	0xbd890bf2	-0.066917315
38	0xbe1c37c6	-0.15255651
39	0xbd6c1f68	-0.05764714
40	0xbd15f3bc	-0.036609396
41	0xbb68ac07	-0.0035502927
42	0x3d694f7c	0.056960568
43	0x3d81ea20	0.06343484
44	0x3cbded04	0.023184307
45	0x3dc33cc3	0.09533074
46	0x3cd0d6f6	0.025493126
47	0x3c735b7d	0.0148533555
48	0x3c1ad5b8	0.009450369
49	0x3d5a42d3	0.053286385
50	0xbdedf138	-0.116182745
51	0xbc5d9e5d	-0.013526526
52	0xbcc63ac3	-0.024197942
53	0x3c7efd3a	0.015563304
54	0x3a52e5ca	0.00080451055
55	0xbd726762	-0.059180625
56	0x3d2c1dc9	0.042020593
57	0x3d084781	0.033271316
58	0xbb34c325	-0.0027582136
59	0x3c95b2af	0.01827368
60	0x3c6aabc9	0.014323183
61	0x3db5aba5	0.08870629
62	0xbdb16b02	-0.08662988
63	0xbdf43435	-0.1192402
64	0x3d9eacf2	0.077478305
65	0xbde01b02	-0.10942651
66	0x3ccdb41c	0.025110297
67	0xbd168e53	-0.036756825
68	0x3c9f3491	0.019434245
69	0xbd7495ad	-0.059713054
70	0x3c645cd2	0.013938146
71	0x3db02be8	0.086021245
72	0xbaad40c4	-0.0013218154
73	0x3dc178ab	0.09446844
74	0x3b1d1f3f	0.0023974923
75	0xbd391aee	-0.045191698
76	0x3c84b12d	0.016197765
77	0xbd0a9807	-0.03383639
78	0x3d52a3a6	0.0514256
79	0xbdaae077	-0.083435945
80	0xbc09e9c3	-0.00841755
81	0x3c1e7f5d	0.00967392
82	0xbd1696fe	-0.03676509
83	0x3d83fbde	0.06444524
84	0xbd11448c	-0.035465762
85	0xbc8c31aa	-0.017113525
86	0x3d6c4741	0.05768514
87	0xbd44d276	-0.048052274
88	0x3dbb1388	0.09134585
89	0x3d4c3528	0.04985538
90	0xbdc4a43f	-0.0960164
91	0x3c91f29e	0.017815884
92	0x3dac4044	0.08410695
93	0xbd769fef	-0.06021112
94	0x3d066685	0.032812614
95	0xbd9e476a	-0.07728465
96	0x3c9bf124	0.019035883
97	0x3bdb930e	0.00670088
98	0xbdad37ea	-0.084579304
99	0xbd1e7dd8	-0.038694233
100	0x3d3348d5	0.04377063
101	0xbdefa04f	-0.11700498
102	0x3c412a8e	0.011789931
103	0x3dbb1e07	0.09136587
104	0x3d8a6be9	0.067588635
105	0x3c7b073a	0.015321547
106	0x3ce24767	0.027621938
107	0xbe01577c	-0.12631029
108	0xbd0a916f	-0.033830103
109	0xbd085c1e	-0.033290975
110	0xbda9ad6f	-0.08285033
111	0xbd0a0953	-0.0337003
112	0xbdd3edf9	-0.10348124
113	0x3dede552	0.11616005
114	0x3b1b4861	0.0023694264
115	0x3d67ec26	0.056621693
116	0x3b3659cc	0.002782452
117	0xbd82fb6c	-0.06395611
118	0xbcf7d21f	-0.03025156
119	0x3dae442e	0.08509098
120	0x3dc6fb82	0.0971594
121	0xbd4e9ebd	-0.050444353
122	0xbd6ccd11	-0.057812754
123	0xbd945ffd	-0.07244871
124	0x3d6e17e6	0.05812826
125	0x3d45a611	0.048254076
126	0x3d72dadf	0.059290763
127	0x3c4a6e77	0.012355438
128	0xbb4a24a9	-0.0030844605
129	0x3cbb2ac3	0.022847539
130	0x3d52c859	0.051460598
131	0x3d513bee	0.051082544
132	0x3d50acb5	0.050945956
133	0x3df5d22d	0.120029785
134	0x3db12d1d	0.08651183
135	0xbc8bdba0	-0.017072499
136	0xbd68e55e	-0.056859367
137	0xbd0ebeb8	-0.034849852
138	0xbcbafdd9	-0.022826122
139	0xbdc06e93	-0.0939609
140	0x3d974f6f	0.07388198
141	0x3dd29ae4	0.10283449
142	0x3dd6c0e3	0.10486009
143	0xba295105	-0.0006458911
144	0xbdf521db	-0.11969348
145	0x3ce23e0f	0.027617482
146	0x3d97129e	0.07376598
147	0x3c88b781	0.016689064
148	0x3da5f12c	0.081026405
149	0x3d2f3b6c	0.04278128
150	0xbc1c560d	-0.0095420005
151	0xbd9324e2	-0.07184769
152	0x3d09ce6c	0.033644125
153	0x3aab17fa	0.001305341
154	0x3d76b54b	0.06023149
155	0xbd31f248	-0.043443948
156	0xbd27e3c6	-0.040988706
157	0xbdbc82ab	-0.092046104
158	0xbc6d07e5	-0.014467214
159	0x3ccffaa3	0.025388068
160	0xbd2421a2	-0.040071137
161	0x3d8599d0	0.06523478
162	0xbd4a913e	-0.04945492
163	0xbd2838aa	-0.041069664
164	0x3e100116	0.14062914
165	0xbd6ce5bb	-0.057836276
166	0xbd5cc0f4	-0.053894952
167	0xbda13961	-0.07872272
168	0xbd50b620	-0.050954938
169	0x3d03a56d	0.032140184
170	0x3db5a682	0.088696495
171	0xbd560216	-0.052248083
172	0xbceb2c39	-0.02870761
173	0x3d17af5d	0.037032474
174	0xbd09ba02	-0.033624656
175	0x3b24db72	0.0025155214
176	0xbcec5aa3	-0.028851813
177	0xbcd3010c	-0.025757335
178	0x3c447a74	0.011992086
179	0xbbf008f5	-0.0073252865
180	0x3a181b40	0.00058024004
181	0x3baa06ab	0.005188783
182	0x3c538a25	0.012911354
183	0xbcc699ec	-0.024243318
184	0xbd53badd	-0.05169188
185	0xbcb31cc6	-0.021864306
186	0xbcfb14cd	-0.030649567
187	0x3db6eb0c	0.089315504
188	0x3e015e85	0.12633713
189	0xbd852590	-0.06501305
190	0xbcc1a6b3	-0.023639059
191	0xbcbc6d91	-0.023001464
192	0x3c94d594	0.018168248
193	0x3d6be5be	0.057592146
194	0xbe109f78	-0.14123333
195	0x3cb1d2c6	0.02170695
196	0xbd884a81	-0.066548355
197	0xbdd0257b	-0.10163399
198	0xbce2a8df	-0.027668415
199	0x3d444602	0.047918327
200	0x3d1d134c	0.03834848
201	0xbba055f5	-0.0048930594
202	0x3d2fc943	0.042916548
203	0x3cbc371a	0.022975493
204	0xbcf14ecc	-0.029456519
205	0xbc2d9f4d	-0.010597062
206	0x3e1d2fe1	0.15350296
207	0x3bebe540	0.0071989596
208	0xbc9fdb95	-0.019513885
209	0x3d342811	0.043983523
210	0xbd530fc0	-0.051528692
211	0x3dae9a12	0.0852548
212	0x3de59c60	0.11211467
213	0xbd3f6b91	-0.046733443
214	0x3ca8092f	0.020512192
215	0xbd14b6cb	-0.036307137
216	0x3d8d5aa3	0.06902053
217	0x3d89e107	0.06732374
218	0xbc2fc8df	-0.010729044
219	0x3cd0f2f8	0.025506482
220	0xbbac3a8f	-0.005256004
221	0x3dbc743d	0.09201858
222	0x3d3180cc	0.04333572
223	0xbc53ae53	-0.01291998
224	0x3d549f5b	0.051909786
225	0xbd018f6a	-0.03163091
226	0x3d73f1a3	0.059556615
227	0xbd679409	-0.05653766
228	0x3d12982a	0.035789646
229	0xbd1e77aa	-0.03868834
230	0xbd08a5f4	-0.03336139
231	0x3c00f880	0.007871747
232	0xbcf04bb4	-0.029332973
233	0xbce232e3	-0.027612155
234	0xbdd301e3	-0.10303094
235	0x3d107316	0.035266005
236	0xbba71f7e	-0.0051001897
237	0xbdbf9d8c	-0.093562216
238	0xbd8bed72	-0.068323985
239	0x3de61db1	0.11236132
240	0x3bbd4242	0.005775721
241	0xbcc481d3	-0.023987686
242	0xbacdb4ec	-0.0015694178
243	0xbcb826cb	-0.022479435
244	0xbc96efaa	-0.018424828
245	0xbde1f373	-0.110327624
246	0x3db8e4c2	0.09028007
247	0xbde680e0	-0.1125505
248	0x3d821820	0.06352258
249	0xbd396dc6	-0.045270704
250	0xbdec83fe	-0.11548613
251	0x3a7ebd82	0.000971757
252	0xbb0b4586	-0.0021251156
253	0xbccfb869	-0.025356488
254	0x3d9dd846	0.077072665
255	0xbdbe00bd	-0.092774846

weight f4 [256, 256]
0	0xbd7967ae	-0.060889892
1	0xb99be4a4	-0.00029734254
2	0x3cf58ed1	0.029975327
3	0xbda2c5be	-0.079478726
4	0x3cf00f87	0.029304279
5	0xbd8be742	-0.06831218
6	0xbd9b62b1	-0.07587183
7	0x3ddf17de	0.10893224
8	0x3c972cc7	0.018453969
9	0x3a8619bb	0.0010231057
10	0x3b715538	0.0036824476
11	0x3ce94ee1	0.028479995
12	0xbcc5e486	-0.02415682
13	0x3d9238ea	0.07139762
14	0xbd6bf3f8	-0.057605714
15	0xbd743ab9	-0.059626315
16	0xbc1ed10a	-0.0096933935
17	0x3c356ed6	0.011073789
18	0xbc8f1409	-0.017465608
19	0xbc247756	-0.0100382175
20	0x3c588e16	0.01321747
21	0xbcbc5705	-0.022990713
22	0x3a2209a1	0.00061812444
23	0xbcd0b31c	-0.025476031
24	0xbd386a82	-0.04502345
25	0x3cba9028	0.022773817
26	0xba87b2ca	-0.0010352966
27	0x3b85dcc2	0.0040851543
28	0xbda46aca	-0.08028181
29	0xbd3ad5bb	-0.045613986
30	0x3cb9a5af	0.022662012
31	0xbafd0c4d	-0.0019306034
32	0xbdc21273	-0.09476175
33	0xbda7a097	-0.08184927
34	0xbd10f0bc	-0.035385832
35	0xbd7dfafa	-0.062006928
36	0x3d4d4ba1	0.050120953
37	0xbb49bfed	-0.0030784563
38	0x3dce6f1d	0.10079787
39	0xbade7abf	-0.0016973837
40	0xbda29559	-0.07938642
41	0xbbedf97a	-0.007262406
42	0xbd33beb9	-0.04388306
43	0x3c8ab840	0.01693356
44	0x3cbce2ea	0.02305742
45	0x3c0ed3fb	0.008717532
46	0x3b939aab	0.004504522
47	0x3d5a258d	0.053258467
48	0xbb1acdf6	-0.0023621297
49	0xbd1031e8	-0.035203844
50	0xbda4fd7c	-0.08056161
51	0x3d5c447a	0.05377624
52	0x3d671892	0.056419916
53	0x3c571bc5	0.013129179
54	0xbd029510	-0.03188044
55	0xbd1c9524	-0.03822817
56	0xbdd329cd	-0.10310707
57	0xbd903b0a	-0.07042511
58	0x3d6dbfd4	0.05804427
59	0xbda4dd42	-0.08050014
60	0xbc1fb6cd	-0.009748173
61	0x3d9c8185	0.076418914
62	0x3d3661a5	0.044526715
63	0xbd9f48a5	-0.07777528
64	0x3ca5ffb7	0.020263536
65	0xbc7d912e	-0.015476508
66	0x3dae40b0	0.08508432
67	0x3c90e425	0.017686913
68	0xbcf86a89	-0.030324237
69	0xbbec8036	-0.0072174324
70	0xbdb71547	-0.08939605
71	0xbb60e602	-0.0034316783
72	0xbbc9fd31	-0.006164216
73	0xbd04ebde	-0.032451503
74	0x3c4402e8	0.0119635835
75	0x3d8b52b1	0.068028815
76	0xbd5ddcee	-0.054165773
77	0xbd0948a7	-0.033516552
78	0x3ccbe77c	0.024890654
79	0x3d5311d8	0.05153069
80	0xbc239a4b	-0.009985517
81	0x3d2e3bd6	0.042537533
82	0xbd9c26da	-0.07624598
83	0x3d41eb44	0.047343507
84	0xbd97c544	-0.07410672
85	0xbd344550	-0.044011414
86	0x3d066a56	0.032816254
87	0x3b273bcc	0.002551782
88	0xbd8f0d3e	-0.069849476
89	0x3c8e3ff6	0.017364483
90	0x3d519ce0	0.051175
91	0xbc6ffd61	-0.014647813
92	0xbc51796a	-0.012785295
93	0x3d994cda	0.074853614
94	0xbc8d2581	-0.017229797
95	0x3b80bac1	0.003928513
96	0xbc1412c2	-0.009037675
97	0xbc80ad12	-0.015707526
98	0x3d8496dd	0.064740874
99	0xbdae7cf5	-0.085199274
100	0xbc5306f8	-0.012880079
101	0x3db63f1c	0.08898756
102	0xbd82e8ee	-0.06392084
103	0xbcad3418	-0.021143004
104	0x3dabcb1f	0.08388352
105	0x3d98ce65	0.07461242
106	0x3b253018	0.0025205668
107	0x3bdd20e0	0.006748304
108	0x3cd99615	0.026560823
109	0x3d6b041b	0.057376962
110	0xbdb5cfd4	-0.08877531
111	0xbdae989e	-0.08525203
112	0xbbd89d5a	-0.0066105546
113	0xba120c12	-0.00055712566
114	0x3d4007a8	0.0468823
115	0xbdc41a82	-0.095753685
116	0x3d51c120	0.05120957
117	0xbd3d6cda	-0.046246387
118	0x3c5a39dc	0.013319459
119	0xbcf8b7ef	-0.030361144
120	0xbd7f9ace	-0.062403493
121	0x3d2e4d43	0.04255415
122	0x3d42794f	0.04747897
123	0x3d870b20	0.06593919
124	0x3d1ebef8	0.03875634
125	0xbc07d2c4	-0.008289997
126	0x3cea2131	0.02858028
127	0x3da64c27	0.08119994
128	0x3dd69bf0	0.104789615
129	0xbb98be9c	-0.0046613943
130	0xbdeded1a	-0.11617489
131	0x3bc8c6ef	0.0061272304
132	0xbda240be	-0.07922505
133	0xbc9b7abc	-0.018979423
134	0xbd9abdd3	-0.07555737
135	0x3cc48123	0.023987358
136	0xbc7d2ae2	-0.015452119
137	0x3c454f04	0.012042765
138	0x3d35b4ac	0.044361755
139	0x3d2087ba	0.03919194
140	0x3cd14d60	0.02554959
141	0xbdb5b36f	-0.08872115
142	0x3d1b83ff	0.03796768
143	0xbcfc52df	-0.030801235
144	0x3d360fdb	0.044448715
145	0xbceb3537	-0.028711898
146	0xbdd307a0	-0.10304189
147	0x3c1e8600	0.009675503
148	0xba94b985	-0.0011346793
149	0x3c846360	0.016160667
150	0x3db72e9e	0.089444384
151	0x3d3209f7	0.043466534
152	0xbdc719d5	-0.09721724
153	0x3d51a655	0.051184017
154	0x3d0602e1	0.03271759
155	0xbe0aa6e5	-0.13540228
156	0x3b9cb273	0.004782015
157	0xbd09bd3b	-0.03362773
158	0x3c4d82da	0.0125434045
159	0xbd92e00a	-0.07171638
160	0x3d419120	0.047257543
161	0xbcd9df9c	-0.026595883
162	0x3db62869	0.088944264
163	0xbc2a5564	-0.010396335
164	0x3da3e7b7	0.080031805
165	0x3d969362	0.0735233
166	0x3d67692d	0.056496788
167	0xbd8fdba7	-0.07024317
168	0x3dc18b72	0.09450425
169	0x3d173771	0.036918107
170	0xbd24f561	-0.040273074
171	0xbdb9854e	-0.09058629
172	0x3b739f82	0.0037173931
173	0xbcd83223	-0.026391095
174	0xbd2dab54	-0.04239972
175	0xbc75d696	-0.015004775
176	0xbc25191f	-0.01007679
177	0xbca931bf	-0.020653604
178	0xbd808e58	-0.0627715
179	0x3cba2a8e	0.02272537
180	0xbd3ef02f	-0.046615776
181	0x3d19eb02	0.037577637
182	0xbb318d8c	-0.0027092425
183	0xbda84f89	-0.08218295
184	0x38cdb4fd	9.8088734e-05
185	0xbd2eacf2	-0.042645402
186	0x3d87759a	0.066142276
187	0xbc94c3f0	-0.018159837
188	0xbceed643	-0.029154902
189	0x3d779ac1	0.06045032
190	0xbda46318	-0.08026713
191	0x3c8c347f	0.017114876
192	0xbc2b2efa	-0.010448212
193	0x3d16536c	0.03670065
194	0x3d010a31	0.03150386
195	0x3c354310	0.011063352
196	0x3d97998a	0.07402332
197	0xbd3d7274	-0.04625173
198	0xbd773c0d	-0.060360003
199	0xbd1578f1	-0.03649229
200	0xbdaad59e	-0.083415255
201	0xbc876dfe	-0.01653194
202	0x3cbffc89	0.023435848
203	0xbd4ae740	-0.049536943
204	0x3c142f5b	0.009044494
205	0xbc5659c8	-0.013082929
206	0xbd2149e1	-0.039377097
207	0xbd0ed0fe	-0.03486728
208	0x3db3d200	0.08780289
209	0xbd7b8b08	-0.061411887
210	0x3d19572d	0.037436653
211	0x3bd1101c	0.006380094
212	0xbcd4363d	-0.02590477
213	0xbd28a3ca	-0.041171826
214	0xbc437db2	-0.011931824
215	0x3d8acb3a	0.06777044
216	0xbd9f677c	-0.0778341
217	0xbb2ec7bf	-0.002666935
218	0xbaf32060	-0.0018549077
219	0xbbf5d121	-0.0075017367
220	0x3c2fd6ba	0.010732347
221	0x3b8084ea	0.0039220946
222	0x3da5ef43	0.08102276
223	0xbca829bd	-0.020527715
224	0xbe0fdfc1	-0.14050199
225	0x3d8c8322	0.06860949
226	0xbd1402a7	-0.036135342
227	0x3dbce349	0.09223039
228	0xbc63d05a	-0.013904655
229	0x3d9e4749	0.0772844
230	0xbc8732bd	-0.016503686
231	0xbb0c4819	-0.0021405278
232	0x3b8e53f9	0.0043435064
233	0x3c93544c	0.017984532
234	0x3d8f5096	0.069977924
235	0xbd9d5da8	-0.07683879
236	0x3d8e5e24	0.0695155
237	0x3d98784d	0.074448206
238	0xbcbe3f31	-0.023223491
239	0xbd885820	-0.066574335
240	0xbcc99a94	-0.024609841
241	0xbcdfe751	-0.02733198
242	0xbc96576d	-0.018352235
243	0x3dd8becd	0.10583267
244	0xbd699f8d	-0.057036925
245	0x3dbf10af	0.09329354
246	0x3d9ddb4d	0.07707844
247	0xbd9e665b	-0.077343665
248	0xbc359ebb	-0.011085208
249	0xbbd6646a	-0.006542732
250	0x3cfb4d35	0.030676464
251	0x3d3778fe	0.04479312
252	0xbd45d403	-0.048297893
253	0x3c644d4b	0.013934444
254	0xbd41b4d2	-0.047291584
255	0x3c13f0af	0.009029551

bias f4 [256]
0	0xbd1f5660	-0.038900733
1	0xbcfaab9e	-0.030599412
2	0x3d366d98	0.04453811
3	0xbde0e7f1	-0.10981739
4	0x3d896a0a	0.067096785
5	0x3de650a2	0.11245848
6	0x3c8b53a6	0.01700766
7	0xbd84811b	-0.064699374
8	0xbd9cbcad	-0.076531745
9	0xbddff85a	-0.10936041
10	0x3d2bb578	0.04192111
11	0xbe06f7fc	-0.13180536
12	0xbd73ca26	-0.059518956
13	0x3d108f1b	0.035292726
14	0xbbb730b1	-0.0055905213
15	0x3d74a6e8	0.059729487
16	0x3dbb26be	0.09138249
17	0x3d6626e0	0.056189418
18	0x3e0072ba	0.12543765
19	0x3d38276f	0.04495948
20	0xbd914152	-0.07092537
21	0x3c245099	0.010028982
22	0xbd8e3f2a	-0.06945641
23	0xbd917553	-0.07102456
24	0x3b3d87f0	0.0028920136
25	0x3ce42ddb	0.027853897
26	0x3cd3a46b	0.025835237
27	0x3c461ad3	0.012091356
28	0x3d743dbe	0.059629194
29	0x3d5fb5c1	0.054616693
30	0x3cf263e4	0.029588647
31	0x3d4d7302	0.050158508
32	0xbaf9f40c	-0.0019069924
33	0xbcc203f8	-0.023683533
34	0xbd87b93a	-0.06627126
35	0xbdc4919a	-0.09598084
36	0x3ded6646	0.11591773
37	0xbe0750b1	-0.13214375
38	0xbd9f2759	-0.07771177
39	0xbcf03dd5	-0.029326359
40	0x3d49b871	0.049248163
41	0xbd37b3f9	-0.04484937
42	0xbd92d0c1	-0.07168723
43	0xbd9b40a2	-0.07580687
44	0x3d988f0a	0.074491575
45	0x3ca9e213	0.020737683
46	0xba583999	-0.0008248329
47	0x3db98e80	0.09060383
48	0xbd469149	-0.0484784
49	0xbd9a89e9	-0.075458355
50	0x3d1e9c9b	0.03872357
51	0x3d043b9b	0.032283407
52	0x3db0011e	0.08593963
53	0x3da2d630	0.07951009
54	0xbcf6e1c2	-0.030136947
55	0xbdc01c59	-0.09380407
56	0xbdb698ee	-0.08915888
57	0x3ce6c6a5	0.028170893
58	0xbd77702f	-0.06040972
59	0x3dd51c99	0.10405845
60	0x3d678eff	0.056532856
61	0xbc2146ad	-0.009843511
62	0x3df861a1	0.12127996
63	0xbd9910bc	-0.07473895
64	0xbd2408cb	-0.040047448
65	0xbd09e54c	-0.03366594
66	0xbd23d840	-0.040001154
67	0x3d0b9f7b	0.03408764
68	0xbda1ba44	-0.078968555
69	0xbced53fa	-0.028970707
70	0x3d55414a	0.052064218
71	0xbc5111f8	-0.012760632
72	0x3d8d13a0	0.06888509
73	0xbda8c1c5	-0.082400836
74	0x3cd71133	0.026253318
75	0xbd3851b3	-0.04499979
76	0xbc7e6c54	-0.015528757
77	0xbda718a2	-0.08158995
78	0xbd8ec4b1	-0.0697111
79	0xbcb04756	-0.02151839
80	0x3dd30351	0.10303367
81	0x3d85b4bf	0.06528615
82	0x3d3cf5af	0.04613274
83	0xbc611269	-0.0137372995
84	0xbcd336e7	-0.025783015
85	0x3d638535	0.055546958
86	0xbd4af3ed	-0.049549032
87	0xbd301384	-0.04298736
88	0xbda1c976	-0.07899754
89	0x3c22b658	0.009931169
90	0xbb56a864	-0.0032754177
91	0x3d256677	0.04038092
92	0xbbf819cb	-0.007571434
93	0x3c0c6134	0.008568097
94	0xbb8b22d3	-0.0042460947
95	0xbdb14071	-0.08654869
96	0x3c2120c7	0.009834475
97	0xbd986c6d	-0.074425556
98	0xbcada64f	-0.021197466
99	0x3b803d0b	0.003913527
100	0x3ba8a735	0.0051468858
101	0xbca7f684	-0.02050329
102	0x3ca641b7	0.020295007
103	0x3cd91ed9	0.026503967
104	0x3c43e703	0.011956933
105	0xbe0e22ec	-0.13880509
106	0xbd2c414e	-0.042054467
107	0x3d80a678	0.062817514
108	0x3d6177bc	0.05504583
109	0xbdcc877c	-0.09986779
110	0xbb6a6238	-0.003576411
111	0xbc3ca61b	-0.011514212
112	0x3c5bafc0	0.013408601
113	0x3ca5c1c2	0.020233992
114	0x3d00dbad	0.0314595
115	0xbb18ca34	-0.0023313882
116	0x3abb200d	0.001427652
117	0xbd9a3aba	-0.075307325
118	0x3d82fac7	0.06395488
119	0x3be669ef	0.0070316712
120	0xbcc82867	-0.024433328
121	0x3de27ce4	0.11058977
122	0x3c0aa62a	0.008462468
123	0x3ccdc981	0.025120499
124	0xbc64b36a	-0.013958791
125	0x3cb7412c	0.022369944
126	0x3c5f2d60	0.013621658
127	0xbb41199a	-0.0029464723
128	0xbdc9e731	-0.098585494
129	0x3cd8d895	0.026470462
130	0x3cb32acb	0.021870991
131	0xbd0c60fc	-0.03427218
132	0x3ca23110	0.019798785
133	0x3d972d1e	0.07381652
134	0x3d79df2b	0.061003845
135	0x3d14f1e8	0.036363512
136	0xbc68e1e3	-0.014214012
137	0xbdef92b7	-0.116979055
138	0xbd583260	-0.052782416
139	0x3d7e9639	0.062154982
140	0x3cd88367	0.026429845
141	0xbd044d6c	-0.032300398
142	0x3b1248ec	0.0022321297
143	0xbc9b46f7	-0.018954737
144	0x3d4d607c	0.050140843
145	0xbd7637d0	-0.06011182
146	0xbbb0ef7a	-0.0053996416
147	0x3d75869a	0.05994282
148	0x3d23e532	0.0400135
149	0x3deb0c83	0.11476996
150	0xbd1b887d	-0.037971962
151	0x3ba9ed84	0.005185785
152	0x3db835f1	0.089946635
153	0x3c69caf5	0.01426958
154	0xbdc91770	-0.098189235
155	0xbca46eca	-0.02007236
156	0xbe0cda50	-0.13755155
157	0x3bab9d4a	0.005237256
158	0xbd3b2f69	-0.04569951
159	0x3ce603ab	0.02807792
160	0x3dbd70c1	0.09250022
161	0x3d19da09	0.03756145
162	0xbddde8a5	-0.10835389
163	0xbdc72691	-0.09724153
164	0x3c5832d6	0.013195714
165	0xbba90100	-0.00515759
166	0xbbacb1c1	-0.0052702134
167	0xbd0acb65	-0.03388538
168	0x3db72e62	0.08944394
169	0xbbf5fd87	-0.0075070295
170	0x3e06d49a	0.13167039
171	0x3d163650	0.03667289
172	0x3c20e7eb	0.009820919
173	0x3cea6784	0.028613813
174	0x3e0a704b	0.13519399
175	0xbd8e30bf	-0.06942891
176	0x3b29a51c	0.0025885766
177	0xbc2e723c	-0.010647353
178	0xbd9796e3	-0.07401826
179	0x3c9aa4b4	0.018877365
180	0xbc3752ba	-0.011189157
181	0x3cc15216	0.023598712
182	0x3be891d5	0.0070974627
183	0x3d0cfee3	0.034422766
184	0xbdbcbd07	-0.092157416
185	0x3d223d2f	0.03960913
186	0x3d4ecf38	0.050490588
187	0x3d4f9064	0.05067481
188	0xbb65a9c1	-0.0035043808
189	0xbc67d6ba	-0.014150316
190	0xbdbdbb3d	-0.092642285
191	0x3de6047e	0.112313256
192	0x3cb59373	0.022165036
193	0xbd3f8ec2	-0.046767004
194	0x3decdf06	0.11565976
195	0xbd5a862f	-0.053350624
196	0xbcfa0c0a	-0.030523319
197	0xbdc82b36	-0.09773867
198	0xbc7318f7	-0.014837495
199	0x3cff34b2	0.031153057
200	0xbd00adb6	-0.031415664
201	0x3d75dd85	0.06002571
202	0xbda7b614	-0.081890255
203	0x3c12ebb2	0.008967327
204	0xbd757618	-0.059927076
205	0x3d902281	0.07037831
206	0xbc4720e2	-0.012153836
207	0xbd3280c0	-0.043579817
208	0x3a56791c	0.0008181499
209	0xbb64d0a1	-0.0034914392
210	0xbded54f2	-0.11588468
211	0x3d61e45c	0.05514942
212	0x3d9bc115	0.07605187
213	0xbd335494	-0.04378183
214	0xbd8e8e30	-0.06960714
215	0xbd32648d	-0.043552924
216	0x3d201c3e	0.039089434
217	0x3d939f3a	0.072081044
218	0xbdaee1d9	-0.08539171
219	0x3ca1012d	0.019653881
220	0x3db1e19b	0.08685609
221	0x3db4d60f	0.08829891
222	0x3de2c12c	0.11072001
223	0x3de5b9e7	0.11217099
224	0xbc9181d9	-0.017762111
225	0xbc945e1c	-0.018111281
226	0xbd25ac13	-0.040447306
227	0xbcb0a184	-0.021561392
228	0xbccc58e5	-0.024944732
229	0xbd985ef3	-0.07439985
230	0x3d7b3f91	0.06133992
231	0xbc47bd88	-0.012191184
232	0x3dc557a0	0.09635854
233	0x3b2665cc	0.0025390266
234	0xbda9578c	-0.08268651
235	0x3d355929	0.044274483
236	0xbdae2a6e	-0.085041866
237	0x3df040ff	0.11731147
238	0x3dfac3a5	0.122443475
239	0x3d850aa3	0.064961694
240	0xbd49d826	-0.0492784
241	0xbd55e5d4	-0.052221134
242	0xba87ff17	-0.0010375705
243	0xbd8c7fbb	-0.068603
244	0x3b4edff6	0.0031566597
245	0x3c84cc35	0.016210655
246	0x3c2db75f	0.010602801
247	0xbda7b810	-0.08189404
248	0xbd9ed104	-0.0775471
249	0x3d1256ae	0.035727195
250	0x3d3c1846	0.045921586
251	0x3d05fe16	0.03271302
252	0xbcd04353	-0.025422728
253	0x3dfb9f5d	0.122862555
254	0xbd22c883	-0.039742004
255	0xbd460898	-0.04834804

weight f4 [1, 256]
0	0xbe841005	-0.25793472
1	0xbe6dc59a	-0.2321991
2	0x3e9b625b	0.30348477
3	0xbe99a370	-0.30007505
4	0x3ea29a11	0.31758168
5	0x3e96580e	0.29364055
6	0x3e9480a8	0.29004407
7	0xbe70a91c	-0.2350201
8	0xbe8f48eb	-0.2798532
9	0xbe94876b	-0.29009566
10	0x3e98961a	0.29802018
11	0xbe9377d1	-0.2880235
12	0xbea67618	-0.32511973
13	0x3e97cf28	0.29650235
14	0x3e8405f5	0.25785795
15	0x3e986057	0.29761
16	0x3e9975e6	0.29972762
17	0x3e98c366	0.29836577
18	0x3ea4afb6	0.32165307
19	0x3e6f880b	0.2339174
20	0xbea83923	-0.32856092
21	0x3e95f4d3	0.2928835
22	0xbe94ccfd	-0.29062644
23	0xbe9fffa7	-0.31249735
24	0xbe71eab5	-0.2362469
25	0xbe8576fb	-0.26067337
26	0x3e8d1d57	0.27561447
27	0xbe6596a8	-0.22420752
28	0x3cefb527	0.029261185
29	0x3ea2b1c1	0.3177624
30	0x3ea7b0a1	0.32751945
31	0x3e9ee3e9	0.31033257
32	0xbe758c22	-0.23979238
33	0xbe9f9251	-0.31166318
34	0xbe850a56	-0.25984448
35	0xbea6cbcf	-0.3257737
36	0x3ea2e8b9	0.31818178
37	0xbe8f4d37	-0.27988598
38	0xbea9746e	-0.3309664
39	0xbe740844	-0.23831278
40	0x3e9d5ef3	0.30736503
41	0xbe9ead05	-0.30991378
42	0xbe90010f	-0.28125808
43	0xbe870dd1	-0.2637773
44	0x3ea3068a	0.31840926
45	0x3e964c15	0.2935492
46	0xbe8a459d	-0.27006236
47	0x3e94c41c	0.2905587
48	0xbe93f092	-0.28894478
49	0xbe856317	-0.26052162
50	0x3e8e1627	0.27751276
51	0xbe953ee8	-0.29149556
52	0x3e87d543	0.26529893
53	0x3e951354	0.2911631
54	0xbe90748b	-0.28213915
55	0xbe916c6e	-0.28403038
56	0xbe71d1a0	-0.23615122
57	0x3e98cc13	0.29843196
58	0xbea67431	-0.32510522
59	0x3e8cd973	0.2750965
60	0x3e808885	0.25104156
61	0xbe8f53fc	-0.27993762
62	0x3e913bac	0.2836584
63	0xbe4bda3e	-0.19907472
64	0xbe93b8b8	-0.28851867
65	0xbe907d8c	-0.28220785
66	0xbe8d8887	-0.27643225
67	0xbe3ed92b	-0.1863753
68	0xbe5bfc43	-0.21482949
69	0xbe9c8d57	-0.30576584
70	0x3e9f780c	0.31146276
71	0xbea6a2a3	-0.32545957
72	0x3e888a3d	0.26667967
73	0xbe8b002b	-0.27148566
74	0x3e9247ec	0.28570497
75	0xbe749860	-0.23886251
76	0xbe9114cc	-0.2833618
77	0xbe770614	-0.24123412
78	0xbe74a61a	-0.23891488
79	0xbd29b721	-0.04143441
80	0x3ea1f78b	0.31634173
81	0xbc0a2b87	-0.008433229
82	0x3e971c66	0.29513854
83	0xbe8aa028	-0.27075315
84	0xbe9d3ace	-0.30708927
85	0x3ea58a4a	0.3233207
86	0xbe4d074f	-0.2002232
87	0xbe73442d	-0.23756476
88	0xbea6b1f8	-0.32557654
89	0x3ea204c0	0.3164425
90	0xbea65e04	-0.32493603
91	0x3ea48962	0.32136065
92	0xbe923e6a	-0.28563243
93	0x3e9ce572	0.30643803
94	0x3e8360ca	0.25659782
95	0xbe4b67ab	-0.19863765
96	0x3e95df05	0.29271713
97	0xbe978e8e	-0.29600948
98	0xbe7a934f	-0.24470256
99	0xbe9bc69c	-0.30424964
100	0xbe97244a	-0.29519874
101	0xbe71548d	-0.2356741
102	0xbe2f2508	-0.1710397
103	0x3e9e51f4	0.309219
104	0x3e9a2629	0.3010724
105	0xbe84fb2e	-0.25972885
106	0xbe3f83b6	-0.18702587
107	0x3e99391f	0.29926392
108	0x3e99e43d	0.30056944
109	0xbea995f0	-0.33122206
110	0x3e9b14c0	0.30289268
111	0xbe90bf6a	-0.28271037
112	0x3e9273c2	0.2860394
113	0x3e9cbc3a	0.30612355
114	0x3e9794d7	0.29605743
115	0xbe83d636	-0.25749367
116	0x3e9992d6	0.2999484
117	0xbe9ad536	-0.30240792
118	0x3ea36844	0.31915486
119	0x3e849968	0.2589829
120	0xbea1b334	-0.31582034
121	0x3e9a39ed	0.3012232
122	0x3e8bee8c	0.27330434
123	0x3e8997af	0.26873538
124	0xbe5fc22b	-0.21851413
125	0xbe8e8cd3	-0.27841815
126	0x3e8d26c2	0.27568632
127	0xbe8950c5	-0.26819435
128	0xbe65abec	-0.22428864
129	0x3ea171c8	0.3153212
130	0x3ea077ae	0.31341308
131	0xbe85f1dc	-0.26161087
132	0x3e981fe4	0.2971183
133	0x3e2c674d	0.16836281
134	0x3e8e5c0d	0.27804604
135	0xbe96cad8	-0.29451632
136	0xbe9596a2	-0.29216486
137	0xbe9e7316	-0.3094718
138	0xbe900642	-0.28129774
139	0x3e8d9ee4	0.27660286
140	0x3e987095	0.29773393
141	0xbda01158	-0.07815808
142	0x3e8e76a7	0.278249
143	0xbe12546c	-0.14290017
144	0x3ea1a873	0.3157383
145	0xbe9d352e	-0.30704635
146	0xbe9c7b37	-0.30562755
147	0x3e9aaea2	0.3021136
148	0x3e7ed6cb	0.24886625
149	0x3e9a5894	0.30145705
150	0xbea0f59a	-0.3143738
151	0xbe96ee6a	-0.2947877
152	0x3e9b45d7	0.3032672
153	0x3ea2341b	0.31680378
154	0xbe9401da	-0.28907663
155	0xbe872eb9	-0.26402834
156	0xbeac5fe9	-0.33666924
157	0xbe41fccf	-0.18944095
158	0xbea463e0	-0.3210745
159	0xbe5d5eb7	-0.21618162
160	0x3eaa6033	0.3327652
161	0x3e8a88bb	0.27057442
162	0xbe9b1d7d	-0.30295935
163	0xbe9cee9b	-0.30650792
164	0xbe73e2e1	-0.23817016
165	0xbe499eb5	-0.19689448
166	0x3e97359e	0.29533094
167	0xbea82914	-0.3284384
168	0x3e8e764f	0.27824637
169	0xbe594cb3	-0.21220665
170	0x3e9f922d	0.3116621
171	0x3e9f41a6	0.31104773
172	0xbe882eb6	-0.26598138
173	0x3e9696ec	0.2941202
174	0x3e9e5942	0.30927473
175	0xbe964336	-0.29348153
176	0x3e8cd49f	0.27505967
177	0xbe922eb7	-0.28551266
178	0xbe89c424	-0.26907456
179	0x3e9be377	0.3044698
180	0xbe978dad	-0.29600278
181	0xbe4409d9	-0.19144382
182	0xbe8bbc77	-0.27292225
183	0xbe27a38f	-0.16370986
184	0xbe825ca9	-0.2546132
185	0xbe541e7f	-0.20714758
186	0x3e9f2a61	0.3108702
187	0xbe602f00	-0.21892929
188	0xbe8b4afb	-0.27205643
189	0xbe57e890	-0.2108481
190	0xbe9b1981	-0.30292895
191	0x3ea3d3a0	0.31997395
192	0x3e9e24c9	0.3088744
193	0xbea0cadb	-0.31404766
194	0x3e992fb9	0.29919222
195	0xbe183e5c	-0.14867538
196	0xbe21aa2d	-0.15787573
197	0xbe679d12	-0.22618511
198	0xbe3a7298	-0.18207777
199	0x3e9fc86e	0.31207603
200	0xbe94f561	-0.2909346
201	0x3e97b238	0.29628158
202	0xbe85c533	-0.26127014
203	0xbdba68b8	-0.09102005
204	0xbea8f56b	-0.3299974
205	0x3e99f0e9	0.30066612
206	0xbe97ce00	-0.29649353
207	0xbe848e76	-0.2588994
208	0xbe87882c	-0.26471078
209	0xbe1ede6a	-0.15514532
210	0xbe8dd0f6	-0.27698487
211	0x3ea208ca	0.3164733
212	0x3ea0d569	0.3141282
213	0xbe7d7f0c	-0.24755496
214	0xbe800557	-0.25004074
215	0xbe6cbb4d	-0.23118325
216	0x3e97f229	0.2967694
217	0x3e935d0c	0.28781927
218	0xbe94a4e1	-0.29032043
219	0x3e753d7d	0.23949237
220	0x3e9b8b7c	0.30379856
221	0x3e990be8	0.29891896
222	0x3ea0350a	0.31290466
223	0x3e99330b	0.29921755
224	0xbe8f628c	-0.28004873
225	0xbea7accb	-0.32749018
226	0xbe660200	-0.224617
227	0xbe971230	-0.29506063
228	0x3e527a19	0.20554389
229	0xbea49ac5	-0.3214933
230	0xbe317079	-0.17328061
231	0xbe985ae2	-0.29756838
232	0x3e8d16ad	0.27556363
233	0xbe73b12c	-0.23798054
234	0xbe95f4dd	-0.29288378
235	0xbe3ef7e3	-0.18649249
236	0xbe9e6bdd	-0.30941668
237	0x3ea4795f	0.3212385
238	0x3e97d9e6	0.2965843
239	0x3e73c1e8	0.23804438
240	0xbe97efcd	-0.2967514
241	0xbe9384ad	-0.2881216
242	0xbe8a2a59	-0.26985434
243	0xbe9a073f	-0.30083653
244	0x3e94db52	0.29073578
245	0x3e9c66c0	0.30547142
246	0x3e8b5661	0.2721434
247	0xbe8ac3a0	-0.27102375
248	0xbe90c6fc	-0.28276813
249	0x3ea1f2de	0.31630605
250	0x3e9d153c	0.30680263
251	0x3e95d76c	0.29265916
252	0xbe9f426b	-0.3110536
253	0x3e9dd15e	0.30823797
254	0xbdd17cef	-0.10228907
255	0xbe8f8a6f	-0.28035304

weight f4 [6, 256]
0	0x3e588445	0.21144207
1	0x3e187671	0.14888932
2	0x3d8a4440	0.06751299
3	0x3df76aa2	0.120808855
4	0xbe2f0ece	-0.17095491
5	0x3e0a16e6	0.13485298
6	0x3e0d2281	0.13782693
7	0xbdce81e7	-0.10083371
8	0x3cbaf99f	0.022824107
9	0xbd513c11	-0.051082674
10	0x3e3bc7c7	0.18337928
11	0xbd45c90a	-0.04828743
12	0x3da14e60	0.07876277
13	0x3e01c007	0.12670909
14	0xbe1cf663	-0.15328364
15	0x3dda64d4	0.10663763
16	0xbc918cfa	-0.017767418
17	0xbdaf561b	-0.08561345
18	0xbe40fe58	-0.18847024
19	0x3daa5ab9	0.08318085
20	0x3db41196	0.08792417
21	0xbbb8ea21	-0.0056431447
22	0xbd4694ce	-0.048481755
23	0xbd9bc85f	-0.07606577
24	0x3d9a4b07	0.075338416
25	0xbd7ce739	-0.06174395
26	0x3d7e39eb	0.062066954
27	0x3ddf6f1a	0.10909863
28	0x3e5e3fb0	0.21703982
29	0xbdf1e724	-0.11811665
30	0xbdae0a62	-0.08498074
31	0xbd998098	-0.074952304
32	0xbda23de7	-0.07921963
33	0xbdc0632d	-0.09393916
34	0xbd0ecfb0	-0.034866035
35	0xbb128d37	-0.0022362003
36	0xbc44d9f8	-0.012014858
37	0x3c38e2a6	0.011284506
38	0x3d00f409	0.03148273
39	0xbe14fcf2	-0.14549616
40	0x3e0836e2	0.13302186
41	0xbbdc7e8c	-0.0067289528
42	0xbdec7411	-0.115455754
43	0xbce883ad	-0.0283831
44	0xbd947018	-0.07247943
45	0x3df1c1bb	0.11804529
46	0xbdfe598a	-0.12419422
47	0x3dbb494c	0.0914484
48	0x3ca2b814	0.019863166
49	0xbdf53cbd	-0.119744755
50	0xbe58539c	-0.21125644
51	0xbdfe64ba	-0.12421556
52	0x3e024f9a	0.12725678
53	0x3dfdc884	0.12391761
54	0x3956c426	0.00020481701
55	0x3d8d7c6b	0.069084965
56	0x3c4c25bb	0.0124601675
57	0x3e4cc747	0.19997893
58	0xbbbecce5	-0.005822765
59	0xbdadaaef	-0.084798686
60	0xbe16e283	-0.14734845
61	0xbd0c053e	-0.034184687
62	0x3d958a7c	0.073018044
63	0x3dd6c678	0.10487074
64	0x3d8b0136	0.0678734
65	0xbd90a698	-0.07063025
66	0xbd65f636	-0.05614301
67	0xbe2cb699	-0.1686653
68	0xbe1351f1	-0.14386727
69	0x3da96532	0.082712546
70	0x3c3d527e	0.011555312
71	0x3dab825d	0.08374474
72	0xbd285dda	-0.04110513
73	0xbdff8f6f	-0.1247853
74	0xbc209586	-0.009801274
75	0xbc255130	-0.010090157
76	0x3ccfaf85	0.025352249
77	0x3e12db6b	0.14341514
78	0xbbbe92f7	-0.0058158594
79	0xbd989b46	-0.07451491
80	0x3e167010	0.14691186
81	0xbe3ae567	-0.18251573
82	0xbe02c143	-0.12769036
83	0x3e3dff7c	0.18554491
84	0xbd3fcb1a	-0.046824552
85	0x3d29a310	0.041415274
86	0x3c8f1fba	0.017471183
87	0xbd47a89a	-0.048744775
88	0x3c7824ae	0.015145464
89	0x3d7d96c5	0.061911363
90	0x3c5e1c3b	0.013556535
91	0x3cdb2efb	0.0267558
92	0x3dd2e211	0.10297025
93	0xbdf4cea7	-0.11953478
94	0xbe0531e1	-0.13007309
95	0xbe3b49eb	-0.18289916
96	0x3e277297	0.16352306
97	0x3d1b3ee1	0.037901763
98	0x3d24b88d	0.040215064
99	0x3d837e24	0.06420544
100	0x3db29ad6	0.08720939
101	0x3ce1353e	0.027491208
102	0xbe1b5ffa	-0.15173331
103	0x3e4c8c46	0.19975385
104	0x3e18435c	0.14869446
105	0xbdd18819	-0.10231037
106	0xbd4e5e36	-0.050382815
107	0xbd4cc40c	-0.049991652
108	0x3de3bec1	0.11120368
109	0x3c03b7a4	0.008039389
110	0xbd8b6aaa	-0.06807454
111	0xbcf90fc9	-0.030403035
112	0x3e0dc970	0.13846374
113	0xbddfea5e	-0.10933374
114	0xbd48be70	-0.04900974
115	0xbd4fff43	-0.050780546
116	0x3d334338	0.043765277
117	0x3dccb2d0	0.09995043
118	0xbd72473b	-0.059149962
119	0x3e209730	0.15682673
120	0xbc3e4adf	-0.01161453
121	0xbcc5d695	-0.024150172
122	0xbe91a429	-0.28445557
123	0xbe7aab7e	-0.24479482
124	0xbd84b3e0	-0.06479621
125	0x3c83d2d3	0.01609174
126	0xbc3ec009	-0.011642464
127	0xbd7c216c	-0.06155531
128	0x3e0286dd	0.12746759
129	0xbdd21c16	-0.10259263
130	0xbdd9b852	-0.106308594
131	0x3e4d6e37	0.20061575
132	0xbe264728	-0.16238081
133	0xbe9683c1	-0.29397395
134	0x3da6423a	0.081181005
135	0xbde36f86	-0.11105256
136	0xbd0b1daa	-0.033963837
137	0x3d2050f0	0.039139688
138	0x3d7fa7e7	0.062415984
139	0xbe1245d6	-0.14284453
140	0xbe4e6627	-0.20156156
141	0x3e830b3b	0.25594506
142	0x3d05c10c	0.032654807
143	0x3d6735f0	0.056447923
144	0x3e0ff075	0.14056571
145	0x3a296b92	0.00064628676
146	0x3dfe2b6b	0.12410625
147	0xbe24788f	-0.16061614
148	0xbd927d28	-0.07152778
149	0xbe6007ca	-0.21877971
150	0xbd9fd8ca	-0.07805021
151	0xbc5705b7	-0.013123921
152	0x3c8399c4	0.016064532
153	0xbd91f2ab	-0.07126363
154	0x3ddbff8b	0.107421
155	0xbdc4accb	-0.0960327
156	0xbbb9f648	-0.005675111
157	0x3e0228bb	0.1271085
158	0x3d0a9f0b	0.03384308
159	0x3e22bb02	0.1589165
160	0x3c989a1b	0.01862817
161	0xbd96e633	-0.07368126
162	0xbd401d80	-0.046903133
163	0xbbc1c573	-0.0059134304
164	0xbd0785f8	-0.033086747
165	0x3d9b6322	0.075872675
166	0x3e00ca5a	0.12577191
167	0x3c1fd6eb	0.00975583
168	0xbe646e77	-0.22307764
169	0x3dbe3903	0.09288218
170	0x3c714366	0.014725542
171	0xbe345a74	-0.1761263
172	0xbdd09613	-0.101848744
173	0x3d47dc98	0.04879436
174	0x3e49b191	0.19696642
175	0xbdcbc5e1	-0.09949852
176	0xbe1320cd	-0.14367981
177	0x3e3951ff	0.18097685
178	0x3dad29ae	0.084552154
179	0xbb9ba19f	-0.0047494913
180	0xbd3a8e70	-0.045545995
181	0x3e6941c1	0.2277899
182	0xbd6f466f	-0.05841678
183	0x3d5b23b4	0.053500846
184	0xbd466e5e	-0.048445098
185	0x3d9381a7	0.072024636
186	0xbdd6ca2f	-0.10487782
187	0x3e26dc67	0.16295014
188	0xbdefb63e	-0.11704682
189	0x3d08a94f	0.03336459
190	0xbde3254e	-0.110911
191	0x3dcf4fd6	0.10122649
192	0x3c011c39	0.007880264
193	0xbcdd00b8	-0.026977882
194	0x3ca560d5	0.020187775
195	0x3d0a8d04	0.03382589
196	0xbe33985f	-0.17538594
197	0x3dfbab35	0.122885145
198	0xbd997b46	-0.07494216
199	0xb9a48776	-0.00031381444
200	0x3d0536cf	0.032522973
201	0x3e487560	0.19576025
202	0xbd53fc66	-0.051754378
203	0xbe4d51d1	-0.20050742
204	0xbd1c7978	-0.03820178
205	0xbe3a6a9c	-0.18204731
206	0x3c855f4b	0.01628079
207	0xbde7be9f	-0.11315655
208	0xbe097021	-0.1342168
209	0xbe29b55e	-0.16573092
210	0xbca02cf9	-0.019552695
211	0x3d4782db	0.048708778
212	0xbb9be94c	-0.0047580358
213	0xbd3393bc	-0.043842062
214	0x3d74aae9	0.059733305
215	0x3cb85313	0.02250055
216	0x3dfc9c12	0.123344555
217	0x3e27537e	0.16340443
218	0x3bb9b57a	0.0056673856
219	0xbe354d92	-0.17705372
220	0xbcc02942	-0.023457173
221	0xbe05cdf9	-0.13066854
222	0xbe6236dc	-0.2209124
223	0x3daaae3a	0.08334012
224	0xbdfb7fa6	-0.122802064
225	0x3a54ab1d	0.0008112656
226	0xbc8e4313	-0.017365968
227	0x3c6e803e	0.0145569425
228	0x3e795680	0.24349403
229	0xbdcd5086	-0.10025124
230	0x3c401dd2	0.01172586
231	0x3c6c7715	0.014432688
232	0x3e5e21fb	0.2169265
233	0xbd029ae9	-0.031886015
234	0x3e14ba72	0.14524248
235	0xbd313d79	-0.043271516
236	0xbcfe72e8	-0.031060651
237	0xbd866d0a	-0.06563766
238	0xbe0c5f0c	-0.13708133
239	0x3e6ccb8e	0.23124525
240	0xbd3fd2d6	-0.04683193
241	0x3db68264	0.08911589
242	0xbcb2f61a	-0.021845866
243	0xbd89901d	-0.067169406
244	0x3cfec330	0.031098932
245	0x3e576469	0.21034397
246	0xbe3d8f53	-0.18511705
247	0xbdc6db7e	-0.097098336
248	0x3acd2892	0.001565235
249	0x3c8aabcc	0.016927622
250	0xbd09fda4	-0.033689156
251	0x3dce6946	0.10078673
252	0xbdc7ef1e	-0.09762405
253	0xbdd89df2	-0.10577001
254	0xbcbb4c26	-0.022863459
255	0xbdd8c7e0	-0.10584998

bias f4 [6]
0	0x3d88451d	0.06653807
1	0x3d8e26b2	0.06940974
2	0x3cd04b4f	0.025426535
3	0xb853cd62	-5.0497598e-05
4	0x3c93aa20	0.018025458
5	0x3d3d6955	0.04624303
