models/adi_network_hk_1a.pth (torch, 424148 bytes, 7 tensors)

weight f4 [256, 144]
-0.039065126 0.093927234 -0.09368739 0.071792014 0.007533468 -0.092690274 0.07018335 0.07885555
0.07549483 -0.009069296 0.0117877815 0.1429043 -0.034311805 0.017132586 -0.052298225 0.062916346
-0.042157773 -0.070509054 0.16411419 0.013350117 -0.047273148 0.029681759 0.11489612 0.006110995
-0.082029685 0.10702851 -0.11549778 -0.01854403 -0.039369185 0.07553504 -0.05891157 0.0280293
0.12399644 0.08251474 0.07339929 0.12661314 -0.056051064 0.17945239 0.035936754 0.09255471
0.087910324 0.0039928975 -0.12571946 -0.1064706 -0.010850907 0.04135398 0.13171038 0.055320274
0.050436385 0.052686986 -0.01855005 0.033801693 0.079154216 0.045109376 0.0560307 0.015442569
-0.042621084 -0.00350296 -0.10933252 0.05025187 0.03329917 -0.01676559 0.039580468 0.04356142
0.06923338 0.007709592 0.08009802 0.0299603 0.024428641 0.01484149 0.04887151 0.0081500765
0.08929216 0.050786365 0.091976576 -0.050155353 0.05557071 0.005517316 -0.02853693 -0.008466435
0.10897137 0.05905191 0.032761954 0.014216754 -0.021112554 -0.05962413 0.01467991 -0.02478143
0.08179231 0.027219621 -0.03234426 -0.011729437 0.04058555 -0.081227325 -0.049592797 0.049082164
0.14461301 -0.04213383 0.03150568 0.10699524 -0.052664045 -0.025894243 0.10929336 -0.09448336
0.0712598 0.10193764 -0.19014838 0.06503402 0.14971586 -0.0013726766 0.028376339 -0.0949778
0.04390434 -0.020204602 -0.046791025 0.07588375 0.05673887 -0.03473895 -0.010880758 -0.076947406
0.016561124 0.13596651 0.07780405 0.023248263 0.0019534787 0.05131455 0.013321069 -0.0036514595
0.16872515 -0.033614576 -0.045959014 0.13244788 -0.008118208 0.05366326 0.06925785 0.07314399
0.045096464 -0.018190857 -0.07019845 0.02535217 -0.004873575 -0.020449817 -0.016910303 0.031998392
0.15268685 -0.0788109 0.029607091 -0.018020611 0.0006345243 -0.1193291 0.15102257 0.07188305
-0.118146986 -0.034616694 0.025501642 0.09218561 -0.10488881 0.06728027 0.02730381 0.033397794
0.10998265 -0.00020243268 -0.052684058 0.036045235 0.07464594 0.010556707 -0.020162608 0.062892035
-0.059233118 0.0058319164 0.032995727 -0.016802976 0.007923933 0.089197144 0.117024116 0.025699314
-0.06625555 0.04501849 -0.022804437 -0.024991594 0.06611529 0.005074148 0.08212979 0.037731268
-0.0831771 0.10034087 -0.051609993 -0.024207273 0.030856121 0.0707044 0.013112073 -0.0041179913
0.02915442 -0.019315843 0.07735459 0.036695387 0.027926957 0.10076125 0.0831102 0.087918855
-0.082884856 0.09260625 0.101251826 0.0216436 -0.10799002 0.020806342 -0.027009979 0.015325709
-0.028344762 0.12893693 0.033602986 0.11577858 0.020222532 0.039065793 0.05955469 -0.0015590348
0.019585483 0.021192422 0.07861846 0.099122316 0.05794199 0.026329465 0.016266223 0.027438438
0.10696912 -0.024865823 -0.006379624 0.089475095 -0.11025735 0.16469853 0.102378204 0.054066155
0.02450492 -0.08200221 0.00027847817 0.017402144 0.042741165 0.066059336 0.034500167 -0.050417967
-0.055410173 0.013954939 0.14022446 -0.008482011 0.12295441 -0.03373893 -0.05345411 0.025933905
0.11859128 0.039917227 -0.013904244 -0.10642521 0.11778102 0.051419016 -0.17108442 -0.06637139
00000000: c102 20bd ec5c c03d 2ddf bfbd b107 933d
00000010: 4fdb f63b 66d4 bdbd 4abc 8f3d 057f a13d
00000020: 099d 9a3d 6297 14bc 8a21 413c 8155 123e
00000030: 898a 0cbd a359 8c3c aa36 56bd 49da 803d
00000040: a1ad 2cbd 0d67 90bd 8d0d 283e 73ba 5a3c
00000050: 7da1 41bd 2927 f33c a84e eb3d be3e c83b
00000060: 2eff a7bd c331 db3d 1a8a ecbd a6e9 97bc
00000070: 9541 21bd 1db2 9a3d 424d 71bd b49d e53c
00000080: d8f1 fd3d 7dfd a83d 5e52 963d e0a6 013e
00000090: cd95 65bd 5ec2 373e 6b32 133d 538d bd3d
000000a0: 540a b43d dad6 823b 9abc 00be 420d dabd
000000b0: 01c8 31bc ca62 293d 16df 063e 8397 623d
000000c0: 6296 4e3d 4fce 573d 46f6 97bc a573 0a3d
000000d0: 9b1b a23d 9cc4 383d 7380 653d d402 7d3c
000000e0: 7293 2ebd eb91 65bb bae9 dfbd e8d4 4d3d
000000f0: b664 083d fe57 89bc 211f 223d 766d 323d
00000100: 3bca 8d3d bfa0 fc3b 6e0a a43d 4e6f f53c
00000110: 931e c83c b929 733c 7e2d 483d e687 053c
00000120: cfde b63d 5d05 503d 375e bc3d b36f 4dbd
00000130: 1d9e 633d 9aca b43b 48c6 e9bc cdb6 0abc
00000140: 622c df3d 6ae0 713d 6631 063d 63ed 683c
00000150: 3cf4 acbc 6f38 74bd 0184 703c 6d02 cbbc
00000160: ba82 a73d affb de3c 6a7b 04bd d32c 40bc
00000170: 093d 263d 835a a6bd d121 4bbd 610a 493d
00000180: 6f15 143e 8694 2cbd 1a0c 013d 5220 db3d
00000190: 41b6 57bd 2a20 d4bc 32d5 df3d 7e80 c1bd
000001a0: a8f0 913d aec4 d03d 42b6 42be 8e30 853d
000001b0: 1d4f 193e 62eb b3ba 7f75 e83c b983 c2bd
000001c0: 0ad5 333d 1f84 a5bc f2a7 3fbd f168 9b3d
000001d0: 0467 683d 6e4a 0ebd 3545 32bc 9a96 9dbd
000001e0: 32ab 873c ce3a 0b3e bb57 9f3d 2473 be3c
000001f0: ef05 003b 352f 523d 9d40 5a3c 534d 6fbb
00000200: 49c6 2c3e 70af 09bd 853f 3cbd 6ba0 073e
00000210: 3b02 05bc 02ce 5b3d 0fd7 8d3d 84cc 953d
00000220: 12b7 383d fe04 95bc 34c4 8fbd 5baf cf3c
00000230: 83b2 9fbb 6086 a7bc 7a87 8abc bf10 033d
00000240: f159 1c3e 9c67 a1bd 928a f23c f69f 93bc
00000250: 3456 263a d162 f4bd a9a5 1a3e 6c37 933d
00000260: 0cf7 f1bd 3cca 0dbd d2e8 d03c cfcb bc3d
00000270: f2cf d6bd 3dca 893d 3dac df3c 20cc 083d
00000280: 953e e13d 1c44 54b9 3dcb 57bd 2ba4 133d
00000290: f8df 983d 0af6 2c3c 0e2c a5bc 8acd 803d
000002a0: 6d9e 72bd a919 bf3b 8726 073d 65a6 89bc
000002b0: 62d3 013c feac b63d 57aa ef3d 5e87 d23c
000002c0: fdb0 87bd 4f65 383d 5fd0 babc 2cbb ccbc
000002d0: 7467 873d 0a45 a63b aa33 a83d 1a8c 1a3d
000002e0: c158 aabd 847f cd3d 0065 53bd 554e c6bc
000002f0: fac5 fc3c 78cd 903d 05d4 563c 37f0 86bb
00000300: 40d5 ee3c 423c 9ebc 156c 9e3d e74d 163d
00000310: 13c7 e43c ea5b ce3d ae35 aa3d cd0e b43d
00000320: 89bf a9bd 58a8 bd3d 1e5d cf3d eb4d b13c
00000330: df29 ddbd 1072 aa3c 0844 ddbc af18 7b3c
00000340: 4633 e8bc 0b08 043e 49a3 093d 521d ed3d
00000350: b9a9 a53c 7403 203d 9eef 733d 8758 ccba
00000360: bc71 a03c bb9b ad3c b702 a13d a400 cb3d
00000370: 9554 6d3d e4b0 d73c be40 853c 93c6 e03c
00000380: a012 db3d 69b3 cbbc 2a0c d1bb b83e b73d
00000390: 9bce e1bd bba6 283e aaab d13d 7974 5d3d
000003a0: 8bbe c83c c6f0 a7bd b500 9239 f18e 8e3c
000003b0: 5c11 2f3d 1e4a 873d 0c50 0d3d 1283 4ebd
000003c0: c7f5 62bd 42a3 643c 0097 0f3e 22f8 0abc
000003d0: 86cf fb3d d531 0abd b2f2 5abd 5773 d43c
000003e0: fcdf f23d 3f80 233d a0ce 63bc 76f5 d9bd
000003f0: 2d37 f13d bf9c 523d c130 2fbe b9ed 87bd

bias f4 [256]
0.07972433 -0.012842043 -0.06685856 0.07369488 0.033468977 -0.07011996 0.07794562 0.05672079
-0.0009581793 -0.013598703 0.056847975 0.039751768 0.012453688 -0.09064651 0.023997381 0.00041991554
-0.024538 0.010350673 -0.011063005 0.08564422 -0.02586641 0.05089298 0.11610129 0.024733597
0.025867084 -0.020041838 -0.0785885 0.06955966 0.06791713 0.023803364 -0.012489027 0.024849802
-0.011289198 -0.00982522 -0.053936705 0.10929117 -0.0569446 0.017772444 -0.008290836 0.09078142
0.066446915 0.08784004 0.046045527 -0.002077249 0.023050008 0.06205892 -0.10129994 0.0014363165
0.009611775 -0.08511116 0.15204355 0.039774872 -0.0040531433 0.10762911 0.05049565 0.037574872
-0.060759284 -0.013226885 -0.08362905 0.079835825 0.08782411 0.038349055 -0.10135833 -0.02177462
-0.0075812223 0.031607658 -0.010650168 -0.07378402 0.04105 -0.04354885 0.0933417 0.038706157
-0.015998458 -0.033417728 0.019490518 -0.055606313 0.025777755 -0.02721104 -0.045739677 -0.03379971
0.02352228 -0.07486605 -0.07899685 -0.006354315 -0.09652477 0.04280687 -0.038646504 0.07049247
0.08980131 0.040943492 -0.025522105 -0.00037963712 0.02104238 -0.030166764 -0.005982477 0.010733012
0.064526856 0.036879577 0.042375147 0.08632624 -0.035701226 0.09865968 0.10227749 -0.025681376
-0.08950469 -0.09524535 0.101379365 -0.013086993 -0.06083496 -0.05252859 0.0030908724 0.037933305
-0.038418543 0.069973715 -0.038000453 -0.022751996 0.08718086 0.10394849 -0.050237205 0.125851
-0.04514192 -0.08930407 0.049310412 0.013503525 0.067862876 -0.04380285 -0.03332656 -0.0326954
0.01059464 -0.025589898 0.023744935 -0.055455733 -0.09532815 0.068343356 0.051708624 -0.07167075
0.058409877 -0.008980611 0.016641805 -0.023821367 -0.03726566 -0.13664325 0.042626683 -0.00054772705
0.083735794 -0.037112903 -0.019786533 -0.10447792 0.012794475 -0.06411013 -0.09492688 0.04485362
-0.06551656 -0.00406658 -0.073402666 0.09249466 -0.05597283 -0.023008497 -0.1017249 0.05087003
0.0700671 -0.00907033 -0.023004089 -0.05440778 -0.051223733 0.018249145 -0.07373383 0.079345085
0.061881218 0.058867473 -0.030084765 -0.052707333 -0.08352321 -0.07090305 -0.063736975 0.046330918
-0.050071485 -0.09007868 -0.12674527 -0.037401307 -0.08620638 0.013867429 0.032182273 -0.05966362
-0.0077304025 0.053837903 0.038079433 -0.051882345 -0.04738153 0.077325016 0.011795536 -0.06926322
0.09735716 -0.07963481 -0.05577187 -0.07378188 0.07485168 -0.105288334 0.048595373 -0.031409275
0.011861151 -0.09571125 -0.0948638 0.03206737 -0.017457979 0.019056968 0.024903292 0.038004413
0.05081979 0.022767752 0.03284625 0.020738099 -0.0010612616 -0.05724789 -0.038944595 -0.010981542
0.0874701 -0.07939772 0.0030822773 0.039929494 -0.109109044 0.08435782 0.05872047 -0.0075586922
-0.034297217 -0.064400755 -0.052557226 -0.05532678 -0.012833225 0.025308799 -0.05429566 0.008765166
0.0918774 -0.05796397 -0.031627253 -0.01489006 0.06297184 0.0044699972 0.10773081 0.018858353
-0.03721421 -0.01689705 0.06522189 -0.0787529 0.07276085 0.005649724 0.119551115 -0.092291355
-0.024436863 0.0089606615 0.023435924 -0.03578422 -0.023691785 -0.0869378 -0.0072579603 -0.047638398
00000000: 8246 a33d 6f67 52bc 24ed 88bd 57ed 963d
00000010: c416 093d 0e9b 8fbd f4a1 9f3d 0f54 683d
00000020: 532e 7bba 18cd 5ebc 6cd9 683d c0d2 223d
00000030: 8e0a 4c3c e1a4 b9bd 2896 c43c 1c28 dc39
00000040: ea03 c9bc df95 293c 9b41 35bc 3d66 af3d
00000050: cbe5 d3bc 2875 503d 83c6 ed3d 1d9e ca3c
00000060: 35e7 d33c c82e a4bc 02f3 a0bd 4c75 8e3d
00000070: 2318 8b3d 46ff c23c c79e 4cbc d091 cb3c
00000080: 54f6 38bc f6f9 20bc bcec 5cbd 0dd4 df3d
00000090: be3e 69bd 8497 913c 49d6 07bc 9ceb b93d
000000a0: 5215 883d 7be5 b33d 3c9a 3c3d 7522 08bb
000000b0: 5fd3 bc3c 7e31 7e3d 5876 cfbd c942 bc3a
000000c0: b57a 1d3c c34e aebd 4eb1 1b3e faea 223d
000000d0: 3bd0 84bb a76c dc3d 87d4 4e3d 1ce8 193d
000000e0: bade 78bd 94b5 58bc b545 abbd f780 a33d
000000f0: 21dd b33d e613 1d3d f594 cfbd b060 b2bc
00000100: e76b f8bb 0877 013d 0b7e 2ebc 141c 97bd
00000110: 0b24 283d 4760 32bd ef29 bf3d 598a 1e3d
00000120: 330f 83bc 07e1 08bd 94aa 9f3c 72c3 63bd
00000130: df2b d33c b0e9 debc 8759 3bbd 9171 0abd
00000140: ccb1 c03c 5f53 99bd 1ac9 a1bd dc37 d0bb
00000150: c7ae c5bd 4256 2f3d cc4b 1ebd 5b5e 903d
00000160: c0e9 b73d 5db4 273d bc13 d1bc 080a c7b9
00000170: 1261 ac3c 4a20 f7bc a808 c4bb 84d9 2f3c
00000180: a826 843d 0a0f 173d 9091 2d3d d0cb b03d
00000190: 733b 12bd 160e ca3d dc76 d13d c061 d2bc
000001a0: 3c4e b7bd fe0f c3bd fc9f cf3d d46a 56bc
000001b0: 142e 79bd 3828 57bd 3c90 4a3b f45f 1b3d
000001c0: c35c 1dbd 614e 8f3d 5da6 1bbd 6562 babc
000001d0: e18b b23d f2e2 d43d 87c5 4dbd 16df 003e
000001e0: bce6 38bd 0de5 b6bd b7f9 493d e43d 5d3c
000001f0: b1fb 8a3d 9e6a 33bd 6e81 08bd 9deb 05bd
00000200: 2495 2d3c e8a1 d1bc bd84 c23c 8d25 63bd
00000210: 683b c3bd 9af7 8b3d 6ccc 533d 1dc8 92bd
00000220: 323f 6f3d 6a23 13bc 6554 883c 0725 c3bc
00000230: e0a3 18bd 35ec 0bbe 5199 2e3d 5795 0fba
00000240: ac7d ab3d b303 18bd 5e17 a2bc 85f8 d5bd
00000250: eb9f 513c 2c4c 83bd 0669 c2bd 6eb8 373d
00000260: 8c2d 86bd f240 85bb 2354 96bd d76d bd3d
00000270: c443 65bd 517c bcbc 2555 d0bd 185d 503d
00000280: 577f 8f3d b99b 14bc 1273 bcbc b1da 5ebd
00000290: facf 51bd 3b7f 953c c301 97bd ad7f a23d
000002a0: 2977 7d3d 051f 713d 5374 f6bc a5e3 57bd
000002b0: 370e abbd 9e35 91bd 8888 82bd 7dc5 3d3d
000002c0: c217 4dbd 2c7b b8bd 83c9 01be 1d32 19bd
000002d0: f88c b0bd 3734 633c 8fd1 033d d761 74bd
000002e0: 514f fdbb 2285 5c3d 2ef9 1b3d 9582 54bd
000002f0: 2313 42bd 945c 9e3d 1042 413c e0d9 8dbd
00000300: 3163 c73d 9317 a3bd 0b71 64bd f41a 97bd
00000310: d64b 993d 69a1 d7bd f10b 473d 03a7 00bd
00000320: 4655 423c 4304 c4bd f447 c2bd 1359 033d
00000330: 0904 8fbc 5c1d 9c3c fd01 cc3c 84aa 1b3d
00000340: 6a28 503d 7083 ba3c ca89 063d f2e2 a93c
00000350: 081a 8bba c37c 6abd 5e84 1fbd edeb 33bc
00000360: 8623 b33d 469b a2bd 0800 4a3b 1c8d 233d
00000370: 9074 dfbd cbc3 ac3d e084 703d e8ae f7bb
00000380: 3d7b 0cbd 8be4 83bd 3f46 57bd 559e 62bd
00000390: 7242 52bc 6654 cf3c 2065 5ebd c59b 0f3c
000003a0: 382a bc3d a16b 6dbd 948b 01bd 70f5 73bc
000003b0: 61f7 803d 0e79 923b f9a1 dc3d d57c 9a3c
000003c0: ed6d 18bd af6b 8abc 0e93 853d 3349 a1bd
000003d0: a403 953d 5221 b93b 37d7 f43d 4003 bdbd
000003e0: d12f c8bc bdcf 123c b2fc bf3c 7992 12bd
000003f0: 4615 c2bc 720c b2bd 2fd4 edbb 7b20 43bd

weight f4 [256, 256]
-0.024191905 0.070092514 0.008344689 0.0112077 -0.0076211044 0.09564595 0.022289382 -0.015096319
-0.043474443 -0.01546285 -0.009503751 -0.045190454 0.013298045 -0.03521328 -0.08227118 0.07339039
-0.011588516 0.01233949 -0.04155274 0.027932618 0.0055098147 -0.05533652 -0.12493836 0.06313317
-0.0128328055 -0.024631621 -0.049166568 0.08362032 0.0020775322 0.16594192 0.08800255 -0.012231528
0.017054865 -0.03869547 0.06464968 -0.005000692 0.032369584 -0.030531127 -0.09505874 0.0011555668
-0.104060866 -0.047805987 -0.05884201 0.12789144 -0.101642676 0.005814827 0.08234763 -0.028846376
-0.027756827 0.049377494 -0.050190315 -0.014112618 -0.04370699 -0.10745998 -0.049224522 0.05859069
-0.06370549 0.11733655 0.04267085 -0.056741845 -0.10749739 -0.08072697 0.05999717 0.047697768
0.023671743 -0.005001808 -0.0066222483 0.039017703 -0.06391166 0.030826153 -0.059028372 -0.03171696
0.05526489 0.09880282 -0.08636147 0.009843335 -0.0010820687 -0.019709766 0.022965882 0.07503041
-0.027410371 0.07639738 0.0029722569 -0.015361276 0.07379603 -0.05571629 0.030600775 -0.015069942
-0.06554299 0.047165148 -0.044933468 -0.025410617 0.025037372 -0.0072252452 0.11426305 -0.038151894
0.025534142 -0.025899887 -0.068098575 -0.13449548 -0.11796229 -0.010009341 -0.030891487 0.06520318
0.090536624 0.008589634 0.025227664 -0.027383754 0.05396609 0.043297052 -0.013336403 0.06593517
0.11627071 -0.008377526 0.013795078 0.008601491 -0.060275804 -0.11605962 0.002811342 -0.103149116
-0.043582812 -0.043970127 -0.00781637 -0.007853983 0.005952097 -0.057741977 -0.026250185 -0.033685077
0.007943377 0.06295303 -0.10687922 0.06576704 0.08216047 -0.059780072 -0.04159511 -0.03787183
-0.01904736 0.011246197 -0.10570283 -0.010281346 0.10984421 0.064286284 -0.052970085 0.07200942
-0.05505569 0.048214704 -0.004311277 -0.06763265 -0.07559872 0.020209782 0.095470615 -0.108423986
0.01939998 0.020041447 0.051968843 -0.024303924 0.024774294 0.054164205 0.057739474 -0.05275853
-0.06770326 0.06639657 0.08132124 0.0025529326 0.00013568411 -0.022941845 -0.13955687 -0.05067256
0.0154465465 0.03605257 -0.09644041 -0.048808467 0.048511643 0.019164188 -0.0009792969 0.035434544
0.028812025 -0.008755925 0.013680439 0.0044651343 0.056753647 -0.012537383 -0.051331196 0.09646076
-0.009840617 0.019755837 0.031382278 0.052812263 0.024665859 -0.037743777 -0.11527847 0.06988375
-0.09965096 -0.032375123 -0.1018704 0.038977664 -0.00089419394 0.08466322 -0.015673352 -0.12574549
0.048584506 0.028819941 0.0036992286 -0.10823485 0.077686585 0.08056557 -0.06793367 0.0018642634
0.02238082 -0.023642972 -0.019664917 -0.018933699 0.05556564 0.09255179 0.10893774 0.01002943
-0.025082627 -0.01266895 0.03952078 0.0027692341 0.09126628 -0.011017534 -0.09674421 -0.006237653
-0.04113361 0.07645876 0.068907 -0.05215352 0.1103908 -0.11378789 0.024262182 0.092498474
-0.04719567 0.02398523 0.009492698 -0.11931556 -0.007273191 -0.01332286 -0.0885556 -0.087748885
-0.015172109 0.10646081 -0.009921194 0.07896784 -0.04472477 0.055034354 -0.0758757 0.033530597
0.06590251 0.086852856 0.07355322 0.09283134 -0.0030746784 0.0969104 -0.01577241 -0.04359644
00000000: 1a2e c6bc aa8c 8f3d 2ab8 083c 80a0 373c
00000010: 75ba f9bb 06e2 c33d 3998 b63c 8d56 77bc
00000020: 4212 32bd e557 7dbc 9fb5 1bbc a019 39bd
00000030: 0be0 593c cd3b 10bd cb7d a8bd b34d 963d
00000040: c2dd 3dbc 922b 4a3c 3533 2abd f2d2 e43c
00000050: ad8b b43b 8ca8 62bd afdf ffbd f74b 813d
00000060: b040 52bc 41c8 c9bc e262 49bd 2141 ab3d
00000070: 3527 083b aeec 293e ae3a b43d bf66 48bc
00000080: a5b6 8b3c 247f 1ebd 0d67 843d d8dc a3bb
00000090: f895 043d 6a1c fabc 28ae c2bd 6376 973a
000000a0: dd1d d5bd 36d0 43bd 5204 71bd f9f5 023e
000000b0: 092a d0bd 4e8a be3b e0a5 a83d 3c4f ecbc
000000c0: 4962 e3bc 0e40 4a3d 5c94 4dbd 9c38 67bc
000000d0: 1a06 33bd fa13 dcbd a79f 49bd cbfc 6f3d
000000e0: 0678 82bd 254e f03d a1c7 2e3d 236a 68bd
000000f0: 9727 dcbd 2f54 a5bd 98bf 753d bc5e 433d
00000100: 3eeb c13c 35e6 a3bb 72ff d8bb 07d1 1f3d
00000110: 1ee4 82bd 2187 fc3c bcc7 71bd a5e9 01bd
00000120: 705d 623d 2259 ca3d 48de b0bd f045 213c
00000130: 33d4 8dba 6076 a1bc f222 bc3c 8ba9 993d
00000140: b78b e0bc 3b76 9c3d 32ca 423b ddad 7bbc
00000150: 5f22 973d c436 64bd 7aae fa3c ebe7 76bc
00000160: 673b 86bd 3e30 413d 280c 38bd ed29 d0bc
00000170: 2d1b cd3c c0c1 ecbb bf02 ea3d 2945 1cbd
00000180: fa2c d13c 002c d4bc 4477 8bbd 2fb9 09be
00000190: 3796 f1bd 38fe 23bc 2510 fdbc 3f89 853d
000001a0: 446b b93d 89bb 0c3c 3faa ce3c e553 e0bc
000001b0: 8c0b 5d3d 4058 313d ee80 5abc 0509 873d
000001c0: 571f ee3d e441 09bc c004 623c 45ed 0c3c
000001d0: c3e3 76bd abb0 edbd 7e3e 383b d83f d3bd
000001e0: e483 32bd 051a 34bd 3b10 00bc fead 00bc
000001f0: cf09 c33b da82 6cbd a10a d7bc 5df9 09bd
00000200: f024 023c 85ed 803d 7ee3 dabd dfb0 863d
00000210: c043 a83d f3db 74bd a25f 2abd 7e1f 1bbd
00000220: 3609 9cbc f841 383c ba7a d8bd 1773 28bc
00000230: 00f6 e03d 87a8 833d 29f7 58bd ad79 933d
00000240: 1382 61bd c87c 453d 9d45 8dbb fd82 8abd
00000250: 80d3 9abd fc8e a53c 1986 c33d 650d debd
00000260: b5ec 9e3c f62d a43c 48dd 543d 0619 c7bc
00000270: 76f3 ca3c 49db 5d3d 3a80 6c3d 5419 58bd
00000280: 02a8 8abd edfa 873d c08b a63d 1a4f 273b
00000290: 6d46 0e39 89f0 bbbc ffe7 0ebe 088e 4fbd
000002a0: 8313 7d3c dcab 133d 8d82 c5bd 63eb 47bd
000002b0: 25b4 463d 37fe 9c3c c05b 80ba d023 113d
000002c0: 3207 ec3c 0375 0fbc ec23 603c 4350 923b
000002d0: 8376 683d 9869 4dbc a940 52bd 388d c53d
000002e0: 8a3a 21bc fed6 a13c b48a 003d ac51 583d
000002f0: 0e10 ca3c 3899 1abd 1e17 ecbd 361f 8f3d
00000300: cd15 ccbd c79b 04bd 6ea1 d0bd 0ba7 1f3d
00000310: 5768 6aba e963 ad3d 6765 80bc 6dc3 00be
00000320: 8c00 473d cc17 ec3c c26e 723b 3caa ddbd
00000330: 251a 9f3d 90ff a43d cf20 8bbd 4d5a f43a
00000340: fb57 b73c e8ae c1bc 5218 a1bc d81a 9bbc
00000350: cc98 633d cb8b bd3d c01a df3d 7a52 243c
00000360: 157a cdbc 6d91 4fbc 8be0 213d 0a7c 353b
00000370: d1e9 ba3d e382 34bc d421 c6bd 3a65 ccbb
00000380: b77b 28bd 6996 9c3d 1d1f 8d3d ee9e 55bd
00000390: 9214 e23d a009 e9bd 7cc1 c63c d76f bd3d
000003a0: 3f50 41bd ac7c c43c 4387 1b3c b75b f4bd
000003b0: f353 eebb 2048 5abc a35c b5bd b0b5 b3bd
000003c0: 7094 78bc 2008 da3d 818c 22bc e4b9 a13d
000003d0: 5231 37bd b46b 613d b864 9bbd 6157 093d
000003e0: e5f7 863d e9df b13d 12a3 963d 5c1e be3d
000003f0: 8b80 49bb f678 c63d 2435 81bc 2e92 32bd

bias f4 [256]
-0.08672056 -0.05648379 -0.052726198 0.03328189 -0.0123616755 0.007168177 0.04164866 0.11083702
-0.007297471 -0.051011935 -0.015706224 0.10159795 -0.04700616 -0.0010675498 -0.08491265 0.029358711
-0.028925214 -0.075611115 0.04005001 -0.04497496 -0.011647999 -0.0633658 0.09091953 0.02047337
0.0020822976 -0.020210993 -0.046842456 -0.08546376 0.027643593 0.021434873 -0.067315415 0.046136342
-0.021985162 0.07228578 0.06283717 0.0026782209 -0.016854113 -0.09667385 -0.0196696 -0.031978454
-0.06148782 0.0290692 0.08459769 0.06053438 0.09540025 -0.08131088 0.08661222 -0.014216244
-0.07242695 0.0050340113 -0.06832739 0.12113794 0.021547435 0.00013516864 0.0075294673 -0.056360155
-0.011543572 0.034258425 -0.020598289 -0.02894504 0.025706215 -0.029173873 -0.028998373 -0.0092006335
0.064432755 0.02480646 0.019509172 -0.006274822 0.047457647 -0.0041459417 0.047435615 0.06421313
-0.012965931 -0.009479048 0.009167927 -0.0057564587 -0.0048669125 0.031678084 0.020529278 -0.045408335
0.057902563 0.03529911 0.06739034 0.0028448456 -0.0916693 0.10440001 0.01735918 -0.08846925
-0.087729506 0.064838976 -0.057628896 0.108578905 -0.017750416 -0.043532003 0.040555477 -0.058631506
0.10903646 0.027829507 0.023497263 -0.014745316 -0.062214743 0.05381943 -0.026013754 0.11699305
-0.018392626 0.013039518 0.0780824 0.061513267 0.044850674 -0.09429588 0.034820136 -0.031187905
0.017681228 0.017419685 -0.08161855 -0.038399335 0.07581656 0.06237174 -0.072137676 -0.02998454
-0.024668297 -0.067053914 0.03614989 -0.022357864 0.08805172 -0.07865228 -0.1279348 -0.035556555
-0.04223913 -0.08857292 0.070049904 -0.09286245 0.06316976 -0.04032051 -0.07873995 -0.023349266
0.0750879 -0.063112654 -0.07843935 0.111345805 -0.03239789 0.06208745 0.08344695 -0.05943206
0.02661287 -0.004756575 0.09035763 0.013629403 -0.0061769974 -0.028923128 0.08693537 0.006903909
-0.059336256 0.021730676 -0.12240888 0.11216638 0.023000998 0.059657227 0.12968187 -0.028558204
0.066568404 0.031139335 -0.050746877 0.022137785 -0.0024440621 -0.0019895663 0.051602382 -0.03093779
0.08439582 -0.03256409 0.00856913 -0.014545212 -0.08996817 -0.049917832 -0.09725607 -0.06470652
-0.01673807 0.017344814 0.0026557653 -0.06697641 -0.008376329 -0.030003987 -0.025654104 0.12888166
0.059172455 0.012111985 -0.082625456 0.11180428 0.0006005351 -0.042978358 0.05590968 0.1058772
-0.046173565 -0.05061807 -0.09553418 0.060421057 0.023934346 -0.10084889 0.012055624 0.01447273
-0.0933635 -0.010068972 0.017138265 -0.01202201 0.032584958 -0.087809935 0.08190981 -0.023462774
-0.0102587445 -0.08113929 -0.03190364 0.004043674 -0.07192736 -0.046661697 -0.034153283 -0.07341153
-0.13804495 0.021017868 -0.11516071 -0.04328419 -0.08825753 -0.102603525 0.04822971 0.044614196
-0.014536308 -0.0040687597 -0.081586346 0.04078825 -0.07604759 0.03551145 -0.06246981 -0.027436892
-0.020807661 -0.043605283 -0.049508598 0.022173285 0.030007448 0.00047794243 0.10425796 0.008188894
0.001779212 -0.10121357 -0.04280017 0.09461812 -0.07611078 -0.10633091 0.00036617514 -0.018516323
-0.016366499 -0.02393664 0.044968832 -0.04374977 -0.038958408 0.11311625 -0.036735836 0.052457027
00000000: 8d9a b1bd 8c5b 67bd 6df7 57bd 9752 083d
00000010: a088 4abc 07e3 ea3b c997 2a3d 85fe e23d
00000020: a01f efbb e4f1 50bd 57aa 80bc 9612 d03d
00000030: 8889 40bd 07ed 8bba afe6 adbd ae81 f03c
00000040: 92f4 ecbc 00da 9abd 7b0b 243d aa37 38bd
00000050: 40d7 3ebc eec5 81bd 0534 ba3d c5b7 a73c
00000060: 2877 083b 8691 a5bc e0dd 3fbd a007 afbd
00000070: d174 e23c 3098 af3c aadc 89bd 76f9 3c3d
00000080: 3a1a b4bc 910a 943d c6b0 803d 1785 2f3b
00000090: a311 8abc f1fc c5bd 2422 a1bc d7fb 02bd
000000a0: a7da 7bbd 8822 ee3c 8e41 ad3d e6f2 773d
000000b0: 3561 c33d 5286 a6bd bf61 b13d 40eb 68bc
000000c0: 9554 94bd 59f4 a43b 3bef 8bbd 2b17 f83d
000000d0: 3f84 b03c 0ebc 0d39 c0b9 f63b e8d9 66bd
000000e0: 4021 3dbc 9052 0c3d bebd a8bc 261e edbc
000000f0: d795 d23c 0cfe eebc ff8d edbc 41be 16bc
00000100: 52f5 833d eb36 cb3c b3d1 9f3c 069d cdbb
00000110: f362 423d aeda 87bb d94b 423d 2c82 833d
00000120: 0e6f 54bc 024e 1bbc 1335 163c ada0 bcbb
00000130: 9f7a 9fbb e1c0 013d 042d a83c 17fe 39bd
00000140: 3d2b 6d3d cd95 103d f203 8a3d 9770 3a3b
00000150: 1dbd bbbd accf d53d d734 8e3c 5e2f b5bd
00000160: 87ab b3bd 4cca 843d 470c 6cbd 9e5e de3d
00000170: 5269 91bc 9d4e 32bd 801d 263d 9727 70bd
00000180: 824e df3d b5fa e33c 557d c03c 5696 71bc
00000190: e3d4 7ebd c371 5c3d cc1a d5bc 0d9a ef3d
000001a0: 22ac 96bc b4a3 553c aae9 9f3d 56f5 7b3d
000001b0: 57b5 373d 331e c1bd 8f9f 0e3d c77d ffbc
000001c0: 39d8 903c bab3 8e3c a027 a7bd 9f48 1dbd
000001d0: b645 9b3d 8279 7f3d ebbc 93bd 23a2 f5bc
000001e0: 2b15 cabc 9053 89bd e811 143d d727 b7bc
000001f0: 7654 b43d 7214 a1bd 5701 03be c0a3 11bd
00000200: f002 2dbd b865 b5bd 5376 8f3d ab2e bebd
00000210: 265f 813d 1e27 25bd 6942 a1bd f646 bfbc
00000220: afc7 993d 3541 81bd cfa4 a0bd 4509 e43d
00000230: a6b3 04bd 694f 7e3d 3ce6 aa3d 086f 73bd
00000240: 3c03 da3c 0bdd 9bbb 6c0d b93d dc4d 5f3c
00000250: 6968 cabb 32f0 ecbc 2c0b b23d 303a e23b
00000260: 930a 73bd 8804 b23c 82b1 fabd 7db7 e53d
00000270: 976c bc3c 235b 743d 53cb 043e e5f2 e9bc
00000280: 0455 883d eb17 ff3c f5db 4fbd 4d5a b53c
00000290: 8f2c 20bb 6263 02bb 055d 533d 4071 fdbc
000002a0: b7d7 ac3d ec61 05bd 8965 0c3c 0a4f 6ebc
000002b0: 3b41 b8bd a476 4cbd 312e c7bd da84 84bd
000002c0: 471e 89bc b616 8e3c 590c 2e3b ee2a 89bd
000002d0: df3c 09bc ecca f5bc 8e28 d2bc 8ef9 033e
000002e0: d15e 723d 5971 463c 8937 a9bd a4f9 e43d
000002f0: 3a6d 1d3a 130a 30bd 8c01 653d 25d6 d83d
00000300: 7e20 3dbd e554 4fbd 6da7 c3bd 127c 773d
00000310: f611 c43c dd89 cebd f484 453c 081f 6d3c
00000320: 5d35 bfbd 54f8 24bc 8c65 8c3c f7f7 44bc
00000330: ce77 053d b2d5 b3bd 55c0 a73d 0135 c0bc
00000340: 4b14 28bc 5b2c a6bd 64ad 02bd cc80 843b
00000350: a74e 93bd 5620 3fbd 50e4 0bbd c958 96bd
00000360: a85b 0dbe aa2d ac3c 61d9 ebbd c34a 31bd
00000370: 5dc0 b4bd cc21 d2bd 848c 453d 60bd 363d
00000380: b229 6ebc 3b53 85bb be16 a7bd 9411 273d
00000390: d7be 9bbd 7474 113d 58e0 7fbd 55c3 e0bc
000003a0: d474 aabc 749b 32bd 87c9 4abd c0a4 b53c
000003b0: 2ed2 f53c 5994 fa39 3385 d53d b62a 063c
000003c0: 7334 e93a 0f49 cfbd 3b4f 2fbd 25c7 c13d
000003d0: f8df 9bbd 05c4 d9bd 32fb bf39 8baf 97bc
000003e0: 0913 86bc c616 c4bc 3d31 383d f532 33bd
000003f0: da92 1fbd 7ea9 e73d 5178 16bd 2edd 563d

weight f4 [1, 256]
-0.31241116 -0.1855866 -0.16907464 0.28546724 -0.107299194 0.35367513 0.3521437 0.26541513
-0.31721702 -0.22962134 -0.23105903 0.35551345 -0.032063592 0.30606112 -0.31862807 -0.26289997
-0.2796624 -0.3063066 0.08314241 -0.34332564 0.30584747 -0.2979329 0.32211804 -0.22360362
-0.07852314 -0.37356701 -0.3282028 -0.27693355 0.2664472 -0.07320834 -0.17887253 0.32277164
-0.020125112 0.32489488 0.3188287 0.16605975 -0.2902104 -0.28127828 -0.3437435 -0.30999696
-0.240592 -0.25651634 0.32127902 0.39266387 0.2829912 -0.3667881 0.3516778 -0.24296497
0.048234686 0.2415195 -0.31421253 0.26939794 0.18225887 -0.24709241 0.35223028 -0.20918056
-0.34535778 0.23417588 -0.15327132 -0.2932711 0.20030408 -0.013311787 -0.3085248 0.36966738
0.3253164 0.26719055 -0.18736932 -0.3359456 0.22151452 0.3152712 0.3623527 -0.20512067
0.3232422 0.34523928 -0.32653832 -0.10398003 0.2868499 0.20755778 -0.08245788 -0.31285793
0.16309062 0.26626006 0.3058352 -0.25118712 -0.16493797 0.34834144 -0.3084641 -0.36355728
-0.3024612 0.20570327 -0.28093874 0.32705072 0.28506157 -0.29588142 0.28046703 -0.20115045
0.31580028 -0.21023248 0.37664503 -0.3548346 -0.28757724 -0.044609856 -0.28625578 0.34423473
-0.33229554 0.23072678 0.31162757 0.2663238 0.3002106 -0.16980614 0.32551354 0.32567075
0.32759932 -0.18620239 -0.29079142 -0.26659453 0.28307602 0.25465044 -0.15670654 0.18420254
-0.23294072 -0.358258 -0.1885846 -0.24801937 0.3301652 -0.24172108 -0.3531235 0.24691549
-0.2631403 -0.28242564 0.1515153 -0.3272371 0.3282252 -0.31818533 -0.2941679 0.21701781
0.33512682 -0.28172344 -0.28766513 0.33727127 -0.258925 0.300753 0.34184468 0.21027277
-0.2816044 -0.15323539 0.24291807 0.30843168 -0.3326794 -0.3079618 0.36035952 0.33048955
-0.29438147 -0.2741563 -0.30761153 0.3744958 0.32851744 0.260617 0.31626722 -0.09318349
0.2084819 0.27805945 -0.2010664 0.33647698 -0.2757252 0.33229938 0.34056506 -0.30121136
0.30485514 0.112285085 0.20742175 -0.21842125 -0.33680558 -0.20180377 -0.3865403 -0.33450887
-0.22673093 0.2527234 0.26725963 -0.33178267 -0.26107618 0.23373829 -0.23149689 0.3134475
0.32355818 -0.16593206 -0.34985882 0.36584345 -0.18815474 -0.09847562 0.35822073 0.37024564
-0.3386652 -0.3681936 -0.32040513 0.3499461 0.23157918 -0.25577393 -0.19806713 -0.35919863
-0.3044262 -0.21561506 0.33122966 -0.3308493 -0.26475552 -0.27268267 0.30307424 -0.32821336
-0.22842835 -0.20918702 -0.22183347 -0.2737787 -0.33790332 -0.10706943 0.33262458 -0.19151916
-0.23950906 -0.22875819 -0.31361625 -0.03194429 -0.32652667 -0.30751625 0.31670338 0.3672516
-0.25457838 -0.1703848 -0.33172578 -0.3655689 -0.30685088 0.3259908 -0.31835824 -0.10717977
-0.2630645 -0.11703254 -0.30146122 -0.30516857 0.345475 -0.18253079 0.34262115 0.2706633
0.34467202 -0.31596428 -0.33217826 0.3023918 -0.35555416 -0.31951523 -0.12672336 -0.23596238
-0.09727838 0.25201708 0.32707518 -0.30663475 -0.13545462 0.1864535 -0.2999939 0.37752086
00000000: 5bf4 9fbe 6a0a 3ebe e721 2dbe c328 923e
00000010: aebf dbbd e814 b53e 2e4c b43e 7ee4 873e
00000020: 456a a2be db21 6bbe bd9a 6cbe dc05 b63e
00000030: 1d55 03bd 0bb4 9c3e 3823 a3be d39a 86be
00000040: e92f 8fbe 38d4 9cbe 9146 aa3d 61c8 afbe
00000050: 0a98 9c3e a98a 98be a8ec a43e 59f8 64be
00000060: bdd0 a0bd 2d44 bfbe 330a a8be 3cca 8dbe
00000070: c46b 883e 41ee 95bd 5c2a 37be 5342 a53e
00000080: 6bdd a4bc 9f58 a63e 843d a33e 910b 2a3e
00000090: 7596 94be b503 90be 26ff afbe ecb7 9ebe
000000a0: c05d 76be 1c56 83be af7e a43e 3d0b c93e
000000b0: 39e4 903e a6cb bbbe 1d0f b43e cfcb 78be
000000c0: bc91 453d e350 773e 77e0 a0be 87ee 893e
000000d0: 12a2 3a3e cb05 7dbe 8757 b43e 6e33 56be
000000e0: bcd2 b0be cdcb 6f3e 28f3 1cbe a127 96be
000000f0: 831c 4d3e ae19 5abc f6f6 9dbe 0b45 bd3e
00000100: df8f a63e 33cd 883e bedd 3fbe 1001 acbe
00000110: b4d4 623e 3a6b a13e 4b86 b93e 270b 52be
00000120: 0080 a53e 34c3 b03e 0830 a7be 7bf3 d4bd
00000130: fddd 923e 078a 543e addf a8bd ea2e a0be
00000140: 3a01 273e 3d53 883e 6e96 9c3e 999b 80be
00000150: 80e5 28be cf59 b23e 02ef 9dbe 2e24 babe
00000160: 32dc 9abe e1a3 523e 34d7 8fbe 3173 a73e
00000170: 97f3 913e c57d 97be 6099 8f3e 62fa 4dbe
00000180: 93b0 a13e 2f47 57be 9ed7 c03e e1ac b5be
00000190: 533d 93be d3b8 36bd 1e90 92be 893f b03e
000001a0: a422 aabe a443 6c3e a68d 9f3e 985b 883e
000001b0: 34b5 993e a9e1 2dbe b6a9 a63e 51be a63e
000001c0: 19bb a73e d7ab 3ebe 9de2 94be 147f 88be
000001d0: 57ef 903e 8b61 823e ae77 20be 979f 3c3e
000001e0: 0388 6ebe 986d b7be 521c 41be caf8 7dbe
000001f0: 6a0b a93e bb85 77be 9acc b4be 6ad7 7c3e
00000200: 53ba 86be 189a 90be d426 1b3e 9f8b a7be
00000210: 220d a83e 30e9 a2be 2d9d 96be eb39 5e3e
00000220: be95 ab3e 0e3e 90be d848 93be d2ae ac3e
00000230: d191 84be 4cfc 993e 4406 af3e bf51 573e
00000240: 742e 90be bde9 1cbe 84bf 783e c2ea 9d3e
00000250: f454 aabe 2bad 9dbe 0b81 b83e ed35 a93e
00000260: 2bb9 96be 375e 8cbe 427f 9dbe eabd bf3e
00000270: 7033 a83e 976f 853e c7ed a13e fcd6 bebd
00000280: 477c 553e cf5d 8e3e 5ae4 4dbe b646 ac3e
00000290: da2b 8dbe 2523 aa3e 8b5e ae3e 6038 9abe
000002a0: f915 9c3e b9f5 e53d 5e66 543e d2a9 5fbe
000002b0: c871 acbe a6a5 4ebe 9ce8 c5be bf44 abbe
000002c0: 272c 68be f664 813e 41d6 883e 6bdf a9be
000002d0: c7ab 85be 1759 6f3e 850d 6dbe 317c a03e
000002e0: 6ba9 a53e 18ea 29be b220 b3be d54f bb3e
000002f0: a3ab 40be 96ad c9bd b568 b73e d690 bd3e
00000300: 8665 adbe df83 bcbe 240c a4be 232c b33e
00000310: 1823 6d3e cdf4 82be 1cd2 4abe e2e8 b7be
00000320: c0dd 9bbe 32ca 5cbe ef96 a93e 1465 a9be
00000330: 098e 87be 109d 8bbe 8c2c 9b3e 950b a8be
00000340: 1fe9 69be 1f35 56be 5028 63be b92c 8cbe
00000350: aa01 adbe 3847 dbbd c54d aa3e 991d 44be
00000360: dd41 75be 963f 6abe 4f92 a0be 04d8 02bd
00000370: 812e a7be c572 9dbe f226 a23e 6708 bc3e
00000380: 1958 82be 5a79 2ebe f6d7 a9be d92b bbbe
00000390: 8f1b 9dbe 44e8 a63e daff a2be 1181 dbbd
000003a0: 64b0 86be c2ae efbd 2059 9abe 0e3f 9cbe
000003b0: 19e2 b03e 5ae9 3abe 0a6c af3e 6194 8a3e
000003c0: da78 b03e 12c6 a1be 4513 aabe 19d3 9a3e
000003d0: 320b b6be 8097 a3be c5c3 01be 1fa0 71be
000003e0: e339 c7bd 6208 813e 6676 a73e 3bff 9cbe
000003f0: 9eb4 0abe abed 3e3e cd98 99be 6a4a c13e

weight f4 [6, 256]
-0.023727557 -0.064953215 -0.0032127094 -0.028519135 -0.065961145 0.078722596 0.051053952 -0.024041176
0.051193323 -0.009435144 0.033989344 0.0142259225 0.17363243 -0.05968857 -0.055914637 -0.08605593
0.022463039 -0.0068841893 -0.079700954 -0.013877996 0.07972768 -0.056989286 0.028546968 -0.053859994
-0.003951688 0.016644059 0.07338101 0.08780534 0.047270626 0.006206251 -0.008369097 -0.056568902
-0.0072917594 0.051339414 -0.018542238 0.008236298 -0.029632881 0.01692405 0.01811629 0.029321639
-0.041284602 -0.012400382 0.058846474 0.05821976 0.039095614 0.007025458 -0.023375852 0.07067083
0.08622957 0.018744586 0.043634046 -0.051665906 -0.0481922 -0.05596852 -0.07473396 -0.072913215
-0.0043162513 -0.020911908 0.08022734 -0.00484306 0.12910455 -0.028185913 0.018256592 -0.012417132
0.009511568 -0.08602911 0.13875581 0.0064304667 0.0018599912 -0.042877644 -0.023028312 -0.052520663
-0.061247516 0.06053098 0.03242507 -0.020945765 -0.018067598 -0.10871893 -0.01976773 -0.0151684405
0.1770168 -0.1142996 0.04373464 0.01163311 -0.0673212 0.06448609 -0.024732731 -0.0027868329
-0.010776289 -0.103842966 0.0034300485 -0.02642011 -0.07509818 -0.0009520895 0.0416496 0.004535196
-0.094143696 0.1325378 0.012651581 0.048604663 0.06913593 0.064657375 0.071230605 0.057507318
-0.021079341 0.008383595 -0.07291053 -0.098355226 0.016200293 -0.01184369 0.016139684 0.023693867
-0.08380175 -0.04676505 -0.08368728 0.06452127 -0.02329901 0.11397286 -0.10882059 -0.078411646
0.07562404 -0.040810302 -0.018947512 0.053073864 -0.025578093 -0.060676932 -0.029837446 -0.11892286
-0.028342946 -0.011941972 0.061682526 0.019898903 0.0616051 -0.007603088 0.016361276 0.019395802
0.06583062 0.033711854 -0.053085055 -0.04397684 0.10424272 0.1284657 0.016818058 -0.12047598
0.0013555074 -0.0054888055 0.104092486 0.051711768 -0.018917521 -0.0014286498 0.037624456 0.017070485
-0.018828107 -0.008402349 0.01925645 0.062126532 0.057475105 -0.1656186 -0.028855404 0.08017488
0.0691738 -0.09434937 -0.056743216 -0.04462781 0.052513935 0.006526845 0.004109957 0.05125055
-0.016977299 0.0049357666 0.070262656 -0.06074888 0.02702773 0.0071707927 0.0006768082 0.07123796
-0.03995918 0.013196984 0.041548435 0.039889857 0.049802653 -0.06098945 0.07199092 -0.056803502
-0.011451943 0.0012975668 0.06586819 -0.03382383 0.045131437 -0.049685936 0.027637338 -0.0022025194
0.016202752 -0.03146754 0.09923439 0.023053534 0.078574985 0.040549528 -0.039446134 -0.054660987
-0.009932157 0.04936715 0.03422331 0.045496084 -0.038646586 -0.06855772 0.11882713 0.0736547
0.121690504 -0.030307317 0.039411526 -0.025906788 0.037972625 -0.004740113 -0.08022112 -0.072096705
-0.080910295 0.009326027 0.11167899 -0.058656894 0.019951232 0.016423976 0.057599492 0.014531858
0.08784201 -0.06139327 -0.030053295 0.05350582 0.035958648 -0.007224488 -0.017466376 -0.09706127
-0.04081686 0.02026849 -0.011459571 -0.03578211 -0.039241485 0.040750846 -0.03354091 0.17021085
-0.026369162 0.02842813 -0.008777573 0.06910308 0.08320234 -0.08942059 0.05082526 -0.0033046687
0.020961033 -0.057967655 0.04475485 -0.055124387 -0.036853116 -0.033382557 0.054310463 0.06648896
00000000: 4b60 c2bc 3106 85bd 528c 52bb f6a0 e9bc
00000010: a316 87bd 5039 a13d f31d 513d 00f2 c4bc
00000020: 17b0 513d dd95 1abc 6938 0b3d d813 693c
00000030: b3cc 313e 017c 74bd bf06 65bd 173e b0bd
00000040: 6804 b83c c494 e1bb 413a a3bd 8960 63bc
00000050: 4448 a33d 996d 69bd 55db e93c 4c9c 5cbd
00000060: 297d 81bb 1f59 883c c848 963d 49d3 b33d
00000070: d89e 413d cf5d cb3b 891e 09bc cbb4 67bd
00000080: b6ef eebb 4749 523d e4e5 97bc 8af1 063c
00000090: a8c0 f2bc 4ea4 8a3c 9d68 943c ef33 f03c
000000a0: 0b1a 29bd f92a 4bbc 0009 713d d877 6e3d
000000b0: b922 203d d035 e63b b77e bfbc debb 903d
000000c0: 2199 b03d 3f8e 993c 9db9 323d a19f 53bd
000000d0: 2f65 45bd 3f3f 65bd 1e0e 99bd 8653 95bd
000000e0: 576f 8dbb 734f abbc 3b4e a43d 88b2 9ebb
000000f0: fc33 043e 25e6 e6bc d98e 953c 3a71 4bbc
00000100: 68d6 1b3c 0830 b0bd 0116 0e3e aab6 d23b
00000110: f3ca f33a 78a0 2fbd dfa5 bcbc e81f 57bd
00000120: adde 7abd 55ef 773d 26d0 043d 7496 abbc
00000130: 8002 94bc 08a8 debd efef a1bc 0d85 78bc
00000140: e443 353e e915 eabd 1823 333d cd98 3e3c
00000150: b3df 89bd 4811 843d 4c9c cabc 4ca3 36bb
00000160: 088f 30bc 9fab d4bd aaca 603b fd6e d8bc
00000170: 13cd 99bd a595 79ba c598 2a3d fb9b 943b
00000180: 69ce c0bd fdb7 073e 9448 4f3c af15 473d
00000190: 2397 8d3d 166b 843d 5ae1 913d cb8c 6b3d
000001a0: 95ae acbc 595b 093c 1e52 95bd 776e c9bd
000001b0: 7ab6 843c 090c 42bc 5f37 843c a419 c23c
000001c0: 40a0 abbd b68c 3fbd 3d64 abbd ba23 843d
000001d0: 91dd bebc 9a6a e93d 54dd debd 4996 a0bd
000001e0: c7e0 9a3d b428 27bd d037 9bbc fb63 593d
000001f0: 2689 d1bc 6088 78bd a96d f4bc d48d f3bd
00000200: 772f e8bc 43a8 43bc d1a6 7c3d 0603 a33c
00000210: a155 7c3d 5323 f9bb 1508 863c f2e3 9e3c
00000220: 34d2 863d 7115 0a3d b76f 59bd 0f21 34bd
00000230: 357d d53d 838c 033e 06c6 893c 1cbc f6bd
00000240: 48ab b13a 70db b3bb 712e d53d b8cf 533d
00000250: ebf8 9abc 8841 bbba 1a1c 1a3d 67d7 8b3c
00000260: 673d 9abc 02aa 09bc b4bf 9d3c 6478 7e3d
00000270: 046b 6b3d ec97 29be 2b62 ecbc ba32 a43d
00000280: feaa 8d3d 3e3a c1bd 936b 68bd a7cb 36bd
00000290: da18 573d 25df d53b d1ac 863b 19ec 513d
000002a0: fa13 8bbc 36bc a13b dee5 8f3d d1d3 78bd
000002b0: 4269 dd3c f8f8 ea3b d46b 313a 35e5 913d
000002c0: 3dac 23bd 2a38 583c b12e 2a3d 8c63 233d
000002d0: defd 4b3d 13d0 79bd fa6f 933d caaa 68bd
000002e0: eea0 3bbc 1e13 aa3a e7e5 863d db8a 0abd
000002f0: bedb 383d 7b83 4bbd b367 e23c 2558 10bb
00000300: a2bb 843c 1be4 00bd 663b cb3d c4da bc3c
00000310: eceb a03d 4317 263d 4592 21bd 33e4 5fbd
00000320: 7cba 22bc 3535 4a3d be2d 0c3d 1a5a 3a3d
00000330: e24b 1ebd fd67 8cbd a35b f33d 46d8 963d
00000340: df38 f93d 0d47 f8bc fb6d 213d 793a d4bc
00000350: 2f89 1b3d f352 9bbb f84a a4bd 70a7 93bd
00000360: 4cb4 a5bd 31cc 183c f4b7 e43d 3642 70bd
00000370: c470 a33c 938b 863c 72ed 6b3d 0817 6e3c
00000380: 83e6 b33d 8277 7bbd 5432 f6bc eb28 5b3d
00000390: 6049 133d 66bb ecbb a515 8fbc 0fc8 c6bd
000003a0: 942f 27bd 1b0a a63c edc0 3bbc 4390 12bd
000003b0: aebb 20bd 5cea 263d 3162 09bd c14b 2e3e
000003c0: 2404 d8bc 1ce2 e83c cfcf 0fbc ea85 8d3d
000003d0: fd65 aa3d 2422 b7bd 262e 503d 2493 58bb
000003e0: 79b6 ab3c 7e6f 6dbd dd50 373d 1cca 61bd
000003f0: 4bf3 16bd 26bc 08bd a674 5e3d 5d2b 883d

bias f4 [6]
-0.015933685 -0.023119045 0.03373368 0.03662335 -0.039420888 -0.015852498
00000000: 5c87 82bc 2764 bdbc 542c 0a3d 5e02 163d
00000010: cc77 21bd 19dd 81bc
