models/adi_network_hk_0.pth (torch, 424208 bytes, 7 tensors)

weight f4 [256, 144]
00000000: c492 53bd f8ab ba3d 070f eb3d 2764 d33c
00000010: c0b1 db3d 209e 293d 2380 693d 24d4 2ebd
00000020: e556 283c 0faa cabd a0f4 463d f103 a7bc
00000030: 5cbb 12bd 2bf6 a8bd 17a6 99bd 7cd4 713d
00000040: 13cc 563d 75cf 90bd 2d46 9d3d 7dd5 89bd
00000050: 15f7 fcbd fe6b 353c 6ec1 9a3d 45e4 623c
00000060: e2ba 8c3d 840d b43d cec0 34bc 459f 9bbd
00000070: 1544 38be abd5 7b3d 5e5b f63c 0869 213d
00000080: 133c 903c 6adf ba3d 5d8e 8e3d 56a2 38bc
00000090: b2e9 183e fe74 343d 381d 853c d623 9ebb
000000a0: 939f be3a fc23 4d3d b552 8abd dbf5 0ebe
000000b0: 843d 573d f432 063e 73b0 abbd 211b c93c
000000c0: c62b 21bd b469 933c 1249 233d 66f0 51bd
000000d0: ffcf 233d fe3c 563d e3c5 253b 171c 4d3d
000000e0: 2175 b13d ac66 e7bc 24a5 b9bd c5ad 22bc
000000f0: 696d 8ebc eb70 db3d fb89 a03d 0657 98bc
00000100: 8d9d 423c 529c 4e3e a806 62bd 49bd 063e
00000110: b6f6 3fbd 8aaf 173c 1d1f 31bc c65e f3bd
00000120: e5ce b13d 3f48 133e d8b8 683d 4984 8cbd
00000130: 3108 d73d d4ac bb3b cf9b b83d 6add 663d
00000140: 5779 203e b7c1 0a3d e9f1 813c 02ac 1fbe
00000150: 0089 0c3d e54f 7b3d d7ef 483d 9097 d1bd
00000160: 21ea 323d 0924 21be 79e6 333d 0668 51bd
00000170: db02 833d 7aa4 9a3d ae62 223d ed37 fdbc
00000180: 824b 9abd 7667 babd 4037 6f3d 7ed2 b13d
00000190: d6f3 2b3c 2860 0a3c 456b cdba e7df a2bc
000001a0: 01b1 cf3b 72ce 173d d55b d63d 2402 30bd
000001b0: 6844 853d 0229 7a3c f525 d8bc cecf e1bc
000001c0: eb3e 7dbc 926d c03b 3f73 13bd 225f 0fbd
000001d0: 2f89 eb3c f5bb 8bbd c35a a7bd 2917 2a3c
000001e0: fd79 bd3d 27f2 8cbd fbc6 58bd 0eba 673d
000001f0: bb88 c63d 038c 753d d500 d7bc 96d5 74bc
00000200: c938 ff3c b801 bd3d 9485 cf3d a259 18bd
00000210: 6ba5 ee3b 5f16 81bd 0a0f cd3c c259 e8bd
00000220: 5d25 9c3c 1389 9b3d 881d 5cbb b445 45bd
00000230: 882e 743d 8f6d 973d 17b8 3ebd 29b3 933d
00000240: c09d 5c3c e3bb e73c 311c 0fbd 26d8 d13d
00000250: cea5 f6bc d8ae cd3d ff20 943d 0d42 5abd
00000260: c80a e5bb 38fb f03d 1116 ff3c 0200 f03d
00000270: 8159 663d 47ff e4bd 5e71 0bbd 6c04 b83d
00000280: 96cc 1ebd 3e26 a7bd 7418 07be edce 0c3d
00000290: 823e 9f3d 2920 2abd bf4e c23d 8cdc 043e
000002a0: dae7 16bd ec86 f13d 13a2 dbbd e93b 933d
000002b0: 4f6c 933d 7be0 693d c016 d9bd d4b8 0ebe
000002c0: fe8d 12bd 08f8 f93d 5dac c03b 573a b53d
000002d0: 378d 3ebd 2242 be3c 2878 b93d d6e1 713d
000002e0: d573 723d 9346 85bd d9e5 c93c 9f91 493d
000002f0: 4f83 ba3d 6e3a e53c 4336 ebbc b29c 55bd
00000300: 9308 c73d d4ba 743d 9f19 23bd eca6 7fbd
00000310: d6b2 ad3d 1cfd 9b3d 4242 22bd c8fa cb3d
00000320: 074a 01bd c839 b93d e6ae d23d 542a a5bd
00000330: 8c76 d33b f527 133b 78ed 68bd ab9c b53c
00000340: c58f c53d cc0c 833b 15de 5cbd cc14 bd3d
00000350: 2824 7e3d c90e d2bd 430f 693d bc37 5b3d
00000360: 8c60 8e3d 52d4 28bc e9e1 8e3d 1091 7539
00000370: 9462 b23d 1ec1 16bd d2e9 203d 0a52 3fbd
00000380: 3047 943d 0872 333e 1fa9 92bc 26ff fabb
00000390: 1f8a d43d 8628 43bd d123 ffbb b346 4b3d
000003a0: f40e bf3d 353f 8ebd 7503 633d d5bb b73c
000003b0: 29f8 913b b8e4 b2bc d760 e43c 8b54 233d
000003c0: f103 6a3d 51fc 2bbb 2402 89bc d248 cb3b
000003d0: 3a52 763d 3641 713d 179d b83c 8ef1 3dbd
000003e0: 6ec8 64bd 3cc5 c8bc 165d 503d 314d 6fbd
000003f0: 0436 013e 6ea1 e0bc fbdd 813d 27e3 3e3d
-0.05165364 0.09114832 0.114774756 0.025804592 0.107272625 0.041410565 0.057006966 -0.04268278
0.0102746235 -0.09895717 0.048573136 -0.020387622 -0.03582321 -0.08250078 -0.07502382 0.05904053
0.052440714 -0.07070819 0.076794006 -0.06730173 -0.12351815 0.011073111 0.07556425 0.013848369
0.068715826 0.087916404 -0.011032296 -0.075987376 -0.17994721 0.061483067 0.030072864 0.039406806
0.01760677 0.09124644 0.069607474 -0.011269173 0.14932898 0.044056885 0.016249284 -0.0048260493
0.0014543406 0.050083145 -0.06754056 -0.13960974 0.0525489 0.13105375 -0.083832644 0.024549069
-0.039348386 0.01799474 0.039864607 -0.051254652 0.039993282 0.05230426 0.0025294952 0.050075617
0.08664919 -0.0282472 -0.09064701 -0.009929125 -0.017386155 0.10714897 0.07838818 -0.018596184
0.011878383 0.20176819 -0.05518213 0.13158144 -0.04686614 0.00925816 -0.010810641 -0.11883311
0.0868204 0.14383028 0.056816906 -0.06861169 0.10499609 0.00572739 0.09014093 0.0563635
0.15671287 0.033876147 0.015862422 -0.1559296 0.03431034 0.06135549 0.049056854 -0.102339864
0.043680314 -0.15736403 0.043920968 -0.051124595 0.06397029 0.07550903 0.03964489 -0.030910457
-0.07533933 -0.09101765 0.0584023 0.08682726 0.010495147 0.008445777 -0.0015672228 -0.019882156
0.006338239 0.037062116 0.10466734 -0.04297079 0.06507188 0.015268566 -0.026385287 -0.02756491
-0.015456895 0.005872437 -0.03599858 -0.035002835 0.028751938 -0.06822959 -0.08171608 0.010381498
0.09251783 -0.068821244 -0.052924138 0.05657392 0.09694048 0.05994798 -0.026245514 -0.014943501
0.031155007 0.092288435 0.101329 -0.037194856 0.007282903 -0.06303095 0.025031585 -0.11345245
0.019060785 0.07594504 -0.0033586938 -0.048162177 0.05961469 0.073939435 -0.04656228 0.072119065
0.013465345 0.028287834 -0.034938995 0.10246305 -0.030108359 0.100431144 0.07232856 -0.053285647
-0.0069898106 0.11766666 0.031138452 0.117187515 0.0562377 -0.11181503 -0.034043662 0.089852184
-0.038769327 -0.08161591 -0.13192922 0.034377027 0.07775594 -0.041534577 0.09487676 0.12974757
-0.036842205 0.117933124 -0.107242726 0.07189161 0.071983926 0.057098847 -0.10600042 -0.13937694
-0.035779946 0.12205511 0.0058799223 0.08849018 -0.04652139 0.023224894 0.09056121 0.059053265
0.059192497 -0.065076016 0.024645733 0.04921114 0.091070764 0.027981963 -0.028712397 -0.05215139
0.09718432 0.059748486 -0.039819356 -0.06241505 0.08481376 0.07616636 -0.03961397 0.09959942
-0.03156474 0.09044224 0.102872655 -0.08064714 0.006453341 0.0022454236 -0.056867093 0.022169432
0.096465625 0.0039993282 -0.05392273 0.09232482 0.0620462 -0.10256726 0.05689932 0.05351995
0.069520086 -0.010304527 0.06976683 0.00023419061 0.087102085 -0.036805265 0.03928549 -0.046709098
0.072401404 0.17523968 -0.017902909 -0.0076598106 0.10377907 -0.047646068 -0.007786252 0.04962797
0.09329024 -0.069456495 0.05542322 0.022428432 0.004454632 -0.021837577 0.027878208 0.03987555
0.057132665 -0.0026242922 -0.016724654 0.006203749 0.06013701 0.05890008 0.022535844 -0.046372943
-0.055855207 -0.024508111 0.050870024 -0.058423225 0.12618262 -0.027420726 0.063411675 0.046603348

bias f4 [256]
00000000: 236c 26bc 6132 be3d 4e0e c53d 2154 0abb
00000010: 5201 453d 5a82 9f3d 2577 44bd de69 c2bc
00000020: 0feb 86bb 8f6e f53d 3e1b bf3d cd44 50bc
00000030: 3ff1 313b a79d 603d 31a4 37bd 3da7 aebd
00000040: 3304 3f3c 4033 873d 0bff 3b3d 3633 11be
00000050: 098a 7bbd c05a 993a 3a2f 093c 2407 21bd
00000060: 7f83 943d 2023 933c 784c 5f3c e954 513d
00000070: 67fb cd3c 13cf 78bc 2be1 3c3d ee4d b03b
00000080: 1a06 123b 67e3 873c 4d44 023d 69a6 573d
00000090: 1ef7 cfbb e956 893c 4a30 243c 8ed5 953d
000000a0: b243 3bbd a2ad 92bc f739 623d 88f2 0abd
000000b0: 3f45 ce3c fb01 073d 4ec3 93bd 10b1 453d
000000c0: c22e 703d 03d6 5dbd 8020 40bc d328 34bd
000000d0: 198e f63d 8751 793d 920e 8dbd e2ee 773d
000000e0: 9240 8c3c 7952 0bbd b36b 70bd 02ad 9c3c
000000f0: 6672 04bc f99b cabc 711b b83d a532 333d
00000100: 10ae 063d 1dc0 a7bd 2225 d63c 2e2e 8a3d
00000110: ada8 0dbd 58db 223d 7eda b8bd 10ec 5f3c
00000120: 2610 9d3b f3ba 6f3d f082 8dbc 6d46 493d
00000130: ab53 583d a8f9 243d a343 4c3d ce00 dc3c
00000140: d290 513d 0cb7 043e 4ad5 d8bd 7b28 fbbd
00000150: b2f5 31bd 5d8c 85bc cc6e 23bd 083d 50bd
00000160: 3025 0bbd 2899 9abd 60f5 a83d 7c63 9d3d
00000170: 3fed 8ebc 768e 493b eb01 1f3d 0762 903d
00000180: 2184 6b3d ebfc 89bd 2b3f a1bd 00bd 4fbd
00000190: db77 9bbd 0a38 69bd a8cf bc3c 5707 ef3d
000001a0: 7e7c 8dbd 0d2b 0ebc 4a6b b3bd 034f b9bd
000001b0: ff2b 1bbd 525f 7a3c b794 a93d f0fc f6bd
000001c0: 516b 84bd f222 d03d 7eb9 14bc b8db d13c
000001d0: 6629 16bd 8bb8 5bbd 9779 e9bc 0cc8 943d
000001e0: d023 523d e2c3 593c f149 803d be2d 073d
000001f0: a27a 7d3c bc24 18bd 0e30 f9bd 3787 4e3d
00000200: 3db6 d9bc 88a2 8bbd fd4e f3bc 62f9 c6bc
00000210: a105 2c3d 7c5e 5abc 755b 10be 9dd1 ae3d
00000220: bf02 9a3b 516a d23d 98b8 243d 9e29 18bc
00000230: 0b3d c93d 6332 893b ba3d 813d 6236 91bd
00000240: b670 51bd 83dd 16bd b1c1 153d b1ca ba3c
00000250: 2004 74bc 1561 a5bd f67c 22bd ec2f b23c
00000260: 8fa8 ffbc c803 b13d 445d 2ebd cc6c 043e
00000270: e95b 5cbd 1dc4 8ebb f8e9 b63d 4522 35bd
00000280: 5031 5f3d 6283 be3c df27 c5bd 24a8 83bd
00000290: c603 7fbd 65be 29bd 8056 8dbd 116b 5abd
000002a0: 2eeb 683c 660c 55bd 6aaf 613d 1d6c cbbc
000002b0: 84ec 89bd 648a ffbd 3f02 e0bd 41d4 aa3d
000002c0: 41d3 f13c c1db 0abd b3e8 efbc 12d0 60bd
000002d0: 5d10 833d 89c6 9ebd 5b20 be3d 459a 883d
000002e0: 205f 01bd e6e2 0a3d eb69 c6ba 82a6 15ba
000002f0: 24c0 2c3d 54b9 8cbd 9492 16bd 9db9 97bb
00000300: 839f f3bc 694e 54bd ccad 283c 6098 62bd
00000310: c954 5c3d 03ce 0dbe f54f 27bd 2fe1 ab3d
00000320: aa1b f13c 4a62 2f3d 80ac 1b3c 3256 f63d
00000330: 5595 9a3c feb0 993d 853b 00bd c7a7 8cbd
00000340: 0feb c73d 6092 e63a e877 50bc 7cb7 9f3d
00000350: 2df4 47bd b038 033d 5072 d73d b3e8 aebc
00000360: 4892 06be 732b 97bd ba39 b63a 434b 52bd
00000370: 4466 63bd 927f 8bbc de9d 7dbd b978 83bc
00000380: e6b7 9bbc ebea a5bc 7546 36bd 6945 d7bb
00000390: a1a7 633b d3db 8abd 610c c4bd f03e e2bc
000003a0: 2a7a 013d b81b 59bc 89df f1bd 26db c73d
000003b0: 4a3f aeba 129e a03c 9206 89bc e4ed 4ebd
000003c0: 6b6c fb3b 95c4 9a3d e6cd 59bc 42f8 0a3d
000003d0: 8f1a 3cbd b72d 5a3d a781 3abd 7d5f 1fbc
000003e0: 19be 4dbd d3d6 f13c 02dc 87bd 28fa 87bc
000003f0: f01e 2cbd ea8c 753c bf25 acbd 90cb ebbc
-0.010157618 0.09286953 0.09621869 -0.0021107274 0.048096962 0.077885345 -0.047965188 -0.023732122
-0.0041173766 0.11983978 0.09331368 -0.012711716 0.002715185 0.05483785 -0.04483432 -0.08527992
0.011658716 0.06601572 0.045897525 -0.14179692 -0.061410937 0.0011700019 0.008373076 -0.03931345
0.072516434 0.017961085 0.013629071 0.051106367 0.025144292 -0.015186089 0.046113174 0.0053803837
0.002228147 0.016587926 0.031803418 0.052648935 -0.0063465973 0.016765075 0.010021279 0.07316123
-0.045718856 -0.01790506 0.05523106 -0.033922702 0.025179503 0.032960873 -0.07214986 0.048264563
0.05863834 -0.054159176 -0.011726499 -0.043984246 0.12038822 0.060868766 -0.06887545 0.06053055
0.017120633 -0.0340142 -0.05869646 0.019125465 -0.008083915 -0.024732577 0.08989609 0.04374947
0.032880843 -0.081909396 0.026140753 0.06747089 -0.03458469 0.039759964 -0.09026049 0.0136671215
0.004793185 0.058527898 -0.01727435 0.04913943 0.052814167 0.040277153 0.04986919 0.026855852
0.051163502 0.12960452 -0.10587557 -0.122635804 -0.043447204 -0.016302282 -0.039900586 -0.050839454
-0.03397101 -0.075487435 0.082499266 0.07684991 -0.017447112 0.003075508 0.03882019 0.07049947
0.057499055 -0.067376934 -0.078733765 -0.050717354 -0.0759122 -0.05693821 0.023048237 0.11671322
-0.069085106 -0.008677256 -0.08760698 -0.090482734 -0.037883755 0.015281515 0.08280318 -0.12059963
-0.064657815 0.10162915 -0.009077428 0.025617465 -0.036660574 -0.05364279 -0.028500361 0.072647184
0.051303685 0.013291331 0.06264103 0.033002608 0.0154711325 -0.037144408 -0.12167369 0.05042192
-0.026576156 -0.0681811 -0.02970075 -0.024288837 0.041997556 -0.013328191 -0.14097388 0.08536074
0.0047000344 0.102741845 0.040215105 -0.009287266 0.09826096 0.004186915 0.063106015 -0.07090451
-0.05113288 -0.036832344 0.03656167 0.022801729 -0.014893562 -0.080751576 -0.039669953 0.021751367
-0.031208305 0.08643299 -0.042569414 0.12932128 -0.05379859 -0.0043568746 0.08931345 -0.044222135
0.054490387 0.023256008 -0.096267454 -0.06428555 -0.062259458 -0.04144134 -0.06901264 -0.053324763
0.014216227 -0.052013777 0.05509893 -0.024831826 -0.06734565 -0.12477568 -0.109379284 0.083412655
0.029519679 -0.03390098 -0.029285764 -0.05488593 0.063996054 -0.07752711 0.09283515 0.066700496
-0.03158486 0.033907793 -0.0015137767 -0.00057087105 0.042175427 -0.06871286 -0.03676088 -0.004630281
-0.029739147 -0.05183259 0.010295343 -0.055321097 0.053791795 -0.13848118 -0.040847737 0.0839256
0.029432137 0.042818345 0.009501576 0.12028159 0.018870035 0.07504462 -0.031306762 -0.068679385
0.09761631 0.001759123 -0.0127239 0.07798669 -0.04881685 0.032036483 0.1051985 -0.021351194
-0.1314174 -0.07381334 0.0013902702 -0.051341306 -0.05551745 -0.017028604 -0.061918132 -0.016048776
-0.019008588 -0.02025362 -0.044500787 -0.0065695536 0.0034737366 -0.067802094 -0.095726736 -0.027617902
0.031610645 -0.013251238 -0.11810214 0.09758596 -0.0013294008 0.019606624 -0.016726766 -0.05051984
0.0076728365 0.07557026 -0.013293719 0.033928163 -0.045923766 0.053266253 -0.045533802 -0.009727356
-0.05023012 0.029521381 -0.0663376 -0.016598776 -0.04202169 0.01498721 -0.08405637 -0.02878359

weight f4 [256, 256]
00000000: 3efb 213d 5b79 57bd ddad d2bc 5fa5 9f3b
00000010: dfdb 8a3d 48f8 91bc 9b74 6b3b 240e 673d
00000020: 28e1 c93d 8b28 b3bc f17b 66bb ee7b 9139
00000030: 70bf cfbb 0bc5 9abd 5078 593d e974 a7bc
00000040: f427 893a 5b2a e0bc 5ea4 68bd f44b 21bd
00000050: fbee 753c 9353 a73b 78c9 6dbd 8c1c 1f3c
00000060: 7332 eebd 363f 123c 3df9 51bd 7e29 49bd
00000070: 0931 bfbd 080d 863d efcb cdbc ce56 3f3c
00000080: 907d 11bd 57e5 31bd 9e9b 26bd 93bd 243d
00000090: fdcd 99bd 866b 823c c3c0 afbb f07d 64bd
000000a0: 0422 063d c3f8 233d 6fcb ca3c 0b6f d93c
000000b0: 807f 5abd 7140 173c 9172 413c 65fd 79bc
000000c0: 3fd7 3fbd feeb e6bd 3b40 d9bd e0ce 64bc
000000d0: a32b c9bd 066a 85bd 6958 473b 060b 8839
000000e0: 4568 cabd 4234 b8bd ffcc b0bd 9c93 0abc
000000f0: 4135 1dbd c077 103b 264b 98bd debd cc3d
00000100: 806e cabd 56b1 6e3d 80d0 29bc 932f 88bd
00000110: bf7f 97bd 0c6a ba3c e721 a23d c428 5b3d
00000120: deca 2abd a115 6bbc d758 1ebc 6029 a2bd
00000130: 79d6 df3c 5d1c aebc 46e1 2ebb f2c7 91bc
00000140: be73 003d 220b 70bd 1fc6 e23d 1763 643d
00000150: caf0 b9bd 9bfd 33bc 99c4 c93a f6f2 2dbc
00000160: 84e0 be3d a1e7 113d 681f 343d 8b0b 81bd
00000170: 2c3f fc3c 7dc2 1abd 4f99 f23a a718 4ebc
00000180: 4ecc 9dbc cd78 03bd 9ad9 87bd 0b1d e83c
00000190: 305d bf3d eabe 8aba 0dc3 2ab9 140b c4bd
000001a0: 2c12 c6bc 40f3 1d3d 3fff 3d3d 90f7 80bc
000001b0: 136a a83d af55 0e3d 5196 b53c 4fd9 5d3d
000001c0: 6824 523d aa74 6dbd 0515 603c 66f6 9c3c
000001d0: 11c3 1b3c c102 dabc 6a20 37bd 8332 803d
000001e0: 05b7 b8bd 3f27 05bb d2f6 37bd 6f6f 89bd
000001f0: 9517 1ebd f819 a13d 4545 5c3c 8279 1dbc
00000200: 16e3 e93c c41c 703d f3da 63bd 18ee 493d
00000210: 860e d0bd c64b 8ebc 183d 613b 2e86 bbbb
00000220: 5338 50bd 85b1 753d 6aa6 50bd 6489 d6bc
00000230: d597 8abb 2da4 923c 0cbc cc3c 7a11 4dbd
00000240: 44db 35bd 5def 82bc 07e8 ecbb 733c f3bc
00000250: 2c44 cfbc aecf 083e fb6a a53d beab 94bd
00000260: b412 fe3c 4702 ce3c 432e 51bc e9ef d6bd
00000270: 855f a23d a93d bb3b eefd 5f3b 686d 7bbd
00000280: a3b6 783d 87eb 2738 5f33 a2bc c410 f63b
00000290: 970a 383c 943c 7e3d 2f9e 51bc 8cb0 17bd
000002a0: fea9 63bd 519e 783d b035 d23c c4fc a0bd
000002b0: 328f 5c3d 77b0 323d 0cdc ccba 2add a3bc
000002c0: f702 ae3c a3ab f4bc d4e6 dc3d 76f6 1ebc
000002d0: e304 4ebd de11 8b3d b108 bf3d 33a1 c2bd
000002e0: cdff bc3d 5809 fd3c 1426 fe3b 7c5e 6a3c
000002f0: 8cce 53bd c9d5 5e3d 23a6 f5bc c507 15bc
00000300: 9a7b 6fbd 326b 553d f133 d93a 665f b7b7
00000310: 9982 06bd 5467 b63d e7b8 87bd 124a ba3c
00000320: b251 02bd f6b5 1dbd 09fc 7cbc 3fe6 56bd
00000330: bc02 e0bb 84f0 26bd 6b78 603d a043 ad3d
00000340: 767c 33bd 9a47 f7bc ddae cabd 197c 57bd
00000350: e9d7 743d 91d4 863d 3fc0 c5bc 14fe 92bc
00000360: b0c7 01bb ff04 963d 3ca8 303d cd4b a03d
00000370: 1165 76bc 1537 07bd 9389 ff3c f582 223d
00000380: e6e0 de3d 3fc6 b2bd bbd3 91bd d6f7 8fbd
00000390: 6d99 763c 6f63 99bc 0552 a33d b35f e3bb
000003a0: 104d 74bd d668 b93c 8eb1 09bd 5921 73bd
000003b0: 72d6 1dbd f4b5 503b dfe0 363d 04f6 76bd
000003c0: b3e6 8abc ca2c 12bd 3750 a1bd 8ccd adbc
000003d0: c457 8ebb 9359 00bd dd80 dcbc 4867 613d
000003e0: 23c3 843d 08aa d03c df41 f23c 1c99 47bd
000003f0: 330d b5bd 206b 043d ca24 f53c 2c3b 29bc
0.039546244 -0.052605968 -0.02571767 0.0048720087 0.06780218 -0.017818585 0.0035927657 0.05640997
0.09857398 -0.021869918 -0.003516909 0.0002774889 -0.00633996 -0.07557114 0.053093255 -0.02044149
0.0010464177 -0.027363947 -0.056797378 -0.039379075 0.015010591 0.0051063984 -0.058053464 0.009711396
-0.11630716 0.0089262035 -0.051263083 -0.049111836 -0.093355246 0.06545454 -0.025121657 0.011678411
-0.035520136 -0.043431606 -0.040675752 0.040219855 -0.07509992 0.015920412 -0.005363555 -0.055784166
0.032747284 0.04003216 0.024755208 0.026542207 -0.05334425 0.009231673 0.0118071 -0.015258168
-0.046836134 -0.11275481 -0.10607954 -0.0139653385 -0.09822776 -0.06514363 0.0030417687 0.00025948155
-0.09883169 -0.089943424 -0.0863285 -0.008458044 -0.038380865 0.0022044033 -0.074362084 0.09997152
-0.098843575 0.05827459 -0.010364652 -0.06649699 -0.073974125 0.022755645 0.079166226 0.053505674
-0.041697375 -0.014348418 -0.009664736 -0.07918048 0.027323948 -0.021253759 -0.0026684566 -0.017795537
0.03136038 -0.058604367 0.11072945 0.055758562 -0.0907913 -0.010985757 0.0015393674 -0.010617008
0.09320167 0.03562129 0.043975264 -0.0630103 0.030791841 -0.037783135 0.0018508824 -0.01257912
-0.01926246 -0.032097626 -0.06633301 0.028334161 0.09343946 -0.0010585461 -0.00016285125 -0.095724255
-0.024178587 0.03856206 0.046386 -0.015743047 0.08223357 0.034749683 0.022166403 0.05416232
0.05130425 -0.057972588 0.013676886 0.01916046 0.009506957 -0.026612641 -0.044708647 0.06259634
-0.09019283 -0.0020317582 -0.04491312 -0.067107074 -0.03859671 0.07866281 0.0134442495 -0.009611489
0.028550666 0.058621183 -0.055628728 0.04929933 -0.1015902 -0.017370116 0.003436869 -0.0057227826
-0.050834965 0.05998375 -0.050939955 -0.02618856 -0.0042295256 0.01790055 0.024992011 -0.050065495
-0.04439856 -0.015983278 -0.0072298083 -0.02969191 -0.025301062 0.13360474 0.080770455 -0.0725932
0.031014778 0.02514757 -0.012767377 -0.10494978 0.07928375 0.0057141376 0.0034178453 -0.061383635
0.06072105 4.0035255e-05 -0.019799886 0.007509323 0.011232994 0.06206949 -0.012794062 -0.037033603
-0.05558204 0.060697857 0.025660366 -0.07860711 0.0538475 0.04362532 -0.0015629544 -0.02000292
0.021241648 -0.029866999 0.107862145 -0.009702316 -0.05029763 0.06790517 0.0932783 -0.095034026
0.092284776 0.030888245 0.007756004 0.014304753 -0.05171065 0.0544031 -0.029986447 -0.009096091
-0.058467485 0.052104183 0.0016571266 -2.1859723e-05 -0.03283939 0.08906427 -0.06627064 0.022740398
-0.031816192 -0.03850361 -0.015440949 -0.052465674 -0.0068362635 -0.040756717 0.05480234 0.08460164
-0.043819867 -0.03018551 -0.09896634 -0.052608583 0.05977622 0.065835126 -0.024139522 -0.01794342
-0.001980286 0.07325172 0.04312919 0.07826958 -0.015038745 -0.033011515 0.03119353 0.03967567
0.1088274 -0.08729219 -0.071204625 -0.07029693 0.015051228 -0.018724171 0.07974628 -0.0069388985
-0.059643805 0.022632997 -0.033616595 -0.059357975 -0.03853459 0.0031846734 0.044648048 -0.060293213
-0.01695571 -0.035687245 -0.07876628 -0.021216176 -0.0043439586 -0.031335425 -0.026916916 0.055030137
0.06482532 0.025471702 0.029572425 -0.04873 -0.08840408 0.032328725 0.029924769 -0.010329049

bias f4 [256]
00000000: 60a4 dd3b 232b 68ba 07dc 053d cef7 173c
00000010: c031 74bc cdbd ef3c 087d 8dbb 06c6 1bbc
00000020: a299 49bd 146a 07be c3f4 cb3d b27c 953d
00000030: 8d15 423c b5d6 223d a723 a4bd 11e1 b23d
00000040: 12f2 5bbb 9be1 b4bc f747 09be 3fd6 d4bb
00000050: 29e6 d93d a4ea afbc bd92 bd3c 5aac 28bc
00000060: 008b b2bb 35d0 253d 0ed6 59bb 5c02 e4bc
00000070: 415b 8f3d 7da4 213d c27c 943d 4d03 8fbb
00000080: dcf4 7ebd a7ee 29bd e754 ffbb ecf4 80bd
00000090: b9ab 3b3d fbfc 63bd 8f65 963b cd84 f0bd
000000a0: 46d1 d23d bb85 893d e1b8 e83b d2df c13d
000000b0: c567 203c 046c 8a3d c72f 863b 6a1e ad3d
000000c0: 7ab5 e83c b841 b8bd 497e 02be 4737 53bd
000000d0: e824 b53d 1928 6e3d c4ec bbbd 34bf 49bd
000000e0: c89d 13be ee32 60bd aae4 8bbd 38b0 343d
000000f0: 2c89 10be f696 853c 1c41 cb3d fc64 e8bd
00000100: 140c 82bc f185 833c d53d cabc 7523 52bd
00000110: c9b6 79bd 084e de3a 9884 9abc 50ad 993c
00000120: 4fb9 4dbd 6a92 03ba 85ef a5bd df62 a1bb
00000130: f152 613d 720f 93bb fb13 873d 4e0f 8f3d
00000140: 04a4 db3d 6d4d 71bd ff92 bcbc 75bf 57bd
00000150: b7b0 f1bd 5945 45bd e635 87bc f218 ecb9
00000160: d0d0 083c 5c7e 81bd be74 513d 3d2e a13d
00000170: 3dca a33a 1d68 5a3d a7c1 febc 89f8 3b3d
00000180: b71d d1bd 4458 943c b081 57bd 1a14 99ba
00000190: 6fc7 b8bd 5868 103d a6f9 7b3d a4b2 e5bd
000001a0: 271e 5d3d fd42 b6bc 482a 7ebc e2af 3c3c
000001b0: c181 d8bd 0e0e 91bd 2287 c7bc 1415 493d
000001c0: 89b8 9b3c e816 9fbd da7b 0f3c fbe0 ee3d
000001d0: 09e5 28bd 10a1 5ebc 21f3 68bc bc03 963c
000001e0: 30a9 3abd 620f 1ebd afba 87bd 379d 0b3b
000001f0: c135 323d 7d28 bfbd 36ce a33c c736 f3bd
00000200: 23b1 973d 954a 14bd 885d f13d c5ca 69bc
00000210: 41b3 4dbd 802d 44bd 342d 993d 360f 0b3d
00000220: 2df1 6cbd ca5a 403c 91e2 523d dbba cbbd
00000230: 6c42 97bd f411 89bd 8acc e3bc 707e c43d
00000240: de45 cdbc e057 33bd f432 03bc 8d20 093c
00000250: 7ef7 3a3d bc5f 3d3d 587a c83c 6a1a 5b3c
00000260: 51e1 2fbd c025 df3d e503 b6bd d92b be3b
00000270: c5f9 a3bc 7e0b a2bd b250 d0bc a9bf 593c
00000280: 095e 98bc 4125 e93d 1718 193d e31e 94bc
00000290: a1e7 e13c 0e1e 88bc 1ba3 9b3b 70cb e0bc
000002a0: de60 a73d e973 c63c 5c5c a4bd 287b 8d3d
000002b0: a0ab 88bc d14b 64bd d2d1 af3c 063f 54bd
000002c0: 0351 6bbd f6df 50bd b631 e7bc 2b0a babd
000002d0: 95bb 00bd 7ac6 7f3d 11d9 5e3d 0197 afbc
000002e0: 607e e2bd 0308 b13b d1ef a93d 706d f53c
000002f0: 3944 a9bd 6a9c 8cbd 1a44 9e3b 612c 28bd
00000300: 80a0 0e3c 4132 03bc f979 343d 9163 d03d
00000310: 2bb8 be3d bf04 323d 4b32 cb3b ff42 aabd
00000320: a38c d93c a409 343c 2d5d c0bd 5266 2bbd
00000330: bbe7 d8bc 07a1 66ba db07 253d bd4a abbd
00000340: fe20 69bb 6d73 f6bc 5a68 b33d 72bd eebc
00000350: 16cd afbd 0346 b3bd 053f 813d 0a18 173d
00000360: d203 d2bd f7c3 81ba b374 ab3c acc8 423d
00000370: 08b2 d43b 8dfc 81bd f5ee cdbc bab2 cabd
00000380: a8f3 94bd 59f5 8bbd 16fb 1d3d 12c7 f5bd
00000390: 2cd9 d9bd 08ff ae3b 9c96 8d3d 19c4 293d
000003a0: 18f2 5a3c 0691 713c 2028 033c c437 ad3d
000003b0: e01e f0bb 9157 623d fe4a e43d 9073 50bd
000003c0: 6d79 babc 8db3 c2bd ea38 943d f9ba 043d
000003d0: 8969 aabc 269c d1bc 3c27 cfbd cd4f 1e3d
000003e0: a7c7 72bc 793f afbd 3701 973d 504a aa3c
000003f0: 2be2 3bbb d80a 063d 112a 16bd 2916 813b
0.00676398 -0.00088565255 0.032680538 0.00927539 -0.014904439 0.029265309 -0.0043178834 -0.009507662
-0.04921878 -0.1322406 0.09958794 0.07299174 0.011845958 0.03975554 -0.08014613 0.08734334
-0.0033561033 -0.022080233 -0.13406359 -0.0064952667 0.10639603 -0.02147419 0.02314126 -0.010294998
-0.005448699 0.040481765 -0.0033239159 -0.027833156 0.06999827 0.03946351 0.07250358 -0.004364407
-0.062245235 -0.041487362 -0.0077921036 -0.06296715 0.045818064 -0.055661183 0.0045897434 -0.1174408
0.10293822 0.0671496 0.0071021174 0.094665185 0.009790366 0.067588836 0.004095051 0.08453067
0.028406847 -0.0899691 -0.12743486 -0.05156639 0.0884493 0.05814371 -0.09176019 -0.04925461
-0.14415658 -0.05473607 -0.068307236 0.044113368 -0.14114827 0.016307335 0.09924528 -0.11347386
-0.0158749 0.01605508 -0.024687687 -0.051303346 -0.060965333 0.0016960511 -0.018862054 0.0187594
-0.050225552 -0.0005019071 -0.08102325 -0.0049251164 0.05501074 -0.004487925 0.06595608 0.06985341
0.10724643 -0.05891173 -0.023019312 -0.052672822 -0.11801284 -0.04816184 -0.016505193 -0.00045032013
0.008350566 -0.06322929 0.051136725 0.078701474 0.0012496185 0.053321946 -0.0310982 0.04589132
-0.10210746 0.018108495 -0.052613914 -0.0011678964 -0.09022414 0.03525576 0.06151738 -0.112157136
0.053983834 -0.02224874 -0.01551301 0.011516543 -0.105716236 -0.07082759 -0.024356429 0.049092367
0.019008892 -0.07768041 0.008757556 0.11664005 -0.04123405 -0.013588205 -0.014218123 0.018312328
-0.045571506 -0.03858889 -0.06627404 0.0021303424 0.043508295 -0.093338944 0.01999579 -0.11875682
0.07406833 -0.03620394 0.11785418 -0.014269535 -0.050219778 -0.047894955 0.07479325 0.033950053
-0.05784719 0.011740396 0.0514856 -0.09947749 -0.07385716 -0.066928774 -0.027807493 0.095944285
-0.02505773 -0.043784976 -0.008007754 0.008369577 0.045646183 0.046233878 0.0244724 0.013372997
-0.042939488 0.10895872 -0.088874616 0.005803567 -0.02001656 -0.07912348 -0.025429104 0.013290324
-0.018599527 0.11384059 0.03737649 -0.018081134 0.02757627 -0.016615894 0.0047496683 -0.027440757
0.08172773 0.024225192 -0.08025429 0.06908256 -0.0166834 -0.055736367 0.021462355 -0.051817916
-0.057450306 -0.050994836 -0.028221946 -0.09083971 -0.031428892 0.06244514 0.05440623 -0.021434309
-0.1105926 0.0054025664 0.082976945 0.02995941 -0.082649656 -0.06865771 0.0048298957 -0.041057948
0.008705258 -0.008007587 0.044061635 0.10175241 0.09312471 0.043461557 0.0062010637 -0.0831356
0.026556319 0.010988627 -0.09392772 -0.041845627 -0.026477685 -0.00087977987 0.040290695 -0.083638646
-0.0035572643 -0.030084336 0.08760138 -0.029143069 -0.08584039 -0.08753588 0.06310848 0.03688816
-0.10254635 -0.0009900321 0.02092967 0.047554657 0.0064909495 -0.06346998 -0.025138358 -0.09897371
-0.07273036 -0.06833906 0.038569532 -0.1200086 -0.106371254 0.0053404607 0.06913492 0.04144678
0.013363384 0.014744049 0.008005172 0.08457902 -0.0073278993 0.05525929 0.11147116 -0.05089146
-0.022762978 -0.09506903 0.07237418 0.032404874 -0.020802276 -0.025587153 -0.10114905 0.038650323
-0.014818109 -0.08557028 0.073732786 0.020787388 -0.0028668742 0.032725185 -0.03666121 0.0039394093

weight f4 [1, 256]
00000000: 5f0b 16be ba87 b03e 5228 863e ec46 ebbb
00000010: e455 aabe 1c60 a73e 24f0 c5bd 3201 a0be
00000020: cc70 86be 1814 97be a5fc 823e c6b5 b93e
00000030: bb71 48be 8683 833e 1fa7 b5be 27c7 ab3e
00000040: ce1e 8b3e 3202 6ebe 5517 95be 9440 82be
00000050: d02d a53e 9c7e 92be e751 13be 32d4 2abd
00000060: 2b3d 48be f5d3 4abe 8cba 84be 3dba b23d
00000070: 3148 a43e 3066 9ebe 0f78 9b3e 0186 8c3e
00000080: d40a a9be b677 73be 45b1 87be 9da5 81be
00000090: df46 6cbe abf1 da3d 6c18 9dbe d707 a6be
000000a0: fb07 123e d729 53bd d8fe 4fbe 7753 8b3e
000000b0: f9f6 173e 76cd b93e a551 afbe dada 6b3e
000000c0: c84b a13e 0b49 94be 307e b1be 3019 9fbe
000000d0: 127a 683e 6344 8b3e d2c6 97be 0462 a63e
000000e0: 3b4d 8cbe 30e4 433e 8421 b1be ab52 91be
000000f0: 950e 76be a16e c23e 63d7 b93e d4e1 afbe
00000100: 4ee9 2a3e ef61 ab3e 7798 93be c5c1 9ebe
00000110: 9d70 82be e115 a53e 3a40 96be 1865 543e
00000120: 163f 843d ab13 8c3e 9403 a0be 93e9 b03e
00000130: aca0 533e b4e7 16be 3f0e 7b3e a381 a93e
00000140: 4cde bb3e e39f 2abe 2ab1 2fbe 9d28 3ebe
00000150: a442 89be 53d7 afbe 5f00 f5bd 15e3 3abe
00000160: ecbd 9b3e feb2 92be 46e5 ad3e fc80 283e
00000170: 2e87 9a3e a3c5 3ebe a7ee a1be fa7e 62be
00000180: 13fc 8bbe fa6b acbe 6b06 283e 0248 593e
00000190: e6aa 4bbe e3c1 9cbe 92e3 aebd a2dc 9dbe
000001a0: 4349 8a3e ee9a a5be f22e a23e 8cb4 ad3e
000001b0: bfd0 aebe 6bb0 96be a330 41be 240e 44be
000001c0: 100b 93be 939b 87be 8f5f 92be a438 903e
000001d0: dad2 abbe c220 b53e 80f6 acbe ba0b 01be
000001e0: 23a9 8cbe 3839 22be 324d 7abe 3d55 86be
000001f0: 4ec2 833e cbbd 81be 9879 b43e 5d96 acbe
00000200: 786d 713e 8d2a 8bbe 27a3 8d3e 6095 c2be
00000210: 56a2 973e b2b7 b5be 461a a23e b01e a5be
00000220: ee3f 9fbe 6279 953e 8c60 b53e d49e 8bbe
00000230: 5fb1 98be 63c9 9bbe eaa0 9cbe ebc7 9e3e
00000240: bcce 67be 250b 863e 3511 17be 0a59 a23e
00000250: 1e75 92be 625d a83e c247 8d3e d925 b33e
00000260: e30e b73e 4624 893e a9e8 f73c 7b56 8abe
00000270: 6a2c b33e f018 963d b3df fabd aa12 74be
00000280: efc2 9bbe eae5 a63e 1422 3f3e a480 633e
00000290: a9fb 863e f20f b03e 0372 973e 7f67 443d
000002a0: d5a0 7e3e 31f6 703e 2337 6abe 325e 773e
000002b0: 1f59 a73e 4e52 82be 6d88 5fbe 51d5 a8be
000002c0: 70f9 203e d83b 59be 5d44 b0be 0b59 92be
000002d0: d682 483e d4fa a83e 102f 893e 3e6f 9d3e
000002e0: d2c3 42be dd43 a93e 6e1d 983e 5854 873e
000002f0: e5b9 a1be 78a6 8fbe 076a 8e3e 1348 58bd
00000300: daac 4c3e bf04 833e 3890 863e 776c a43e
00000310: 8e97 b63e 327d 5fbe 26ab 9cbe ef92 82be
00000320: d242 50be 8d1b c8bd 018e 96be e30b 9bbe
00000330: 025a 8ebe 3f29 353e 8668 7fbe 204f 96be
00000340: e3d7 6fbe 468a 6bbe bb4d 893d 3e9b aabe
00000350: 6071 5dbe 40a0 d33d 5f1b 633e 18cc a43e
00000360: 5cb2 9cbe b1a9 50be 3722 83be 33df 3dbe
00000370: c507 9c3e e962 a0be cbc8 64be 8248 80be
00000380: 38a7 9dbe eb3f 9fbe 8a9a b63e 2eee aabe
00000390: a404 a3be b832 69be 3dd7 993e bb6b 06be
000003a0: 876b b43e 4134 b83e 93d6 9abe 1d2b ae3e
000003b0: e92a a33e 9815 90be 5de8 8a3e f30f 943e
000003c0: d038 1fbe 9039 95be b5f8 753e debb 963e
000003d0: aef8 adbe cc4b 9ebe a01a 96be 2b31 903e
000003e0: 8604 343e f5d1 9cbe 8765 9f3e 7bd0 8c3e
000003f0: 02f8 b83e a780 b13e 1dff 8dbe cf8c 93be
-0.14652775 0.3447855 0.26202637 -0.0071800854 -0.33268654 0.32690513 -0.09664944 -0.31250912
-0.26257932 -0.29507518 0.25583377 0.36271495 -0.19574635 0.25686282 -0.35479066 0.3355038
0.2717194 -0.23243025 -0.29119363 -0.25439894 0.32261515 -0.2861222 -0.14386712 -0.04170627
-0.19554584 -0.19807418 -0.25923574 0.087269284 0.32086328 -0.30937338 0.30365035 0.27445987
-0.33016074 -0.23776135 -0.26502433 -0.25321665 -0.2307391 0.10690626 -0.30682695 -0.32427856
0.14260857 -0.051553573 -0.20312059 0.27212116 0.14840306 0.36289567 -0.34241977 0.23032704
0.3150313 -0.28961977 -0.34666586 -0.31073904 0.22702816 0.27200612 -0.29643875 0.32496655
-0.27402672 0.19130015 -0.34595883 -0.28383383 -0.24029 0.37975028 0.3629714 -0.3435198
0.16690561 0.33473155 -0.2882726 -0.3100721 -0.25476542 0.32243255 -0.29345876 0.20741689
0.06457345 0.27358755 -0.3125273 0.34553203 0.2066676 -0.14736825 0.24517153 0.33106717
0.36693037 -0.16662554 -0.17157426 -0.1857018 -0.26808655 -0.34343967 -0.119629614 -0.18250687
0.30418336 -0.28652185 0.33963984 0.16455454 0.3018126 -0.1863008 -0.3162739 -0.2211875
-0.27340755 -0.3367613 0.16408698 0.21218875 -0.19889411 -0.30616674 -0.08539499 -0.30832392
0.2700902 -0.32344764 0.3167644 0.3392681 -0.34143636 -0.2943147 -0.1886621 -0.19146019
-0.28719378 -0.2648588 -0.2858853 0.28168213 -0.33559304 0.35376555 -0.33781815 -0.1260213
-0.2747279 -0.1584214 -0.2444351 -0.26236907 0.2573418 -0.25340113 0.3524902 -0.33708468
0.23576915 -0.271809 0.27663538 -0.3800459 0.2961604 -0.3549171 0.3166067 -0.32249975
-0.31103462 0.2919417 0.35425222 -0.27269614 -0.29822823 -0.30427083 -0.30591518 0.310119
-0.22637457 0.26180378 -0.14752658 0.31708556 -0.28604978 0.32883745 0.2759381 0.34989813
0.35753545 0.26785487 0.030262308 -0.27019104 0.34994823 0.07328975 -0.122496985 -0.23835245
-0.3042216 0.32597286 0.18665344 0.22217041 0.26363876 0.34387165 0.29579172 0.047950264
0.2486604 0.23531415 -0.22872595 0.24157026 0.32685181 -0.25453418 -0.21829386 -0.32975248
0.15720153 -0.21214235 -0.34427157 -0.2858356 0.1958116 0.33003867 0.26793718 0.30748934
-0.19020012 0.33059588 0.29709953 0.26431537 -0.3158714 -0.28056693 0.27815267 -0.05280311
0.19987813 0.25589558 0.26281905 0.32114002 0.35662502 -0.21825102 -0.30599326 -0.25502726
-0.2033799 -0.0977088 -0.29405215 -0.30282506 -0.27803046 0.17691515 -0.24942216 -0.29357243
-0.23422198 -0.23001966 0.06704279 -0.33321565 -0.2162528 0.103333 0.2217841 0.3218696
-0.30604827 -0.20377232 -0.2561204 -0.18542175 0.30474678 -0.31325462 -0.22342221 -0.2505532
-0.3079164 -0.31103453 0.3566478 -0.33384842 -0.31839478 -0.22773254 0.30047026 -0.13127033
0.35238287 0.35977367 -0.30241832 0.34017268 0.31868675 -0.28141475 0.27130404 0.28918418
-0.15549016 -0.2914548 0.24020655 0.29440206 -0.3397879 -0.30917203 -0.29317188 0.28162512
0.1757985 -0.30628935 0.31132147 0.27502808 0.36126715 0.34668466 -0.27733698 -0.28818366

weight f4 [6, 256]
00000000: e83b f1bb 6834 d3bc d37e 053d 8ef3 9bbd
00000010: 6125 853d 8461 a63b 0dc9 81bd 7a59 773d
00000020: b30f 213c f5c9 45bc 2e79 edbc 7ac6 933d
00000030: e52d 143d ccc2 943b 0f9a bdbc 39c7 09bd
00000040: 4abb 893c b611 be3c c8d1 73bd 554d 833d
00000050: 4e5a c93d 9db4 bebc f5ea 703c 1e46 aebd
00000060: 4b54 9ebd 811f 033d 56a9 6a3d a6d1 aa3d
00000070: 60db 59bb 9a1e a1bc ce15 4bbc 1ac7 f83c
00000080: 64b7 0d3d 745a 2ebc 07c8 2dbd e070 a13c
00000090: 7019 f5bb 56ae 50bd 5633 663d a015 16bd
000000a0: 108d 583d 583f bb3d c609 893b e984 433d
000000b0: f4b1 463d e072 88ba c5f1 6b3d 7e7d 09bd
000000c0: ca6f 90bc 6692 e9bc 6238 b33c 4bf5 823d
000000d0: 4bce 54bd 8e2e 2abc 2286 c7bc f2c9 27bd
000000e0: 2f4b b43c 8ad0 fd3c 8fc8 373d 63b9 54bb
000000f0: 4378 8cbd 13d7 043d 7de2 f93c 02c0 c63a
00000100: cea0 bf3d e6c5 473d 3c12 21bd 49a2 103d
00000110: aeb2 8b3b 2523 60bd 4eeb 01bc 750b 483d
00000120: 3cf3 023d 1751 213c d0ec 0d3b eae7 cfbb
00000130: 1314 c43d ef15 09bd 3803 17bd 6372 2b3c
00000140: f1c9 df3b ca32 11bc 67d7 cc3c 418c 17bd
00000150: 59e9 6abd e404 8a3d 3085 a13c 6880 aebb
00000160: f326 a73c 0fd2 50bd 7019 3bbd fc29 abbd
00000170: deb0 383d 746c 263d d10e 8e3c 883d 393c
00000180: 262e 823d a68d c83a 1e67 cc3d ec23 ee3c
00000190: 02f3 9f3c 2592 a53c 500a 4a3d 1d9b ca3c
000001a0: d55b 053d c597 d7bc e862 93bd 0098 4d3c
000001b0: 3a76 08bd 675c bb3c b3ba 733d 6649 eb3c
000001c0: d0f2 a2bc cba7 563d 6dd0 373d c201 213d
000001d0: 4e00 013b f9c5 c73c d538 adbc 0582 5dbd
000001e0: 99b1 a4bc 1ffd 09bd d863 2abd 6027 403d
000001f0: 53da 7fbd acf2 d73c cf53 9abd 2ec1 43bc
00000200: a0a0 453d d9d9 793c ea93 5bbc 8970 36bd
00000210: b288 aebc 61c4 253d a89f 033d 7791 3abd
00000220: d0ec c03c 2261 7f3d ba83 4a3d 04e9 703c
00000230: 69f3 2bbd 41f4 28bd b78b 29bd 0b9c 483c
00000240: cf7a 00bc 8611 ef3c d998 3d3c 84ec 91bd
00000250: 0fc5 4a3d d46d 2f3d 8688 093d ca90 113d
00000260: e816 fb3c 053b 30bd 6e24 2abd 7c6f b8bd
00000270: fecc c43c fede 4c3d 27c4 d43d b336 46bb
00000280: 0ad8 d3ba 8e31 e23b c5a8 64bd 93a8 763d
00000290: 908d 953d e646 ff3c 0b09 943b f2b1 303d
000002a0: 363e d0bd 0ed7 513c 22e9 aebd 57ce 3e3c
000002b0: 095c 47bd 11e3 8dbc 752b 35bd 5d9a 3fbd
000002c0: d517 20bd 946b 053c dcb0 6bbd 5d15 213d
000002d0: e358 9a3d 8eb7 683d 8b39 813c ab15 18bc
000002e0: eee6 b4bb 085c 4abb a0e9 57bd 38b2 29bd
000002f0: aad7 86bc 11cc cc3d 70f8 8fbd f9f5 943d
00000300: 1018 55bc 28bd b93c 548d 7abd 1dc8 703d
00000310: 2a48 ccbb 3d13 5b38 9f93 a5bd f2a2 643d
00000320: e6ca c93c 7148 883d 2124 1ebd 1947 813c
00000330: 7324 353d c5f1 783c 5290 edbc 7ba9 7cbb
00000340: 5f4f 203d c1ec e8bc 3e54 d83c c89b e1bc
00000350: b297 263c 62cd a63d 1ffe 1e3c 3127 873d
00000360: d11d 56bd 7944 753c d034 b43c ddae ad3c
00000370: 956e e8bc 5acc 073d 2ec0 16bd 4ec1 ea3c
00000380: 87f4 043d f50e 0cbc 3ed9 873c 88d9 ca3c
00000390: f85e 6cbc e85f 583c a394 cbbd cca1 02bd
000003a0: fb94 d23c 0fb5 3ebd abee 1a3c cc64 43bc
000003b0: 57f2 3cbb 39c6 523b 9a68 8e3d f6e0 1dbd
000003c0: 5a3e 953d e429 c3bc be9c 7c3d 9db8 233c
000003d0: dce9 acbd bf98 95bd 016a 163d 7841 8e3c
000003e0: 1ffd cf3d 1e03 d33c 893a c0bc c2e7 3f3d
000003f0: 7946 0bbd 863e 49bc fcf8 8ebd 0e5c 11bd
-0.0073618777 -0.025781825 0.032591652 -0.07614814 0.0650127 0.0050775427 -0.063371755 0.060388066
0.009830403 -0.012072076 -0.028988447 0.07215591 0.03617658 0.004539823 -0.02314475 -0.03363726
0.01681294 0.023201805 -0.059526235 0.06411234 0.098316774 -0.023279482 0.014704456 -0.085094675
-0.07730921 0.032012466 0.057290398 0.083407685 -0.003324233 -0.019667912 -0.012395335 0.030368377
0.034598723 -0.010641683 -0.04242709 0.019707143 -0.007479839 -0.05094751 0.0562013 -0.036641717
0.052868903 0.09142941 0.0041820733 0.047734175 0.048509553 -0.0010410212 0.057603616 -0.033566944
-0.01763143 -0.028512191 0.021877471 0.06394442 -0.05195455 -0.010387076 -0.024355952 -0.040964074
0.022008507 0.030983228 0.044869002 -0.0032459132 -0.068588756 0.032431673 0.030503506 0.0015163424
0.09356843 0.048772715 -0.03932403 0.035311017 0.0042632436 -0.054721016 -0.007929636 0.04883905
0.031970248 0.0098459935 0.0021656044 -0.006344785 0.09574141 -0.033468183 -0.036868304 0.010464284
0.006829493 -0.008862207 0.025005056 -0.03699899 -0.057351444 0.06739214 0.019716829 -0.005325366
0.020404315 -0.050981577 -0.045678556 -0.08357617 0.04509055 0.040630773 0.01734105 0.011306174
0.06356458 0.0015301004 0.099806055 0.029069863 0.019525055 0.020211289 0.04932624 0.024732167
0.03255828 -0.026317487 -0.07196599 0.012548447 -0.033315875 0.02287121 0.059504222 0.028721523
-0.019891173 0.052406114 0.044876505 0.039308317 0.001968402 0.024386393 -0.021145264 -0.054079074
-0.020104216 -0.03368866 -0.041599125 0.04691255 -0.06246407 0.026360832 -0.075355165 -0.011947913
0.048248887 0.015249693 -0.013401965 -0.044540916 -0.021305416 0.040470485 0.032134682 -0.045548882
0.023550421 0.062348492 0.04944203 0.014703993 -0.04198018 -0.041248564 -0.041393008 0.012244235
-0.00784178 0.02918316 0.011572086 -0.0712519 0.049504336 0.04282935 0.033577465 0.035538472
0.030650571 -0.043025035 -0.04153865 -0.09005639 0.02402353 0.05001735 0.103889756 -0.0030245006
-0.0016162407 0.00690288 -0.055825014 0.06021936 0.073023915 0.031161737 0.0045176796 0.043138452
-0.10168116 0.012807621 -0.0854056 0.011645875 -0.048671756 -0.017320188 -0.044230897 -0.04677807
-0.039085228 0.008143324 -0.057541713 0.039327014 0.07536485 0.056815676 0.015774509 -0.00928251
-0.005520693 -0.0030877609 -0.052713037 -0.04142973 -0.016460259 0.0999986 -0.070298076 0.07273478
-0.013006225 0.022673205 -0.061169937 0.058784593 -0.0062341886 5.2231586e-05 -0.08084797 0.05581946
0.024632882 0.06654442 -0.038608674 0.015780972 0.044224214 0.015194361 -0.028999481 -0.0038553167
0.039138194 -0.028433206 0.026407357 -0.027540103 0.010168003 0.081446424 0.009704142 0.06599272
-0.05227453 0.014969938 0.02199784 0.021201545 -0.028373042 0.03315387 -0.03680437 0.028656628
0.032459762 -0.008548488 0.016583081 0.02476193 -0.014426939 0.01320646 -0.099404596 -0.031892583
0.025705805 -0.04655939 0.009456317 -0.011925887 -0.002883097 0.0032161607 0.06953545 -0.038544618
0.07287283 -0.023823686 0.06167292 0.009992746 -0.08443043 -0.07304525 0.036722187 0.017365202
0.10155701 0.025758322 -0.023465412 0.04685188 -0.034002755 -0.012282973 -0.06981084 -0.03548818

bias f4 [6]
00000000: 4c08 6cbd 34d1 0ebc 0feb 303c 46dd 5cbd
00000010: 03ea b3bc 9f3f 603d
-0.0576251 -0.00871687 0.01079823 -0.05392196 -0.021962171 0.054748174
