models/adi_network_hk_1b.pth (torch, 424172 bytes, 7 tensors)

weight f4 [256, 144]
00000000: 66fc 4bbd 4670 213c 5e72 c73c ee83 ffbc
00000010: 4ea8 233e c536 ae3d 466b c2bd 3901 bd3c
00000020: 7be0 2f3e 1fd5 0bbe 8ed6 d5bc a415 0cbe
00000030: e01f c63d 88b1 4b3c 44b4 683d 8e86 50bc
00000040: d91a 4f3d 19b1 aa3d 9cb2 59bd 1f75 c13d
00000050: f29c d03c b240 983c f930 24bd 8dd3 c2bd
00000060: eb7a 433c b217 9bbd 38f7 8cbb d066 0b3e
00000070: ede7 563d 050c 103d 1c02 513e bb26 e23c
00000080: 1e82 eebc b5de 94bd bf7e 29bc 3e46 24bd
00000090: e3f5 c3bc 2693 acbd ab3e 64bd 82b6 49bc
000000a0: 40aa b03c f29e 843c eaae f0bb 7b8a 993d
000000b0: d2f0 c5bd 9b7d 1d3d 6406 e9bd 5c04 323d
000000c0: 488b 723d 2e82 83bd bc5c adbd 78d4 0a3c
000000d0: a9a0 56bd 5f67 3a3e b2a6 183e f0f0 11be
000000e0: baa8 ba3c 4729 083d c3b4 7abc 47bd c9bc
000000f0: f59b b23b c12c abbd 2cf4 393d b852 01bd
00000100: 6c7c 91bd 7a11 963d 2a33 913d 2f71 62bd
00000110: c0cf f03d a6aa a63d 97ad b4bd cc1d 2dbe
00000120: 32fb 08be 9459 003e aaec c3bd d172 cbbd
00000130: a7f9 2b3d ab82 133d 4deb 44bd fd3b c23d
00000140: b110 5dbd 690f 0cbe 78e9 57bd 8421 c1bd
00000150: 172c bdbd 4708 283d dfe5 133e d460 cbbd
00000160: a924 40bc 7140 70bb 68c0 4cbd ac53 72bb
00000170: 3060 1f3d 2003 3f3d 1328 45bd 050e 39bd
00000180: 024e e4bd 89bc 913d 0009 b1bd 2063 d3bd
00000190: 7c19 423d 2e45 fbbd de6d 83bb dcf5 d83d
000001a0: b3f1 3a3c 447e 673c 3b66 2a3e 7f20 a53b
000001b0: db05 d6bd 58f1 263d 4ab4 713c 94fe 9e3d
000001c0: 0ff9 a03d f43e a6bd 5705 c8ba c10c 933d
000001d0: b5e2 2fbd bd84 53bd b244 97bd b3ec 6c3d
000001e0: 92fa 6cbd ca0f 95bd 0bfa 39bd 50e7 a53d
000001f0: 1dbd e5bd 7858 9b3c 60c0 01bd ed0f 2f3d
00000200: 48b1 27bd 2d19 473d 0461 113e ea5b 073d
00000210: e6f7 4c3d 6728 c23d 8e76 e5bc 15f4 e43c
00000220: 48a9 d8bd e614 90bd 5be4 963d c4a1 0d3c
00000230: 913f e83b 4e01 03bd a7e3 693c e0ba 61bd
00000240: 63f8 75bd 8457 293b d169 99bc 5779 453d
00000250: 29b8 7c3c 930d 53bc ba15 a23d 78eb 8c3d
00000260: 6d6e 7d3d cbfd 0c3e a104 073c 130a 243d
00000270: 1761 11bd 834f 84bd 4f37 0fbd 1196 a93d
00000280: d78c 06bd b7e6 b23d 2103 a3ba 98b1 8a3d
00000290: 106e 56bd 1156 84bc ce4c 723d 937d 4a3c
000002a0: 9f81 473a b762 03bd 20f4 7bbd a5a4 a7bc
000002b0: a6a5 773d 07ea ff3d 82ca 7f3c 9b8e 86bd
000002c0: 1806 d13c a629 9f3d 1612 d2bc 79f2 0f3c
000002d0: fed6 d93d 4bfd 833d 3bf6 443c a1d1 9bbd
000002e0: a4e0 88bd c31b 613d c07d 1e3e fd01 3e3d
000002f0: b3cc 013b 9929 94bd 6cbd 30be 995a 5c3b
00000300: 2366 0c3e 2234 cabc cda1 a73d f340 193c
00000310: 3a4a 743d 2e40 dd3c 1bf8 053c def6 9e3d
00000320: 7bdf 38bc 0262 50bd 2cf1 46bd 712e a6bd
00000330: 6322 1dbd 9624 0e3b 477f 833d 85e4 6fbc
00000340: 0299 873d a5fd 963c 8d12 0f3d 9715 153e
00000350: 04d0 79bd bc81 11bc e93f cabb 848e 12bd
00000360: 3f09 91bd c8a8 bd3d 6a5d 483d 1c93 acbb
00000370: 1b77 70bd 4e4c 9dbd 46f9 86bd 7572 2fbc
00000380: 11f1 223d 0f98 a43d 85b9 c03d 9826 29be
00000390: aa96 653d 2bcf 1f3d f41e a73d 8d1d 853d
000003a0: f0ed 693d 112f 96bd 3fe2 13bd c6b2 dc3c
000003b0: 19a7 81bb 100e 70bd e9ca 063e 5e2c 6dbd
000003c0: dd5a 2c3d b7cf bebc 5508 60bd d8a5 5dbd
000003d0: a55f b93d d521 133d 8fca c33c e74b b83d
000003e0: 22aa 5d3d a781 4e3d e15e 13bd a4e9 70bd
000003f0: a56e 9f3d c6dc 73bd 41ef 323d 2959 08be
-0.049801253 0.009853428 0.024346527 -0.031190839 0.15982172 0.0850654 -0.09493117 0.023071872
0.17175476 -0.13655518 -0.026103284 -0.1368013 0.096740484 0.0124324635 0.05681254 -0.012727393
0.050562713 0.0833456 -0.05314885 0.09446167 0.025465462 0.018585537 -0.040085766 -0.09513006
0.011931161 -0.07572879 -0.0043019317 0.13613439 0.052467275 0.035167713 0.20410961 0.027606359
-0.02911478 -0.072690405 -0.01034516 -0.04010605 -0.023920959 -0.08426504 -0.055723827 -0.01231158
0.021565557 0.016189072 -0.00734507 0.07497116 -0.096650735 0.038449865 -0.11378172 0.04346119
0.05921486 -0.06421314 -0.08464953 0.008473508 -0.05239931 0.18203495 0.14907339 -0.14252067
0.022785533 0.03324249 -0.015301886 -0.024626387 0.0054507204 -0.083581455 0.045398876 -0.031573027
-0.0710381 0.07327552 0.07089837 -0.05528372 0.11758375 0.08138017 -0.08822172 -0.16905898
-0.13377073 0.12534171 -0.095666245 -0.09934009 0.041986134 0.036013287 -0.048075963 0.09484098
-0.053970996 -0.13677754 -0.052712888 -0.09430221 -0.09236925 0.04102352 0.14443158 -0.09930578
-0.01172749 -0.0036659504 -0.04998818 -0.0036976142 0.03891009 0.04663384 -0.04813392 -0.045179386
-0.11147691 0.07116038 -0.08644295 -0.10321641 0.047387585 -0.12269054 -0.0040109 0.10593769
0.011410165 0.014129225 0.1664056 0.005039274 -0.104503356 0.040757507 0.014752457 0.07763401
0.07860004 -0.08117476 -0.001526038 0.07180167 -0.042940814 -0.05164026 -0.073861495 0.05784292
-0.05785615 -0.07278402 -0.045404475 0.0810076 -0.11217711 0.018963084 -0.031677604 0.042739797
-0.040940553 0.048607994 0.14197165 0.03304664 0.050041102 0.094803624 -0.028010633 0.027948419
-0.10579163 -0.07035236 0.07367774 0.008644525 0.007087656 -0.031983666 0.014275468 -0.05510986
-0.060051333 0.0025839517 -0.018727215 0.04821142 0.015424767 -0.012881654 0.079143 0.068808496
0.06187289 0.1376869 0.00824085 0.04004867 -0.035492983 -0.06460478 -0.034964856 0.08280576
-0.03284916 0.087354116 -0.0012436846 0.067721546 -0.052351058 -0.01615432 0.059155278 0.012359041
0.00076105626 -0.032076564 -0.061512113 -0.02046425 0.06046071 0.12495809 0.0156122465 -0.065701686
0.025515601 0.07771616 -0.02564339 0.008785837 0.1063671 0.06444796 0.012021597 -0.07608343
-0.06683472 0.054958116 0.15477657 0.046388615 0.0019805848 -0.072344966 -0.17259759 0.0033623336
0.13710837 -0.024683062 0.08185158 0.009353864 0.0596411 0.027008142 0.008176829 0.0776193
-0.011283751 -0.050874718 -0.048569843 -0.08114327 -0.03836287 0.0021689287 0.064207606 -0.014641886
0.06620981 0.018431494 0.0349298 0.14559017 -0.060989395 -0.008881029 -0.0061721695 -0.035780445
-0.07081842 0.09260708 0.04891721 -0.0052665602 -0.058707338 -0.076805696 -0.06590514 -0.010708441
0.03978068 0.080368154 0.09410385 -0.16518629 0.056051888 0.03901593 0.08160201 0.06499777
0.05711168 -0.07333196 -0.036104437 0.026940715 -0.003956687 -0.05860716 0.13163342 -0.05790364
0.04207884 -0.023292406 -0.054695446 -0.05411324 0.09051446 0.035920937 0.023900298 0.08998852
0.05411733 0.050416615 -0.035979155 -0.058816567 0.07784776 -0.059536718 0.0436852 -0.13315262

bias f4 [256]
00000000: 4dea f2bd d567 e73d b08b 5ebb e603 993d
00000010: 7300 803d 4a25 5cbd aeba a73b 4712 8abd
00000020: 0a69 40bd bed4 583d 46fc 8b3d 8e63 b33c
00000030: b0ce 9ebd e199 d53d 9d47 fcbd 98a3 003d
00000040: 7975 cfbd 7614 963d cdac ba3d 8109 573b
00000050: d01b d93d 5113 abbc 3418 13be d847 0c3d
00000060: 8980 39bd 84a8 b3bc 8e9f 153d 3ab7 81bc
00000070: 882d f23d ad5e 9c3d 49ae a53d 0f46 c5bd
00000080: 4a4a 043e 7609 bb3d 2688 11bc 9c24 d23c
00000090: aece 483d 7e23 83bd 309d c23d 1667 9fbc
000000a0: a819 063e 54ff 01bd 4ca1 223d 59bc 833d
000000b0: d651 00bc 1fb4 d6ba 9ab9 8d3d d040 8f3c
000000c0: 52ea 10bd 521c 43bd 13b3 5f3d 2227 ddbc
000000d0: a5e8 a5bd 5de3 9fbd 3a9d ea3d 4d26 dcbd
000000e0: 322a 383e 5371 f8bd f927 d8bd a1e4 07be
000000f0: 375f c13d 6255 edbd 4ea0 f8bc 6124 133c
00000100: c4b7 c73d 5c81 7b3a d930 8fbd 5cad a13c
00000110: 0d2d 9e3d 67da a43c af85 233d 20fe 053d
00000120: 85f4 903d 063a dcbd 3c3a 6fbc 831b 90bb
00000130: c52a 66bd 0b30 f93c 09a5 d3bc 3449 2c3c
00000140: 9ec9 abbc 0c84 f53d 46e2 6bbc 1e84 3d3b
00000150: 5ddb 9b3d c32e abbd 1929 8fbc 07b7 d83d
00000160: cb66 e5bd e91a c1bc 41c9 c4bd 1b6e d93d
00000170: 095e 853d 28ee 463d 41ae 81bd 29ce e8bd
00000180: aa5c 2dbd ffe8 c03d acb8 9c3d 6bf5 c53b
00000190: 12cc d73d 63f9 d53b e3bb b63c e82e 0fbd
000001a0: 3736 e5bd 2878 32bd 0539 ac3d bfe1 45bd
000001b0: e997 8b3c c0b4 733d d25e f93a 766a 523c
000001c0: 1da7 d0bc e27d 10bc 8757 c83d a793 70bc
000001d0: 409c 1dbd c776 043d 377c 8bbd 812f 833b
000001e0: 55eb b73c 3e5a 64bd db8b d8bd 2ad2 9d3c
000001f0: a9b2 f2bb 4ea1 493d fd45 fcbd f7eb 123e
00000200: 1f2d 58bd 93d4 8a3d bd35 06be 4f6e 023e
00000210: c99e 70bd 6502 763c 0c20 d03d 7ed2 4d3d
00000220: 64ec d33c 6cab c33d 3b5d 30bd 9189 09bd
00000230: 959f 963d 155a c13c 3056 003d cc26 84bd
00000240: 5d19 81bd 71a4 e7bd a497 493d bb2f 16bd
00000250: c591 b43b 914a 23bc 9043 0d3d 5790 9dbb
00000260: cde2 62bd 517d a73d bbe1 26bd 1022 20bd
00000270: 5e0e 1bbd 2cf7 31bd e414 8ebd f716 483d
00000280: 6162 44bd 24db 10bd 50aa 13bd f11f 83bd
00000290: 7e2a aebd 66a4 b7bd faf9 d03c 2041 44bc
000002a0: 2698 fd3d 9d50 763c e14d 8d3c 5e13 2dbb
000002b0: 7e01 67bd f1e0 09be 5f35 fb3c d8c2 f53c
000002c0: 425a 01bc aa06 aebd 8495 5c3c a091 053d
000002d0: 2b9e 94bd da66 983d db83 03be 4b97 4fbd
000002e0: 8609 7f3d 6b24 01bd e198 033d 61ba 37bd
000002f0: d556 5c3c 00b2 023d af0a 613d 8cd8 e13d
00000300: 3450 c23c 30e5 fb3d b784 13bd 46a2 bb3d
00000310: 869c 2c3c 8ed1 5f3d a242 ccbd 0899 413d
00000320: 42a6 66bd 01a8 7d3d 64eb d13d 4ebd 86bd
00000330: 580e ad3d 2e9f 993d d188 99bc 0620 223c
00000340: af17 34bb 18ef d0bc 3667 dabb d122 263b
00000350: a3e1 9a3c a42d 0b3e 624d 97bd 8e1a febd
00000360: 6b88 e9bd 032f 633d bf55 ab3d 3c53 da3d
00000370: 8aea b8bb 2ec8 bcbd 3b56 df3d 3336 85bc
00000380: 4954 6a3d 0135 2abd 3376 7bbc 7434 5cbd
00000390: fb39 afbd ae0c a33d cdd1 533c 99a5 bcbc
000003a0: f961 ce3d 7e66 e4bd 00e8 c6bd 67d2 72bd
000003b0: e376 89bd 0982 8dbd bba9 013e 1462 103d
000003c0: bc45 16bd 2612 d03c 49de 283d eec8 44bd
000003d0: be63 0c3d b538 db3d 2da6 033d 4221 033e
000003e0: 9676 c7bc da69 09be eb3c 8fbc 473f 8f3d
000003f0: 6bcf c93c 1358 cd3d 4e78 573d a18f 1cbd
-0.118610956 0.11299101 -0.0033957772 0.07471447 0.06250086 -0.0537465 0.0051186895 -0.067417674
-0.046975173 0.05293726 0.06835227 0.021898057 -0.07754266 0.10429741 -0.12318347 0.031406015
-0.10129828 0.07328121 0.091149904 0.0032812061 0.10601008 -0.020883234 -0.14364702 0.034248203
-0.045288596 -0.02193094 0.036529116 -0.01583444 0.11825091 0.076352455 0.08089883 -0.09632503
0.12918964 0.09132664 -0.008882558 0.025652222 0.04902523 -0.06403254 0.095026374 -0.019458335
0.13095725 -0.03173764 0.039704606 0.06432409 -0.007832011 -0.0016380585 0.06920166 0.01748696
-0.035379715 -0.04763443 0.054614138 -0.026996199 -0.08101014 -0.07807038 0.1145577 -0.10749493
0.17984846 -0.1213099 -0.10554499 -0.13270809 0.09441989 -0.11588551 -0.030349877 0.008980841
0.097518474 0.0009594166 -0.06991739 0.019735985 0.077234365 0.020123674 0.039922412 0.032713056
0.070778884 -0.107532546 -0.0146012865 -0.004397811 -0.056193132 0.030418416 -0.02583553 0.0105155
-0.020970162 0.119880766 -0.0143972095 0.002891786 0.076101996 -0.083585285 -0.017475652 0.10581785
-0.11201247 -0.023572402 -0.09608699 0.10616704 0.065120764 0.048566967 -0.063320644 -0.11367447
-0.0423247 0.094194405 0.07652411 0.006041219 0.1053697 0.0065299734 0.022306388 -0.034956843
-0.11191981 -0.04357162 0.08409313 -0.04831099 0.01704021 0.05949855 0.0019025451 0.012842765
-0.02547031 -0.008819075 0.097823195 -0.014683641 -0.03847909 0.032339837 -0.068108015 0.0040034656
0.022451082 -0.055750124 -0.1057355 0.019265253 -0.007406552 0.049226098 -0.12318037 0.14347826
-0.052777406 0.067788266 -0.13106437 0.12737392 -0.05874518 0.015015219 0.101623625 0.05024957
0.025869556 0.095541805 -0.04305766 -0.03357846 0.073546566 0.023602525 0.031332195 -0.064527124
-0.06303666 -0.113106616 0.04921688 -0.036666613 0.005510541 -0.0099665085 0.03448826 -0.0048084664
-0.055392075 0.08178199 -0.040742617 -0.039094985 -0.0378555 -0.043448612 -0.06937578 0.048850026
-0.047945384 -0.03536524 -0.036051095 -0.06402577 -0.085041985 -0.089669034 0.025509823 -0.011978418
0.12382536 0.015033868 0.01724905 -0.0026409249 -0.056397907 -0.13464715 0.030665098 0.030000135
-0.007895054 -0.08497365 0.013463382 0.032609582 -0.07256731 0.074414924 -0.12843268 -0.050681394
0.06226494 -0.03152887 0.03212822 -0.04485548 0.013448437 0.031908035 0.05494183 0.11027631
0.023719884 0.122995734 -0.03601524 0.091618106 0.010535365 0.054643206 -0.09973647 0.047265083
-0.0563109 0.0619278 0.10249975 -0.06579076 0.084500015 0.07501064 -0.018741997 0.00989533
-0.0027479937 -0.025504634 -0.0066651357 0.0025350342 0.01890642 0.1359163 -0.073878065 -0.12407409
-0.11402973 0.055464756 0.08365964 0.10660407 -0.0056431936 -0.09217869 0.10905119 -0.016261196
0.057209287 -0.041554455 -0.015348005 -0.05376096 -0.08555981 0.07961403 0.012928438 -0.023028182
0.100772806 -0.11152361 -0.09712219 -0.059282687 -0.06712129 -0.06909568 0.12662403 0.035249785
-0.036687598 0.025399279 0.041227613 -0.048043184 0.03427481 0.107041754 0.0321409 0.12805656
-0.024348538 -0.13419285 -0.017485103 0.06994491 0.024635037 0.100265644 0.052604966 -0.038222913

weight f4 [256, 256]
00000000: 7a1e 4e3a 65a4 5fbc f110 bebd 1f16 ed3b
00000010: 8557 553b aadb d1bc 4285 b33c 1769 8d3d
00000020: b4e3 a6bd 170d c43a 76eb 453c 4aee b3bd
00000030: 0980 db3c 8706 febc 18d2 af3c 6aee af3b
00000040: 61f6 a63d b832 62bd 52aa a4bd cdb6 adba
00000050: cd7f 9b3c 18ec 173b bf5a 6a3d c9ba f53c
00000060: de15 0d3d 9276 10bd f126 df3b 9f74 d13d
00000070: f67d 6abd db2f 8bbc 8a03 47bc 39a7 f93c
00000080: 5a28 38bd 25cf b0bc c4a2 e73c 7fd4 b8bc
00000090: 88e9 da3c 6380 2fbd 348f 98bc 70ec 443b
000000a0: a785 4cbc 9bff 963d aaa3 c5bb 5dda c3bc
000000b0: 1120 15bd 7081 dfbc 8d5b cfbd 4563 5d3d
000000c0: 1b75 943c d583 9dbc 721d a3bd 34a7 7cbd
000000d0: da67 9bba c41c 803d a588 4f3c edda 373d
000000e0: 3b64 9dbb 60eb 873b eff9 1b3d 66c3 c5bc
000000f0: e859 73bc b13e ab3c 7d51 6c3d e410 af3d
00000100: 2200 33bc c166 16bd 1bb0 7c3d f32a b23d
00000110: f4b9 ad3c 0aba 1b3b ae0e 1f3d ac4a 583d
00000120: 869a 57bc f2be a23c 6b1c b7bd 359a 443d
00000130: fb55 42bd eba1 b8bd e0de 5abd 73c7 f6bb
00000140: 19c1 443d 7e04 3abd 5e82 80bb 4a55 093e
00000150: fc29 50bd 93ce 34bb 82f9 d23d 1820 31bd
00000160: a16b af3d 9022 eebc 384d 493c 8dc5 8abd
00000170: ab8d abbc 78f5 9c3b 3732 533d 33ce c53d
00000180: 9426 eb3d 1f2f 87bd d781 85bd e5d6 883d
00000190: d1c8 41bb a471 92bc 1cd6 e83b b1c7 6cbd
000001a0: 678d 043d 8126 493d 43e5 49bc 9b9d 9b3d
000001b0: 51e4 d2bc 5731 393c 158e 87bb 8de3 133d
000001c0: 38e3 273b df24 a7bc 112f 0cbd 4dc4 aa3d
000001d0: 9149 443a a752 033d d076 de3d f549 923d
000001e0: f244 72bd b6cb 9c3d 1520 3f3d f433 2fbc
000001f0: 24c2 583c d1ba a6bc f9ad 723d 4010 1cbd
00000200: c9c0 11bb 7fab 983c 8519 09bd 13ba abbc
00000210: e714 3c3d 9fd8 94bc 5c9d 7b3c a73b ef3c
00000220: c141 123c 2a84 3c3c 30e0 5839 556c a3bd
00000230: adfe 57bd 9602 80bd 3f91 9a3d c3d3 16bd
00000240: 4f1f 0cbc 2753 9c3c 42e9 cdbc a90f ae3d
00000250: dfe4 e83d 2eb4 a43d 0959 e639 b420 8c3c
00000260: 01e5 4fbd 888e 98bd bda3 0cbd 6ce0 f93c
00000270: 73fc 813d 1508 663b 87f0 623b 62c4 073d
00000280: 04c6 0e3d 12f5 79bc 688a 0fbc 18b1 ab3d
00000290: 654f cd3d 8ec1 3fbd ccf9 903d af7c d33b
000002a0: 41a3 7dbd 1732 8ebd b30b 7bbd b26f 8bbd
000002b0: 262b 083d fe20 ac3d 43c6 ce3a 6eee e8bc
000002c0: adf9 64bd 9b60 a3bc 66f2 96bd 2f7e b03d
000002d0: f59f 983d 0689 96bd 3142 acbc c3c2 9b3d
000002e0: c257 0c3c de5d 223d 11e1 903d d6ef 9f3d
000002f0: 9df9 653d 66ac afb9 c3d3 1bbd 31ae b6bd
00000300: 2107 45bc eaff e1bc 8ea9 fc3c d675 13be
00000310: 0832 92bd 52c6 75bd 642c e1bb ea24 ab3c
00000320: 22be 71bb e206 debc 3e88 01bd 969c 423d
00000330: d414 b8bd b8a5 20bd 4d12 8d3d eb20 d83b
00000340: 22e7 8dbd 8e77 473c 9655 c6bb ca18 1bbd
00000350: 7035 51bb 315d adba 5845 9e3d 56e1 093d
00000360: 9246 9a3c c072 23bb 7792 c3bb 64d8 aebd
00000370: 5286 bcbc 1fe7 b03d b9ed 0bbd 4c30 393d
00000380: 47cc 803a 3bfb 463d fa7c a43d 4205 b63c
00000390: 30a4 dc3c 5868 b4bc a70b babd b848 353d
000003a0: 9338 90bd 08aa 833d 26ff ff3d 1a29 acbd
000003b0: a1e4 eb3b 5ea2 0fbc 4a43 2b3d ee76 6e3d
000003c0: dab8 8e3c 80e8 4a3d e239 953d 92b3 ed3c
000003d0: 5eec 81bd 0f49 b8bd 8d77 b23c c56d 24bd
000003e0: 4a80 a93c cb98 413d 92ee 503b 2fef 043c
000003f0: c522 7abd 7700 c23c 5ac4 0bbd e207 5bbd
0.0007862818 -0.013650035 -0.09280575 0.007235303 0.0032553386 -0.02561744 0.021914128 0.0690481
-0.081489 0.0014957514 0.012080064 -0.087856844 0.02679445 -0.031008972 0.021462485 0.0053689973
0.08152462 -0.05522415 -0.080402985 -0.0013253331 0.018981839 0.0023181494 0.05721545 0.029996293
0.034444682 -0.035269327 0.006810062 0.10227322 -0.057249032 -0.016990593 -0.01214684 0.030475246
-0.044960357 -0.02158315 0.028275855 -0.022562264 0.026722685 -0.04284705 -0.018622972 0.0030048154
-0.012483037 0.073729716 -0.006031473 -0.023907835 -0.036407534 -0.0272834 -0.10124884 0.05404975
0.018122246 -0.019227901 -0.079646006 -0.061682895 -0.0011856512 0.062554866 0.012666856 0.04488652
-0.004803208 0.004147932 0.038080152 -0.024141025 -0.014852978 0.020903917 0.0576949 0.085481435
-0.010925325 -0.036719088 0.061691385 0.08699598 0.021206833 0.002376201 0.03883236 0.052805588
-0.0131594 0.01986644 -0.08940967 0.047998626 -0.04744528 -0.090152584 -0.053435206 -0.0075311004
0.048035715 -0.04541444 -0.003921791 0.13411441 -0.05082129 -0.0027588948 0.10301496 -0.043243498
0.085654505 -0.029069215 0.012286477 -0.06775961 -0.020941576 0.0047900043 0.05156156 0.0965847
0.114819676 -0.066007845 -0.065189056 0.06681613 -0.0029569159 -0.017876454 0.007105602 -0.057807628
0.032361414 0.049108986 -0.012322727 0.0759842 -0.025743635 0.011303267 -0.0041368105 0.03610568
0.002561761 -0.020403324 -0.034224574 0.08338223 0.0007487769 0.032061245 0.108625054 0.071430124
-0.059147783 0.07656042 0.046661455 -0.010693539 0.0132298805 -0.020352753 0.059247945 -0.038101435
-0.0022240153 0.018636463 -0.033471603 -0.02096275 0.04591837 -0.0181697 0.015357342 0.02920325
0.00892681 0.01150612 0.00020682882 -0.07979647 -0.052733112 -0.06250493 0.07547235 -0.036823045
-0.008552386 0.019082619 -0.02513564 0.08499081 0.11371779 0.08042179 0.00043935355 0.017105438
-0.050755505 -0.07449061 -0.03433584 0.03050252 0.06346979 0.0035100032 0.0034628229 0.03314627
0.03485681 -0.015256183 -0.008761026 0.08383387 0.10024909 -0.046815448 0.07078895 0.0064540724
-0.06192327 -0.06943148 -0.061290454 -0.068084136 0.033244275 0.0840473 0.0015775639 -0.028434005
-0.055902172 -0.019943526 -0.073704526 0.086178176 0.074523844 -0.07350354 -0.021027656 0.07605507
0.008565845 0.0396403 0.07074178 0.07809417 0.056146253 -0.00033507048 -0.03804375 -0.08919943
-0.012025625 -0.02758785 0.030842569 -0.1440042 -0.07138449 -0.060003586 -0.006871747 0.020891625
-0.003688701 -0.027102891 -0.03162407 0.047512613 -0.08988348 -0.03922054 0.06888256 0.006595721
-0.06928851 0.0121745 -0.006052683 -0.037865438 -0.003192272 -0.0013226626 0.0772807 0.033662163
0.018832479 -0.0024940223 -0.0059683877 -0.08537367 -0.023013268 0.08637833 -0.034162257 0.045212075
0.0009826504 0.048579436 0.0803165 0.022219304 0.02693376 -0.022022411 -0.09084254 0.044258803
-0.07042041 0.06428915 0.124998376 -0.08406277 0.0071988855 -0.008766739 0.04181222 0.05821889
0.017422128 0.049538136 0.07286431 0.02901629 -0.063439116 -0.0899831 0.021785522 -0.040143747
0.020691056 0.047264855 0.003188048 0.008113666 -0.061068315 0.023681862 -0.034122802 -0.053474315

bias f4 [256]
00000000: 5885 83bd b331 f5bd 1c7c 66bb 55d8 433d
00000010: 9df1 4fbc b755 1cbd 8970 c93d d4ec a73b
00000020: 73a1 69bb d3af 5d3d 5b32 073c efaf c0bc
00000030: dcc7 91bd 5ef7 bb3d 640e 5bbd 9e88 b0ba
00000040: 7277 94bd d9fd 60bd 2b1a 1c3d f5c6 953d
00000050: 9fad 1a3d e8e7 c13d 1e45 663d 3702 ddb8
00000060: fef8 293d b1fa 943c f5ad 89bd 6f5b c63d
00000070: 282d 203c 708c 243c ebbf 38bd 0583 8ebd
00000080: 0df1 593d bf03 d03c e2fc 463c c60e 40b9
00000090: 877e 723d 42ed d53d a843 debd f358 b3bd
000000a0: 517a 14bc 55a6 fb3c 7b33 203d d177 33bd
000000b0: 3a99 72bd bb00 e5bd 571e 43bc 4bbb b3bd
000000c0: f021 43bd a086 573d 8021 bfbd 589d f5bc
000000d0: 18e1 c0bd c5bc bfbc ec1a 8b3b b8d6 bcbd
000000e0: 16b5 423c b32c adbc b36e c6bb a964 033c
000000f0: 6e44 9bbd 9d50 983b d824 9fbb 02f1 39bd
00000100: 66e0 85bc ed33 d6bd 01e7 d6bd 069d acbc
00000110: 9f87 fcbd bc55 65bd 21cd 903d d28e 95bd
00000120: 4e7f d43b 8d23 d73d 9fb5 babb e6d9 c73d
00000130: 22c2 e1bc 5063 7a3d 174f 97bd 9269 d53c
00000140: 5af2 a6bb c25a a7bd 5d68 953b 1d21 63bd
00000150: bd2a 983c d509 0cbd b394 a23d 67af 59bb
00000160: 61d6 4dbd 8ff4 383d 868f a6bd 672c 69ba
00000170: 1603 053d 8847 9a3a 84c2 b1bd 493c d2bd
00000180: 1f3d 6ebd 6cdf 933c d307 8cbc 46a2 b03c
00000190: e35e e53c 2bff 82bc 8abf a03d 21b7 bdbd
000001a0: 04c2 b33d c1c0 48bc 6482 353d 2870 f73c
000001b0: 681f b73d 1776 46bd d7f1 e5bd b851 e43a
000001c0: 2c13 ca3d f05d ab3d 2514 acbd 35e6 49bd
000001d0: bea8 933d 3ad0 c1bc 4f23 34bd 8602 b43c
000001e0: 81c0 de3d 2849 2c3d 4656 f33c 33b6 343c
000001f0: adb4 ae3d ed52 ba3d a53f 233b ee5a cc3d
00000200: 06f5 38bd af6f 99bd 08dd 3a3c efd0 bc3d
00000210: 3e46 35bd 780b 3fbd 6b2d 42bb 7cbf 113c
00000220: 154c c23d e033 b53b 851f af3d cbe3 0bbd
00000230: f1d4 afbc 951b 833d fcee a1bd 7549 cabd
00000240: eb33 c23c 9226 d03d 2c6a ea3d f37b e4bc
00000250: 9b29 2a3d e1de 7c3c f5af e33b 22bf 9fbd
00000260: e94c 48bd 2bfe 053d c0a2 063d 8809 b1bd
00000270: 1a6f cb3c 763c 793c e3cd 653d a052 a7bd
00000280: d20f 473d f257 b6bd 211e d43d 85cb cb3d
00000290: afe6 a6bd 9ed3 4c3c e816 9e3d 4b28 73bd
000002a0: 9d90 193c b72b 7b3d 6f64 db3d 1749 f4bc
000002b0: c371 a1b9 9fa1 1c3c b009 d73c eb5a dbbd
000002c0: a3ab 64bd f0a7 8bbd ce13 87bc 2496 95bd
000002d0: 2065 873b 0d18 c4bd 7673 f8bc a249 8d3d
000002e0: 8d35 a53c b2d1 d63c f5bb 1fbd 5bf0 c63d
000002f0: f760 c93d bc75 11bd a6f2 18bd 91ba 9abb
00000300: 27e9 a1bd d241 d6bd 6a79 eb3d 0581 b93d
00000310: dc9f 11bd d817 0c3d 72cb db3d dcb0 75bd
00000320: 7738 58bc 6133 9f3d 50dd 1e3d adae 78bd
00000330: 7ebc 173d 708e 863d 0d9c 94bd d89e f43b
00000340: 7ac8 e3bb b334 b5bd c1b8 fbbc 7ce6 d4bd
00000350: 515d 313d 6f5c 6abd 73a0 31bd 728a 3cbd
00000360: d232 9dbd ead3 0b3d 9b71 bd3c ea89 02bb
00000370: a043 8bbd 5f6f 9a3d e2f1 b7bd 2c04 4c3d
00000380: a74d bcbd dbde 00bc 0625 82bc 4c9c c7bd
00000390: b513 253c 06a2 c63c f27a bc3d 9ab2 00bb
000003a0: 4e0a c5bd b706 8f3d cdd8 97bc 7633 86bc
000003b0: 2ddd b1bd d0a7 c93d d01a 2a3d ac7b 573d
000003c0: ae94 bd3d fc12 a53b f816 323c 988c df3c
000003d0: 5e5d 2ebd 6382 c2bb 6051 413d ad23 ecbc
000003e0: 0265 48bc 56b6 8b3b f392 ae3d f429 f0bc
000003f0: 4899 67bc 8785 c9bd 1dd8 c4bd 3f76 493b
-0.06421918 -0.1197237 -0.003516919 0.047813732 -0.012691882 -0.03816768 0.098359175 0.0051246677
-0.003564921 0.054122757 0.008251752 -0.023521392 -0.07118198 0.09178041 -0.05348052 -0.001346845
-0.07249345 -0.054929588 0.038110893 0.07313339 0.037763234 0.09468061 0.05621826 -0.00010538514
0.041497223 0.018185945 -0.06722633 0.09685408 0.009776391 0.0100432485 -0.045104902 -0.06958584
0.0532084 0.025392411 0.012145253 -0.0001831605 0.059202697 0.10445644 -0.10852748 -0.087572
-0.009062366 0.030718962 0.039111596 -0.043815438 -0.05922816 -0.1118178 -0.011909089 -0.08775958
-0.047639787 0.052618623 -0.093325615 -0.029982254 -0.09417933 -0.023405442 0.0042451527 -0.09220642
0.011883995 -0.021139478 -0.006055677 0.008019605 -0.07581411 0.0046482817 -0.004856687 -0.04539586
-0.016342353 -0.10459123 -0.10493279 -0.021070968 -0.12330555 -0.055989966 0.07070375 -0.073026314
0.0064849025 0.10504828 -0.0056979205 0.09758358 -0.02755839 0.061129868 -0.07388132 0.026051316
-0.0050948085 -0.081716076 0.00455956 -0.0554515 0.018575067 -0.034189064 0.079385184 -0.003321612
-0.050253276 0.045155104 -0.08132844 -0.0008894861 0.032473646 0.0011770586 -0.08679679 -0.10265405
-0.05816376 0.018050872 -0.017093575 0.021561753 0.027999347 -0.015990814 0.07849033 -0.09263445
0.0877724 -0.012252987 0.044313803 0.030204847 0.08941537 -0.048452463 -0.11227768 0.0017419374
0.09866938 0.083675265 -0.0840228 -0.04929181 0.072099194 -0.02365886 -0.043978985 0.02197386
0.10876561 0.042061955 0.029704224 0.011029768 0.08530555 0.09097848 0.0024909761 0.09978281
-0.045155548 -0.07492005 0.011405237 0.092195384 -0.04425644 -0.046641797 -0.0029629122 0.008895751
0.09487168 0.0055298656 0.08550934 -0.034152787 -0.021463843 0.06401745 -0.07906911 -0.09877292
0.023706397 0.10163607 0.11446032 -0.027891135 0.041543584 0.015433998 0.006948466 -0.078001276
-0.048901472 0.032713097 0.032870054 -0.08644396 0.02483325 0.015212169 0.056104552 -0.08170056
0.04859907 -0.08903493 0.10357309 0.09950928 -0.08149468 0.012501625 0.07719213 -0.0593646
0.009372857 0.061320987 0.107125156 -0.029820008 -0.00030793072 0.009560018 0.026249737 -0.107107006
-0.055827748 -0.06819141 -0.016488936 -0.07304028 0.004131928 -0.095749 -0.030328494 0.0689881
0.020167137 0.026223037 -0.03899761 0.09713813 0.09832948 -0.03551267 -0.037340783 -0.0047219475
-0.079057984 -0.10461773 0.11497767 0.09057812 -0.035552844 0.034202427 0.107321635 -0.05998312
-0.013197056 0.077734716 0.03878528 -0.06071346 0.037044995 0.065701365 -0.07256327 0.0074652247
-0.006951389 -0.08847942 -0.030727746 -0.10395524 0.043301884 -0.057217058 -0.043365907 -0.04603047
-0.07675709 0.034137644 0.02312546 -0.001991863 -0.06800008 0.075407736 -0.08981682 0.049808666
-0.091944985 -0.007865633 -0.015886795 -0.09746608 0.010075499 0.02424718 0.092031375 -0.0019637705
-0.09621106 0.06983703 -0.018535996 -0.01638196 -0.08684764 0.09846461 0.041529477 0.052608177
0.09256874 0.0050376635 0.010869734 0.02728872 -0.04256951 -0.0059359535 0.047196746 -0.028825605
-0.012231113 0.0042636795 0.08524122 -0.02931688 -0.014135666 -0.098399214 -0.09611533 0.0030740646

weight f4 [1, 256]
00000000: e341 89be ff0d a9be 0e79 b13e d97b 883e
00000010: bb38 9ebe 47a6 75be 6258 b13e 0d12 b83e
00000020: c39c b23e 1c62 ba3e b1ee 9ebe ad82 a2be
00000030: bc86 aebe 6572 af3e 486a 88be df17 89be
00000040: bef9 a3be 5a22 91be d16d b43e da69 bd3e
00000050: 9f64 b43e a0e5 b53e 5df8 b33e 63b6 633e
00000060: a3ee b73e e345 ae3e 154d 89be b520 b23e
00000070: f729 c2be 04f4 4a3e 4acd 99be 8f8e acbe
00000080: 18c1 bb3e b55c adbe f223 44be 2166 b7be
00000090: 8793 9a3e 611d b53e 6093 b1be 1c7d 89be
000000a0: 87cd 95be 1eec bd3e d5cb b03e 753e c0be
000000b0: 3fcb c2be ebb7 bcbe dbab a43e 335d a9be
000000c0: fb54 c0be d360 b33e 2a49 aebe cfc2 aebe
000000d0: 9248 9ebe f309 b4be b902 a63e db2b a0be
000000e0: c063 efbd b87e 903e 06b8 6dbe e8a1 94be
000000f0: a610 c4be 692a a73e ab6e a93e d9bb a9be
00000100: f3f1 90be c91e bbbe 19ae b1be e709 b0be
00000110: 1191 a9be 644d 9fbe 4129 b93e 7b0c afbe
00000120: 8864 903e 8103 af3e 6dcb b23e a56c be3e
00000130: 8e8c 99be ff0e ad3e 355f abbe 1aef b73e
00000140: 4e96 b3be ff3b bbbe 38d8 92be fe6d b9be
00000150: 0a41 ba3e 91e7 a8be 63a1 b03e 092c 7fbe
00000160: 0f21 adbe 3939 5cbe cbab c3be 5edc bebe
00000170: 544b b03e c1b3 a9be 9bf1 b3be cc43 a2be
00000180: c884 babe c6f9 b43e a0f1 96be 2fff b03e
00000190: a9fb a13e 66dc b2be bd6b 7d3e b1ab b6be
000001a0: e376 b33e fcc4 b4be 34c5 a93e 1cc3 95be
000001b0: 1ad5 9e3e 3190 c2be 5080 a9be 7034 85be
000001c0: c926 a93e 1cb0 ae3e c0e9 b4be 1b52 bcbe
000001d0: bcef a93e 1c6b 3dbe 6818 8ebe 127a bd3e
000001e0: 73ec bb3e 922a 88be ab97 b23e f0c5 89be
000001f0: a646 af3e c8ab b73e 7364 b43e 4e1d b33e
00000200: 1620 9cbe f42c b2be a3be 8fbe c4ba b13e
00000210: 9d53 acbe 6974 b7be 84e7 a5be a477 85be
00000220: a924 b43e 8a28 bfbe cee3 a93e 3958 b7be
00000230: 9292 adbe 458a ae3e 6c05 c3be c7ab b2be
00000240: 2bb6 b83e 0b1e b93e e499 bb3e 54b9 bfbe
00000250: f447 b93e cab5 9bbe a32d c1be a260 adbe
00000260: 1e3c 9f3e 383a b73e a0aa b13e ac03 97be
00000270: bc9e bd3e b678 96be c761 bc3e 2d09 a3be
00000280: beca 57be 57e7 98be 8dd3 bf3e 245a ae3e
00000290: 275a a7be be31 a6be 7f89 af3e 8b06 c0be
000002a0: ea1a 95be 117f b83e f396 b33e 5f79 afbe
000002b0: bf55 86be 9058 b23e a683 b53e aedf a3be
000002c0: 2296 a1be 23ea c3be 2044 993e 2afd bfbe
000002d0: eb97 abbe 59b8 b6be 0ee8 bcbe 18d0 b03e
000002e0: 27e3 ae3e a415 b33e 20c0 88be 5775 b43e
000002f0: 21cf b43e 8f3f c1be 24ec a6be a84c ad3e
00000300: aa3f b2be c3f0 c3be e3f2 b83e 0b0c b73e
00000310: e8d6 97be aff7 b23e 2c37 b53e 5c47 9fbe
00000320: fe3c a8be df0e b43e 6f0f b23e ca64 aabe
00000330: d91f 58be 678c b43e e651 8abe 0d3c a93e
00000340: 2719 b13e 3386 8abe 1e05 afbe 2583 acbe
00000350: ae9d b43e 9eb5 a3be cd1a afbe 7c15 96be
00000360: a281 b1be 74bd 87be 19d0 b43e 76e9 adbe
00000370: 7181 8cbe 88d1 9f3e 211f 94be 07c2 b23e
00000380: 0e53 babe d76b 7bbe 93a6 47be 5431 bbbe
00000390: 13cb ac3e a64d b13e 1c21 b23e 7ffe 90be
000003a0: 428e b0be 5a64 b23e 617f 7cbe c8c9 93be
000003b0: f509 95be 93bf be3e d83c ad3e 1083 b43e
000003c0: 49c8 b03e 851b b33e a38b bc3e 831c b33e
000003d0: 083a a5be 40ab b8be 79d5 a93e 1f26 bdbe
000003e0: b5dc 3dbe 3c56 8f3e 3aef b13e 7ca8 c4be
000003f0: 994e a0be d666 b8be 6e70 c1be cb1b aebe
-0.2680808 -0.3301849 0.3466267 0.26656988 -0.30902657 -0.23989211 0.34637743 0.35951272
0.34885225 0.36402977 -0.31041482 -0.31740323 -0.3408717 0.34266964 -0.26643586 -0.26776025
-0.32026476 -0.2834652 0.35240033 0.3699482 0.35233018 0.35526752 0.35150424 0.22237544
0.35924253 0.34037694 -0.2681662 0.34790578 -0.37922642 0.19819647 -0.30039436 -0.33702514
0.36670756 -0.33859792 -0.19154337 -0.35820106 0.3019068 0.35373977 -0.3468275 -0.26853263
-0.29258367 0.37094206 0.34530511 -0.3754765 -0.3804569 -0.36859068 0.32162365 -0.33078918
-0.37564835 0.3503481 -0.34040195 -0.34133002 -0.30914742 -0.3516384 0.32423952 -0.3128346
-0.11688948 0.2822168 -0.2321473 -0.29029775 -0.38293952 0.32649544 0.33092245 -0.3315113
-0.28309593 -0.36546925 -0.34703138 -0.34382555 -0.3311849 -0.31113732 0.36164287 -0.3418921
0.282017 0.3418236 0.34920827 0.37192264 -0.29990047 0.33800504 -0.33471075 0.35924608
-0.3507561 -0.3656921 -0.28680587 -0.3621673 0.36377746 -0.3298917 0.34498128 -0.24919142
-0.33814284 -0.21506204 -0.38217005 -0.37277502 0.3443247 -0.33144954 -0.35145268 -0.3169235
-0.3642943 0.35346812 -0.2948122 0.3456969 0.31637314 -0.34933776 0.2474813 -0.35677865
0.3505164 -0.35306537 0.33158267 -0.2925042 0.3102196 -0.38000634 -0.33105707 -0.2601657
0.33037403 0.34118736 -0.35334587 -0.36781392 0.33190715 -0.1849789 -0.27752995 0.37007195
0.36703834 -0.2659498 0.34881338 -0.26908827 0.34233588 0.35873246 0.35232887 0.34983295
-0.3049323 -0.34799922 -0.28075132 0.34712803 -0.33657542 -0.35831 -0.32403195 -0.2606784
0.3518422 -0.37335616 0.33181614 -0.35809496 -0.33900887 0.34089866 -0.38090074 -0.3489668
0.36076483 0.36155733 0.36640847 -0.37446082 0.36187708 -0.30412132 -0.3773013 -0.33862787
0.31100553 0.35786605 0.3470049 -0.2949499 0.37035167 -0.2938897 0.36793348 -0.31842938
-0.21073434 -0.29863998 0.37466088 0.34053147 -0.32685968 -0.32459825 0.3428459 -0.37504992
-0.29122096 0.36034444 0.35076103 -0.34272286 -0.26237294 0.34833193 0.35452002 -0.32006592
-0.31559855 -0.3826457 0.29934788 -0.37497836 -0.33514342 -0.3568752 -0.36895794 0.34533763
0.34157678 0.34977448 -0.2670908 0.35245773 0.35314277 -0.37743804 -0.32602036 0.33847547
-0.34814197 -0.38269624 0.36122808 0.35751376 -0.29656148 0.34954593 0.35393655 -0.3110913
-0.32859033 0.35167596 0.347774 -0.3328002 -0.21105899 0.35263368 -0.2701561 0.33053628
0.34589502 -0.2705551 -0.34183592 -0.33693805 0.3527655 -0.319745 -0.34200135 -0.29313266
-0.34669214 -0.2651173 0.35315016 -0.3396718 -0.27442506 0.31214547 -0.2893 0.34913656
-0.3639149 -0.24552856 -0.19497137 -0.36561072 0.33748683 0.34629554 0.34790885 -0.28319165
-0.34483534 0.34842187 -0.24657966 -0.28864884 -0.2910916 0.37255535 0.33835483 0.35256243
0.34527805 0.34981933 0.36825284 0.3498269 -0.32270837 -0.36068153 0.3317068 -0.36943147
-0.18541224 0.2799548 0.34752828 -0.38409793 -0.31309965 -0.36015958 -0.3778109 -0.3400558

weight f4 [6, 256]
00000000: 5107 f6bd 494c 8dbd 84af 1e3c 44d3 01bd
00000010: 16f0 28ba fdcd 9fbc 6737 d4bc 5ba0 cebc
00000020: 9289 72bd f38c 083d d418 38bd 4ac6 ebbc
00000030: eb84 363d e098 90bc 000f 043d d122 7b3d
00000040: 6a9c 823b 2229 a23d 5142 753d 1d8e 053d
00000050: dd2b 9ebd f9ce f63b a84a 6f3d ae6b 0e3a
00000060: f6b7 0fbc 3ab2 123d 6ce5 aabd 2332 fb3c
00000070: 8f3c 92bd 9fe2 ea3c ac7a d63d 1e90 89bd
00000080: cc55 373d ad7c 9b3d 064a 9abc d271 bcbd
00000090: d88f 5d3b eb21 24bc 93b9 883d 41bb 66bd
000000a0: af89 933c 72da 59bd b5c7 24bd 3178 7d3c
000000b0: 4e91 f5bc b958 c2bb e991 e7bc efd9 febc
000000c0: 4db8 f63b c7c5 ef3c 4f7d 903d ad83 913c
000000d0: 6663 a1bd 1241 5f3b 28d3 763c 47f8 41bd
000000e0: 8bdb a73d fe86 c63d 6dbd 69bd d9a3 36bb
000000f0: f04f e4bb 176d 853a 919a 323d c4ef a8bd
00000100: 066d 9dbd 8ddb 92bc f33e fb3c 297a 05bd
00000110: e83e 703d e588 d7bc c7d2 0e3d b804 4cbd
00000120: 008b acbd 3803 1d3d 3a7c 503c 683e 3cbd
00000130: e242 0d3d 643d 8d3d 7bdc 7c3d 811e 9cbd
00000140: 183a 46bd c3af 03bd 80ec a6bb 84b9 a43c
00000150: f20f 403d e659 86bd 522e 153d d195 943c
00000160: 7be8 883d 2dd6 acbd b2b0 7abc 8e71 37bd
00000170: 81cf 2ebd 92e7 3f3d 79fd 1dbd b703 483d
00000180: b648 51bd 1860 1d3d af3a 78bd 98e2 e13b
00000190: 1c3f 2d3d fa15 aabc 5d4c 283b 7dd3 9e3d
000001a0: 66b5 8c3c afde 45bd 077e c33d 2864 69bd
000001b0: 4e73 bdbd dd7a 343d 65d3 14bc 98f7 903c
000001c0: 608a 9ebd 8875 01bd b755 8a3c 900f 2abd
000001d0: 8176 c8bd 5719 513d 228c aabd 88f9 a8bc
000001e0: 38a8 38bd fac6 18bd 8cd2 02bd 8074 623d
000001f0: 6f7c 403c b273 f63c 5a33 fd3b d2d3 bebd
00000200: 1d87 183d 0029 ff3c 3e1b 69bd 24f9 603c
00000210: 16b0 b33b 4eff 4d3d dbd9 f7bc 1054 09bd
00000220: f8ed f93c 24ff 9ebd 10e3 b93c af08 54bd
00000230: 365d 39bd 7102 953d 4a7a 2a3d ee4b 90bc
00000240: 5002 1c3c aef0 483d a34b ddba e5a9 aabd
00000250: 8b3c 4abc 268b 44bd b0ab 953d 7032 803d
00000260: dfa9 bf3d 7e4d 6ebd be9e 1b3d 5dad fab9
00000270: 2785 0abc 5a6f cd3c c51f 92bc eb70 113d
00000280: 17cd af3d 0029 56bd b490 b23c 6309 d4bd
00000290: 535a fdbb 0bdb 0e3a 22fd a93c b5c0 b93c
000002a0: 7378 a43c 5a07 23bd 8ac4 21bd 32f8 4e3d
000002b0: dc4b 83bd 1723 0dbd 1d63 fcbc 8ca6 c63b
000002c0: b742 89bd d33a ddbc c7c5 6bbd 0b7b 8b3d
000002d0: 42ee dfbc e11d 9bbd 5813 24bc d782 f8bc
000002e0: 2054 1abd d871 21bd 0c8d 913d f578 ae3d
000002f0: 9b2f f5bc 3dcd 58bd c8b0 49bc 36c3 ab3c
00000300: fa5d a9bc c842 80bd 5b12 de3c 7e23 973c
00000310: e50e 0a3d 814d 5a3d a3f4 2d3d 9584 ecbc
00000320: 484f 5d3d 4d33 333d 0573 00bd 2a68 49bd
00000330: f631 dcbd 32c0 55bd 67fd 8abd b11b 7e3c
00000340: 5525 853c f906 bd3b 45ef 8f3d f5ee 293c
00000350: 635f d9bd ab60 34bc 3096 a6bb 4fcd d53c
00000360: ca2d 203d 790c 2b3c 74e3 d4bc 04de c1bc
00000370: b0a5 fe3c 070f 1d3c 9946 153b 1007 4f3d
00000380: 5057 84bd 2afb d3bc fc84 10bd bf50 d5ba
00000390: fd1c a1bd e9d4 a7bd 01d6 43bd 04a4 8d3c
000003a0: 96c4 8f3d 8628 793d 5487 79bd f77f 903c
000003b0: 04f3 7d3d 5dbe 5dbd cd1b d93c a986 1fbc
000003c0: f301 3dbd f8d3 d93c cebf 5bbd ba58 603d
000003d0: 8f5e 173c 5f23 bebc e2ff 08bd 3749 4ebd
000003e0: 235c cbbd d740 0a3d 7d63 55bd c40c d43c
000003f0: 8901 e6bc 9074 92bd c6c9 2fbc d30a 82bc
-0.12013114 -0.06899316 0.009685401 -0.03169562 -0.0006444467 -0.019507403 -0.025905324 -0.025222948
-0.05921323 0.033337545 -0.044945553 -0.028781075 0.044560354 -0.017651021 0.032240868 0.0613125
0.003985931 0.07918002 0.059877697 0.032606233 -0.0772321 0.0075319973 0.058420807 0.00054329156
-0.008771887 0.0358145 -0.0834454 0.030663555 -0.07140457 0.028672514 0.104726166 -0.06716941
0.044759557 0.075921394 -0.018834125 -0.09201397 0.0033807661 -0.010017852 0.066760205 -0.056330923
0.018009989 -0.05318684 -0.040229518 0.01547055 -0.029976513 -0.0059309867 -0.028267818 -0.031109778
0.0075292946 0.029269112 0.07055151 0.017762983 -0.07880287 0.0034065885 0.015064992 -0.047355916
0.081961714 0.096937165 -0.057065416 -0.0027868657 -0.006967537 0.0010179606 0.043604437 -0.08248857
-0.0768681 -0.017926956 0.030669665 -0.032587204 0.058653742 -0.026310394 0.03486898 -0.049809188
-0.0842495 0.038333148 0.01272493 -0.045957953 0.034487613 0.06896475 0.061733704 -0.07623006
-0.048395246 -0.03215004 -0.005094111 0.020107992 0.046890207 -0.065601155 0.036421128 0.018137844
0.06684967 -0.08439288 -0.0153009165 -0.04478603 -0.04267836 0.046851702 -0.03857181 0.048831668
-0.051094733 0.03842172 -0.06060284 0.006893467 0.042296514 -0.020762432 0.0025680282 0.07755182
0.017176341 -0.04830807 0.09545522 -0.056980282 -0.09250508 0.044062484 -0.0090836035 0.017696187
-0.07741237 -0.031606227 0.016886575 -0.041518748 -0.09788228 0.051049557 -0.083275095 -0.020626798
-0.0450823 -0.037299134 -0.031939074 0.055286884 0.011748417 0.030084465 0.007727069 -0.09317745
0.03723823 0.03114748 -0.056910746 0.013731275 0.0054836376 0.050292306 -0.030255249 -0.033527434
0.03050898 -0.07763508 0.02269128 -0.051766094 -0.04525491 0.07275856 0.04162053 -0.017614331
0.009522036 0.049057655 -0.0016883503 -0.08333186 -0.012343536 -0.047984265 0.073081374 0.0625962
0.09358572 -0.05817937 0.037993185 -0.00047812882 -0.008454598 0.02507751 -0.017837415 0.035508078
0.0858404 -0.052285194 0.021797515 -0.10353353 -0.0077317148 0.000544951 0.020750586 0.022674898
0.020076966 -0.039801933 -0.039494075 0.050529666 -0.064109534 -0.034457292 -0.03080898 0.0060623344
-0.06702178 -0.027005589 -0.057561662 0.06810578 -0.02733529 -0.07574058 -0.010014378 -0.030335827
-0.037677884 -0.03941521 0.07106981 0.085191645 -0.029929927 -0.052930105 -0.012310214 0.020967107
-0.020674694 -0.062627375 0.027108362 0.018449541 0.03370561 0.05329657 0.042469632 -0.028871814
0.054030687 0.043750096 -0.03135969 -0.049171604 -0.10751717 -0.052185245 -0.06786614 0.015509532
0.016253153 0.0057686535 0.07028059 0.010371913 -0.10613897 -0.011009376 -0.0050838217 0.026098875
0.039106168 0.010439985 -0.025987364 -0.023665436 0.031084865 0.009586102 0.0022777675 0.050543845
-0.06461966 -0.0258766 -0.035283074 -0.0016274675 -0.07866857 -0.08194906 -0.047811512 0.017290123
0.07019918 0.06082966 -0.060920075 0.017639143 0.061999336 -0.054136623 0.026502514 -0.009736695
-0.046144437 0.026590332 -0.053649716 0.054772116 0.009238853 -0.023210226 -0.033447154 -0.050362792
-0.09929683 0.033753242 -0.052096833 0.025884993 -0.028076904 -0.07151139 -0.010729259 -0.015874302

bias f4 [6]
00000000: 861e 24bd a557 9d3d 5e74 b93c 9fad 37bd
00000010: 8a1f 353d 42e6 8c3d
-0.040068172 0.076827325 0.022638496 -0.044843312 0.04421953 0.06879856
